code/model.pt (torch, 142939 bytes, 12 tensors)

cnn.0.weight f4 [16, 3, 3, 3]
0	0xbc9351cd	-0.017983342
1	0x3db0fd5b	0.08642074
2	0xbe4096a6	-0.18807468
3	0xbe21b78b	-0.15792672
4	0xbdc6c28c	-0.097050756
5	0x3c452d0f	0.012034669
6	0xbca54230	-0.020173162
7	0x3e025c42	0.12730506
8	0xbd7abd4d	-0.061215688
9	0x3d335835	0.043785293
10	0xbd8b5507	-0.06803327
11	0xbd7d54b7	-0.06184837
12	0xbe46f109	-0.19427885
13	0xbe11b2a4	-0.14228302
14	0xbde88982	-0.113543525
15	0xbaefae4c	-0.0018286197
16	0x3d685ad4	0.056727245
17	0x3d9bf0b6	0.07614271
18	0xbdb57e2c	-0.08861956
19	0xbd34ba41	-0.044122938
20	0x3db631d1	0.088962205
21	0x3e4f68bf	0.20254801
22	0xbb56228d	-0.0032674402
23	0x3e1b8762	0.15188363
24	0x3c31d28f	0.010853424
25	0x3d2ce619	0.042211626
26	0x3e2f6e8b	0.17132013
27	0xbe5cbba0	-0.21555948
28	0xbe27d66a	-0.16390386
29	0xbdd4fbbf	-0.10399579
30	0xbe066af7	-0.13126741
31	0x3deb0e38	0.114773214
32	0xbe3a4715	-0.18191178
33	0xbe1ff498	-0.15620649
34	0xbe40f509	-0.18843473
35	0xbe6f8d9a	-0.2339386
36	0xbe159bbd	-0.1461019
37	0x3e00a53e	0.12563035
38	0x3d059641	0.032613996
39	0x3d13a1e2	0.036043055
40	0xbd2a7ef2	-0.04162497
41	0xbe2035ee	-0.15645573
42	0xbd21695c	-0.03940712
43	0xbe72033b	-0.23634045
44	0xbe47aece	-0.19500276
45	0xbcdb7031	-0.026786895
46	0x3e439e92	0.19103459
47	0x3e2a267a	0.1661624
48	0xbd2f3f58	-0.04278502
49	0x3d3f3b91	0.046687666
50	0x3e2da42c	0.16957158
51	0x3e5c50f1	0.21515252
52	0x3dfac0e7	0.122438245
53	0x3d9449b6	0.07240622
54	0x3e5edc87	0.21763812
55	0xbdd66d2f	-0.10470044
56	0xbcbbc2a4	-0.02291996
57	0xbd890c0c	-0.06691751
58	0xbe0496c7	-0.12948142
59	0xbe2232c1	-0.15839674
60	0x3e221bd0	0.15830922
61	0x3d91f8dc	0.07127544
62	0xbe361453	-0.1778119
63	0x3e0da935	0.13834079
64	0x3db440c9	0.08801419
65	0xbdfdc180	-0.12390423
66	0x3da251f8	0.079257905
67	0x3c8c42b9	0.01712166
68	0x3c8d84c8	0.01727523
69	0x3e79cea1	0.24395229
70	0xbe3fab0f	-0.18717597
71	0xbe34eb05	-0.17667778
72	0x3e1d29b9	0.15347947
73	0x3e23f8f0	0.16012931
74	0x3db45167	0.08804589
75	0x3e79e08f	0.24402069
76	0x3d05d9ff	0.0326786
77	0xbe8130f1	-0.25232652
78	0x3daf6206	0.08563618
79	0xbe0b4ea9	-0.13604225
80	0xbe8b3160	-0.27186108
81	0x3e46c366	0.19410476
82	0x3e1c65be	0.15273187
83	0xbe5071d6	-0.20355925
84	0x3d3ce274	0.0461144
85	0xbd1c7c35	-0.03820439
86	0xbd54a7fa	-0.051918007
87	0xbdbbed94	-0.09176174
88	0x3d66e88f	0.05637413
89	0xbe1158de	-0.14194056
90	0x3de3567b	0.11100479
91	0x3df2ca8e	0.118550405
92	0x3e0da239	0.13831414
93	0x3dc7bf2c	0.0975326
94	0xbe3ba974	-0.1832636
95	0xbe0993a5	-0.13435228
96	0x3dd8f08f	0.10592758
97	0x3d0adb9d	0.033900846
98	0xbe2c693e	-0.16837022
99	0xbd120162	-0.03564585
100	0x3e6e2bff	0.2325897
101	0x3e205a8f	0.15659545
102	0xbcccc3ad	-0.02499565
103	0xbc4e4987	-0.0125907725
104	0xbe2c1acb	-0.16807096
105	0x3d1f8768	0.038947493
106	0xbdfce10d	-0.123476125
107	0xbe11ff57	-0.1425756
108	0xbd1628c2	-0.036659963
109	0x3c18b33c	0.009320077
110	0xbdc7bc76	-0.09752743
111	0x3db5a7fc	0.08869931
112	0xbe0bdd14	-0.13658553
113	0x3e1e5213	0.15460996
114	0x3dddb96a	0.108263806
115	0xbe38fe16	-0.18065676
116	0xbd8b03e4	-0.067878515
117	0xbc6f567e	-0.014608024
118	0x3c40f36b	0.011776785
119	0x3cf8af38	0.030356988
120	0x3d5806d2	0.05274088
121	0xbba2cfa4	-0.0049686003
122	0xbde39cfa	-0.11113925
123	0x3d8f7ef5	0.07006637
124	0xbe4d2af2	-0.20035914
125	0xbe06e4d8	-0.13173234
126	0xbd84a83b	-0.064774
127	0xbdd1f49b	-0.10251733
128	0xbd991504	-0.074747115
129	0xbe31f6d3	-0.17379312
130	0xbd4ac842	-0.049507387
131	0x3d04ed59	0.032452915
132	0xbe0e547a	-0.13899413
133	0xbc88cdb5	-0.016699651
134	0x3e049bfa	0.12950125
135	0xbd10e0f0	-0.035370767
136	0xbc2b03c5	-0.01043791
137	0xbd123dc2	-0.035703428
138	0x3cdb5a75	0.026776532
139	0x3de2d68a	0.11076076
140	0x3e2c7c45	0.1684428
141	0x3de1a7f4	0.11018363
142	0x3e30d99c	0.17270511
143	0xbccd2b61	-0.025045099
144	0xbe477a86	-0.19480333
145	0xbde8da92	-0.11369814
146	0x3dd72094	0.10504261
147	0xbcab4019	-0.020904588
148	0xbdeb1008	-0.11477667
149	0xbe2cf7b0	-0.1689136
150	0xbe4c9ddc	-0.19982094
151	0xbe389ba6	-0.18028125
152	0xbd6dbd5a	-0.058041908
153	0x3dd6bd65	0.10485343
154	0x3dd20991	0.10255731
155	0xbe42eb08	-0.1903497
156	0x3dfbe476	0.12299435
157	0xbe1708df	-0.14749478
158	0xbd21b421	-0.039478425
159	0xbd9888c4	-0.07447961
160	0xbd00a81c	-0.03141032
161	0xbd067059	-0.032821987
162	0xbe412d0d	-0.18864842
163	0xbe2f406b	-0.17114417
164	0xbcba14b1	-0.022714945
165	0xbc940dc2	-0.018072966
166	0xbdc821ba	-0.09772058
167	0x3da2895e	0.07936357
168	0xbe4bf489	-0.19917502
169	0xbcb98d03	-0.022650247
170	0x3e38ede3	0.18059497
171	0xbdaddb8d	-0.084891416
172	0x3e38022a	0.17969576
173	0x3db8f112	0.090303555
174	0xbe3ff927	-0.18747388
175	0x3dfd78dd	0.123765685
176	0xbb26429c	-0.0025369292
177	0xbdd40aa7	-0.10353594
178	0x3e1fabbb	0.15592854
179	0xbe06b84b	-0.1315624
180	0x3cbe9646	0.023265015
181	0xbd0213c1	-0.03175712
182	0x3e19b9e3	0.15012316
183	0x3d541151	0.051774327
184	0x3dc9c2c4	0.09851602
185	0x3da6f1ab	0.08151563
186	0xbd54ac6f	-0.051922258
187	0xbd0d3034	-0.0344698
188	0xbe10432e	-0.14088127
189	0x3e47271d	0.19448514
190	0x3e896a52	0.26838928
191	0x3e7f51a0	0.24933481
192	0xbe217735	-0.1576813
193	0x3c475d44	0.012168232
194	0xbdf299cf	-0.11845743
195	0xbe66e32c	-0.22547597
196	0xbe58d4e8	-0.21174967
197	0xbc667783	-0.01406658
198	0xbcbadb1e	-0.022809561
199	0x3ddf42a5	0.10901383
200	0x3df84789	0.12123019
201	0x3ddcce01	0.107814796
202	0xbe0e1d5d	-0.13878389
203	0xbde92e11	-0.113857396
204	0xbe67a51e	-0.22621581
205	0x3d20b185	0.039231796
206	0xbe14ce78	-0.14531887
207	0x3e64b1ab	0.223334
208	0x3e144635	0.14479907
209	0x3dcd116a	0.10013087
210	0xbc40dc65	-0.011771296
211	0xbd0021a8	-0.031282097
212	0x3d24ab6d	0.040202547
213	0xbdfe2c96	-0.12410848
214	0xbd7fcfdd	-0.062454093
215	0xbca60df9	-0.020270335
216	0xbe72b681	-0.23702432
217	0xbe084f3a	-0.13311473
218	0x3e5fd158	0.21857202
219	0xbe65cb35	-0.22440799
220	0xbcb335c1	-0.021876218
221	0x3e90101b	0.28137287
222	0x3ca3e8bf	0.020008443
223	0x3c9e92f5	0.019357184
224	0xbd7127a6	-0.058875702
225	0xbc958ca0	-0.018255532
226	0xbe3eedab	-0.1864535
227	0x3c26643d	0.010155735
228	0xbe216e07	-0.15764628
229	0xbd4e8cc8	-0.05042723
230	0x3dc39427	0.09549742
231	0x3db3edf9	0.08785624
232	0x3cdb4c3a	0.026769746
233	0x3e906aa3	0.28206357
234	0xbb7a578f	-0.0038199162
235	0xbe2ed520	-0.17073488
236	0x3e226694	0.15859443
237	0xbe6d232e	-0.23157951
238	0xbdc702d6	-0.09717338
239	0x3e25b232	0.16181257
240	0xbb283abb	-0.0025669772
241	0x3e23b55f	0.15987156
242	0x3d7cf7d7	0.061759796
243	0xbd634166	-0.05548229
244	0x3d3d470d	0.046210337
245	0xbe6ee6a1	-0.23330165
246	0x3d8ff291	0.07028688
247	0xbe645e61	-0.22301628
248	0xbd60c73d	-0.05487751
249	0xbde00454	-0.109383255
250	0xbe311715	-0.17293961
251	0xbd211573	-0.039327096
252	0x3dbc5d48	0.091974795
253	0xbdf59cdc	-0.11992809
254	0xbe2eb0d9	-0.1705965
255	0xbe1cb9a3	-0.1530519

cnn.0.bias f4 [16]
0	0x3e801021	0.25012305
1	0x3d1a2fb9	0.037643168
2	0xbda4d933	-0.0804924
3	0xbbd84b6d	-0.0066007883
4	0x3d8f4a69	0.069966145
5	0xbe1084a2	-0.14113095
6	0x3e291e49	0.16515459
7	0xbdb63ef3	-0.08898725
8	0xbd862b2c	-0.06551203
9	0xbe059a41	-0.13047124
10	0xbaecc6b3	-0.0018064588
11	0x3e609170	0.2193048
12	0xbe00bac4	-0.12571245
13	0x3e7a0f83	0.2441998
14	0xbb1aa1b4	-0.0023594918
15	0x3e0c05e0	0.13674116

cnn.3.weight f4 [32, 16, 3, 3]
0	0x3d21ebe3	0.0395316
1	0xbd1fdc16	-0.03902825
2	0x3dc776f9	0.09739489
3	0x3d99303a	0.074799016
4	0x3de5b7c1	0.11216689
5	0x3d8f092c	0.06984171
6	0xbc4e574b	-0.012594054
7	0x3ddf2eb3	0.10897579
8	0x3d2f49b8	0.042794913
9	0x3d406d63	0.04697932
10	0xbd81fdbd	-0.06347225
11	0xbc97aaad	-0.018514002
12	0xbd9562dc	-0.072942466
13	0xbce4d558	-0.027933761
14	0x3cc945b1	0.024569364
15	0xbd01942c	-0.03163545
16	0x3d4deec0	0.050276518
17	0x3d84dcf1	0.06487454
18	0xbdb4c56a	-0.08826716
19	0xbe61c623	-0.2204824
20	0xbe47db1f	-0.19517182
21	0xbe0a7dbc	-0.13524526
22	0xbde7a442	-0.113106266
23	0xbd1573e5	-0.03648748
24	0xbd566ac2	-0.052347906
25	0xbe18e223	-0.14930014
26	0xbd99d278	-0.07510847
27	0xbdc427ac	-0.09577879
28	0xbdd10973	-0.102068804
29	0x3c7a1bf0	0.01526545
30	0xbd6e9057	-0.058243122
31	0x3c70695d	0.014673558
32	0xbd9d93ae	-0.07694183
33	0xbd32b62b	-0.04363076
34	0xbdaf3cd8	-0.08556527
35	0x3cd1ef5a	0.025626827
36	0xbc42e001	-0.011894227
37	0x3d5f1e0f	0.054472025
38	0x3d29cc68	0.041454703
39	0x3d34506f	0.04402202
40	0xbbf0813a	-0.0073396238
41	0xbd0fc09f	-0.035095807
42	0xbb7c9e19	-0.0038546382
43	0x3c4ce5bc	0.012505945
44	0x3d1de3b8	0.038547248
45	0xbd962f8c	-0.073332876
46	0x3d5f1ae1	0.054468993
47	0xbce926a8	-0.028460816
48	0xbdb7fbe7	-0.089835934
49	0xbd88e66e	-0.06684576
50	0x3d4a996d	0.049462724
51	0x3d7873f7	0.060657468
52	0xbdcf9fde	-0.10137914
53	0x3cfb586e	0.030681815
54	0x3d477196	0.04869231
55	0x3d7c1e23	0.061552178
56	0x3d9ec264	0.07751921
57	0xbd071333	-0.032977294
58	0x3d201dfc	0.039091095
59	0x3d2d708a	0.042343654
60	0xba652ebe	-0.0008742622
61	0x3d52dbd5	0.05147918
62	0xbbbcd51f	-0.0057627107
63	0xbc0c3a7b	-0.008558865
64	0xbd1c3431	-0.03813571
65	0xbd145368	-0.036212355
66	0x3d805d4a	0.062677935
67	0x3d6f1b48	0.058375627
68	0xbcd17704	-0.025569446
69	0x3e0b5360	0.13606024
70	0x3e064a59	0.13114299
71	0x3d0b85de	0.034063213
72	0xbcc65738	-0.024211511
73	0xbda9cd2a	-0.08291085
74	0xbd0f6929	-0.035012398
75	0xbe4e840d	-0.20167561
76	0xbe4452ea	-0.19172254
77	0xbe2acb13	-0.16679029
78	0xbd57ae7d	-0.05265664
79	0xbe108e80	-0.1411686
80	0xbdf44e87	-0.119290404
81	0xbd1b904a	-0.0379794
82	0x3d95d115	0.0731527
83	0x3d9beb52	0.07613243
84	0xbd87be7e	-0.066281304
85	0xbda5209d	-0.08062861
86	0xbd8d4ed9	-0.068998046
87	0x3ce42431	0.027849289
88	0xbc3c9ec1	-0.011512459
89	0xbd402f4f	-0.046920117
90	0xbcff6764	-0.03117723
91	0x3b939bf7	0.0045046764
92	0xbd5369e6	-0.051614664
93	0x3c3193ae	0.010838432
94	0xbd10b545	-0.035329122
95	0xbd507861	-0.050896052
96	0x3cbac9e8	0.022801355
97	0x3d89fcb7	0.06737655
98	0xbd6805ab	-0.05664603
99	0x3d0acb6f	0.033885416
100	0xbb28774b	-0.002570587
101	0x3de33b52	0.11095299
102	0xbd487b97	-0.04894599
103	0xbd506fbe	-0.050887816
104	0x3de77731	0.11302031
105	0xbc85e8d2	-0.016346369
106	0x3d52ed0e	0.051495604
107	0x3ce43ac2	0.02786005
108	0x3c7f6fc1	0.015590609
109	0xbc815d45	-0.015791545
110	0x3d8b67b3	0.068068884
111	0x3cf65ecf	0.030074505
112	0xbd9dbcf0	-0.077020526
113	0xbd2304b1	-0.039799396
114	0xbced1035	-0.028938392
115	0x3cdfc481	0.02731538
116	0xbd4760bc	-0.048676237
117	0x3dcf7ae3	0.10130861
118	0x3b10986a	0.0022063502
119	0x3b840287	0.0040286216
120	0x3dbac4d8	0.09119576
121	0x3d8609e7	0.065448575
122	0x3dbe5281	0.0929308
123	0x3d9e82cd	0.07739792
124	0xba8ae742	-0.0010597485
125	0xbd02ccbc	-0.03193353
126	0x3cefca65	0.029271314
127	0x3da00714	0.0781385
128	0xbb7eaf0a	-0.0038861656
129	0xbd4ac959	-0.049508426
130	0x3d2f9541	0.04286695
131	0x3dcbefe8	0.09957868
132	0xbcc21c30	-0.023695081
133	0xbda2d873	-0.07951441
134	0xbd80cbf1	-0.06288899
135	0x3cec8cee	0.028875794
136	0x3c0d1270	0.008610353
137	0xbd02f571	-0.031972352
138	0x3ceaf540	0.028681397
139	0x3d3936d5	0.045218308
140	0x3d9f01cd	0.07764015
141	0x3d9ebcab	0.07750829
142	0x3b5be8d5	0.0033555527
143	0xbd7da1f6	-0.061922036
144	0xbd80acdb	-0.062829696
145	0x3da47ac1	0.08031226
146	0x3d62bc7e	0.05535554
147	0x3d63f28d	0.055651236
148	0xbd7de8a9	-0.06198946
149	0x3dd24594	0.10267177
150	0x3dc710a1	0.097199686
151	0x3dafa600	0.08576584
152	0xbd441496	-0.047871195
153	0xbcbc328e	-0.022973325
154	0xbd7bddf3	-0.061490964
155	0x3dcfac1f	0.10140251
156	0xbca8e0dc	-0.020615034
157	0xbd13c5b0	-0.0360772
158	0x3d8c7004	0.06857303
159	0xbc9f4656	-0.019442718
160	0xbd107524	-0.035267964
161	0x3c827727	0.015925957
162	0x3c6990a1	0.014255674
163	0x3bd6de8d	0.006557292
164	0x3e2d3fb2	0.16918829
165	0x3c2ecc6d	0.010668856
166	0x3ddf9fbb	0.10919138
167	0x3e3c4080	0.1838398
168	0x3dab6794	0.08369365
169	0x3d9436ca	0.07237013
170	0x3e32660a	0.17421737
171	0xb9a69a46	-0.0003177693
172	0xbd02d7b9	-0.03194401
173	0x3dcb3cdf	0.099237196
174	0x3c854127	0.016266419
175	0xbd8b0623	-0.0678828
176	0xba1a704f	-0.0005891369
177	0xbd7c96ec	-0.061667368
178	0x3d9e7f2f	0.07739102
179	0x3b4c980e	0.0031218561
180	0xbd9f9427	-0.0779193
181	0xbc55b04f	-0.0130425235
182	0x3d838d42	0.06423427
183	0x3cd5bc7c	0.026090853
184	0x3cc036bf	0.023463605
185	0x3cc7c427	0.024385525
186	0x3d2f4fad	0.042800594
187	0xbc90e634	-0.017687894
188	0xbc79fff8	-0.015258782
189	0xbdb169e4	-0.08662775
190	0xbda2b240	-0.07944155
191	0x3cfa96f9	0.030589567
192	0xbd5099f5	-0.050928075
193	0xbb47b935	-0.0030475382
194	0x3ccad5a1	0.02476007
195	0x3c13b2f1	0.009014831
196	0xbd7f8b8a	-0.062388934
197	0x3da6fac6	0.081533
198	0xbc4b9e2c	-0.012427848
199	0x3da22144	0.07916501
200	0xbd4738bc	-0.04863809
201	0x3c983919	0.018581914
202	0x3d8ae369	0.06781656
203	0xbc6ad506	-0.014333015
204	0x3dda9743	0.10673382
205	0xbd0555f6	-0.032552682
206	0xbd4acdd4	-0.0495127
207	0x3a773e2b	0.0009431566
208	0xbc2c8a03	-0.010530951
209	0x3df528e7	0.11970692
210	0xbd311fd7	-0.043243255
211	0x3b920d92	0.004457184
212	0xbc0830b3	-0.008312392
213	0xbd81148f	-0.06302749
214	0x3bd7cac8	0.0065854527
215	0xbdd134b9	-0.10215134
216	0x3d2efe82	0.042723186
217	0x3d80f7be	0.06297253
218	0xbc63758b	-0.013883005
219	0x3e230937	0.15921484
220	0x3d1c5ab4	0.03817244
221	0x3dd0afd0	0.101897836
222	0x3cad9732	0.02119026
223	0x3d4c4eb8	0.04987976
224	0x3d15947b	0.036518555
225	0x3c6ed907	0.014578111
226	0x3c46d7af	0.012136384
227	0x3db07fcb	0.086181246
228	0xbc2545c2	-0.010087432
229	0xbc61dd5f	-0.013785689
230	0x3daf55d9	0.08561296
231	0xbc44b199	-0.012005233
232	0x3d8b5278	0.06802839
233	0xbcdcab44	-0.026937135
234	0xbc9a9e3b	-0.018874278
235	0xbc607465	-0.013699626
236	0x3d51affd	0.051193226
237	0x3d581f42	0.052764185
238	0xbca500b6	-0.02014194
239	0xbd42667a	-0.04746101
240	0x3d38a922	0.045083173
241	0x3cc88c6a	0.024481017
242	0x3d6679f2	0.05626864
243	0xbd0d041e	-0.034427755
244	0x3d8e10ec	0.06936821
245	0x3dd0caab	0.10194906
246	0x3cd6cb4f	0.026219992
247	0xbd793a14	-0.060846403
248	0x3da7aa53	0.08186784
249	0xbd2e62e1	-0.042574767
250	0x3d120496	0.035648905
251	0x3d0b3db9	0.03399441
252	0xbd3e8a9d	-0.04651891
253	0x3d00603a	0.03134177
254	0xbdab15ef	-0.08353793
255	0x3bb9cd4d	0.0056702257

cnn.3.bias f4 [32]
0	0x3dc87a3b	0.097889386
1	0x3de0932c	0.10965571
2	0x3dca5b6c	0.098807186
3	0x3dd0b4e7	0.101907544
4	0x3e037b74	0.12840062
5	0x3dd7006b	0.104981266
6	0x3d31f374	0.043445066
7	0x3c5abefd	0.013351199
8	0xbbaeff8a	-0.005340521
9	0xbc387b7a	-0.011259908
10	0x3dc3ba77	0.0955705
11	0x3d056096	0.032562815
12	0x3d3f18ad	0.046654392
13	0xbc883b5d	-0.01662987
14	0x3c020f5e	0.007938234
15	0x3db5359d	0.088481165
16	0x3d087847	0.03331783
17	0x3d5a2d4a	0.053265847
18	0xbd6630ef	-0.05619901
19	0xbd3f3740	-0.04668355
20	0x3c4a036d	0.012329918
21	0x3e35fa01	0.1777115
22	0x3dbc20b0	0.09185922
23	0xbb80f243	-0.00393513
24	0x3df8cc35	0.121483244
25	0xbcbeec99	-0.023306178
26	0x3dbc6d1a	0.09200497
27	0xbd03704f	-0.032089528
28	0x3cbd9a19	0.023144769
29	0xbd6304ae	-0.055424385
30	0xbd18e180	-0.03732443
31	0xbd32de17	-0.043668833

fc1.weight f4 [11, 672]
0	0xbb9145fe	-0.0044333925
1	0xbbeb110e	-0.007173664
2	0xbacaff72	-0.0015487506
3	0xb99fba08	-0.00030465447
4	0x3d14ec37	0.036358085
5	0x3d041ef6	0.03225609
6	0x3c4a48c3	0.012346449
7	0x3cac4677	0.021029694
8	0xbbdb3c2c	-0.0066905227
9	0xbc8aa1f8	-0.016922936
10	0x3ca60986	0.020268213
11	0x3d23f529	0.040028725
12	0xbc17d1b0	-0.009266302
13	0xbd0178f0	-0.031609476
14	0x3b3266d5	0.0027221937
15	0xbc94119e	-0.018074807
16	0xbcd1236d	-0.025529588
17	0x3d327234	0.043565944
18	0x3c813845	0.015773902
19	0xbcf926c0	-0.030413985
20	0xbce7f56b	-0.028315267
21	0x3d0a6269	0.033785257
22	0x3ca426b0	0.020037979
23	0xbd1d0571	-0.038335267
24	0xbc82fada	-0.015988756
25	0xbc8de14c	-0.017319344
26	0x3c2616ec	0.010137301
27	0xbd280b52	-0.04102642
28	0x39ae63dd	0.0003326227
29	0x3b837117	0.004011284
30	0xbb1b4780	-0.002369374
31	0xbca448e9	-0.020054298
32	0xbd2e28dc	-0.042519435
33	0xbd37e31c	-0.044894323
34	0x3c158802	0.009126665
35	0x3d017854	0.031608894
36	0xbc7eec5f	-0.015559285
37	0xbd611532	-0.054951854
38	0xbc48675b	-0.012231673
39	0xbd49f82e	-0.04930895
40	0xbcf9025c	-0.030396633
41	0x3ac40550	0.0014955197
42	0xbc9af665	-0.018916318
43	0xbc77b8d7	-0.015119753
44	0x3ca4a707	0.020099176
45	0xbcc7aace	-0.024373438
46	0x3b739723	0.0037168942
47	0xbcf1dad6	-0.029523294
48	0x3c4681bb	0.012115891
49	0xb9e4738f	-0.00043573647
50	0x3cc1608b	0.023605606
51	0xbb8a871e	-0.004227533
52	0xbd13e6cd	-0.03610878
53	0xbbb01927	-0.005374092
54	0x3c7d7689	0.0154701555
55	0xbc16024e	-0.009155823
56	0x3bbadf91	0.0057029207
57	0xbd210557	-0.039311733
58	0x3bdae7d5	0.0066804686
59	0xbd6460ac	-0.055756256
60	0x3c6856d5	0.014180859
61	0xbafc3ebe	-0.0019244773
62	0xbc2f8963	-0.010713908
63	0xbd43d521	-0.047810677
64	0x3ce3c667	0.027804567
65	0x3c611c7d	0.013739702
66	0x3c9810f8	0.018562779
67	0x3a47b37a	0.00076179917
68	0xbadd8739	-0.0016901261
69	0xbcc3f222	-0.023919169
70	0xbcc3f81c	-0.023922019
71	0x3bd8f45e	0.0066209277
72	0x3ada3554	0.0016647973
73	0xbcb33d15	-0.021879712
74	0xbc8ea72c	-0.017413698
75	0xbb867e2f	-0.0041043977
76	0xbd4bb3e5	-0.049732108
77	0xbd3a9794	-0.045554712
78	0xbc8c6790	-0.017139226
79	0x3c5aa662	0.013345333
80	0xbb80b535	-0.0039278516
81	0xbd70d438	-0.058796138
82	0xbce9b44a	-0.028528351
83	0xbc7b46e5	-0.015336727
84	0x3cc6d094	0.02426938
85	0x3cddf341	0.027093532
86	0xbce6b1c0	-0.02816093
87	0xbda5a027	-0.08087187
88	0xbd306075	-0.04306074
89	0xbcc90168	-0.024536803
90	0xbcc4bc15	-0.024015466
91	0x3d60703b	0.05479453
92	0xbc70d6cc	-0.014699649
93	0xbcf5ec61	-0.03001994
94	0xbd2f6cb9	-0.042828295
95	0xbccc3de8	-0.024931863
96	0x3bade643	0.0053069904
97	0xbcbebb94	-0.023282804
98	0x3cda8522	0.02667481
99	0xbc0c5015	-0.008564015
100	0xbcb374eb	-0.021906337
101	0xbc2f70c7	-0.010708041
102	0xbd825b6b	-0.06365093
103	0x3d22ad6f	0.03971618
104	0x3cce616a	0.025192935
105	0xbd4a2046	-0.049347185
106	0xbbd531ec	-0.0065061953
107	0xbd4aebbf	-0.04954123
108	0x398223a4	0.00024822087
109	0xbbfc771e	-0.0077046296
110	0xbd5a1b65	-0.05324878
111	0xbb0602ae	-0.0020448375
112	0xbce72168	-0.028214172
113	0x3ca7226b	0.020402154
114	0x3c9c4724	0.019076891
115	0x3a39494c	0.0007068112
116	0x3c886f99	0.016654776
117	0xbb5eecf8	-0.0034015756
118	0x3ca53e65	0.020171354
119	0xbca4e49a	-0.020128537
120	0xbc32b570	-0.010907516
121	0xbceb3191	-0.028710159
122	0xbc5964d7	-0.013268671
123	0xbcfb0d39	-0.030645953
124	0xbd13ae2d	-0.03605478
125	0x3bec1652	0.007204809
126	0x3cbeb57e	0.023279902
127	0xbc194cee	-0.00935672
128	0xbc8b681e	-0.01701742
129	0x3c88fc28	0.0167218
130	0xbd10345b	-0.03520618
131	0x3cccb72c	0.024989687
132	0xbcc1fcf4	-0.023680188
133	0x3d12d05e	0.035843246
134	0x3cdffabd	0.027341241
135	0xbce52d1e	-0.027975615
136	0xbd37865d	-0.044805873
137	0xbcbb8fae	-0.02289566
138	0x3d020bd6	0.03174957
139	0xbc4e3beb	-0.012587528
140	0x3b93e542	0.0045134136
141	0xbb3a798e	-0.00284538
142	0x3c931f03	0.017959123
143	0xbd3557c7	-0.044273164
144	0x3c4bb256	0.012432655
145	0xbc671688	-0.014104493
146	0xbb2e5a5e	-0.0026604156
147	0x3d6ea198	0.058259577
148	0x3b19b7f0	0.0023455583
149	0x3cbda500	0.023149967
150	0xbc3f5dcf	-0.011680081
151	0xbd2a626f	-0.04159778
152	0x3c0fe2fe	0.0087821465
153	0xbcb03f15	-0.021514455
154	0x3c266e72	0.010158168
155	0x3cf8278c	0.030292295
156	0x3cfb45ff	0.030673025
157	0xbd4bb91a	-0.049737073
158	0xbd41500d	-0.047195483
159	0xbcdab46b	-0.026697358
160	0xbd2a9fa4	-0.04165615
161	0x3ce03af7	0.027371867
162	0xbca6795a	-0.020321537
163	0xbcda14ef	-0.02662131
164	0xbd4b8861	-0.049690608
165	0xbcb3f6c6	-0.021968257
166	0x3c701603	0.0146536855
167	0xbc8f89fe	-0.017521854
168	0xbce1bb17	-0.027555032
169	0xbca5f959	-0.0202605
170	0xbd21d29e	-0.0395075
171	0xbbd757e6	-0.0065717576
172	0xbad18a9d	-0.0015986745
173	0xbd352039	-0.044220183
174	0x3c60349c	0.013684418
175	0x3c426aab	0.011866252
176	0xbcd26723	-0.025683945
177	0xbc160bea	-0.009158114
178	0xbc10cbac	-0.008837622
179	0xbca45f28	-0.020064905
180	0xbd2694da	-0.0406693
181	0x3c8a61c1	0.016892316
182	0x3b54d36d	0.0032474652
183	0xbd4410a1	-0.04786742
184	0xbd3d7503	-0.04625417
185	0x3cae644c	0.02128806
186	0xbc201410	-0.009770408
187	0xbccce979	-0.025013672
188	0x3c3587ab	0.011079709
189	0x3ba3216c	0.0049783494
190	0x3c19ce4b	0.009387563
191	0x3cb35339	0.02189027
192	0xbcbc61dc	-0.022995882
193	0x3cc28019	0.023742722
194	0xbd0ba9a6	-0.034097336
195	0xbceabe44	-0.028655179
196	0x3a7ec3ff	0.0009718537
197	0xbc3b75ff	-0.011441707
198	0x3bbcb49b	0.0057588345
199	0xbd0b58f3	-0.034020375
200	0xbc1108d8	-0.008852206
201	0xbc19a24d	-0.009377074
202	0x3cb01ade	0.021497186
203	0xbc08f027	-0.008358038
204	0xbbe9555f	-0.0071207727
205	0x3b9a20c9	0.0047036153
206	0x3c1e407d	0.00965893
207	0x3c89e011	0.016830476
208	0xbd3558c6	-0.044274114
209	0xbcdb6c31	-0.026784988
210	0xbc39d720	-0.011342794
211	0x3b2a2f11	0.0025967995
212	0x3cfadb27	0.030622078
213	0x3cf072f3	0.029351687
214	0x3bd6d71d	0.006556405
215	0x3c2cafff	0.010540008
216	0x3cbfae37	0.023398502
217	0x3d3a5c8c	0.045498416
218	0x3d1640f4	0.036683038
219	0xbc4e6f7f	-0.012599825
220	0xbba3c9cf	-0.0049984227
221	0x3cc9561d	0.024577195
222	0x3afad81e	0.0019137894
223	0xbbd0a112	-0.0063668573
224	0xbd1a0858	-0.037605613
225	0x3c855616	0.0162764
226	0xba96a757	-0.0011493963
227	0xbbdcdf83	-0.006740512
228	0x3cbdd76a	0.023174006
229	0x3d2c8b62	0.042125113
230	0x3d5cec50	0.053936303
231	0x3c9e45e8	0.019320443
232	0xbce8343d	-0.028345222
233	0x3ca44a73	0.020055031
234	0x3c8886b3	0.016665792
235	0x3bf51903	0.0074797883
236	0xbc897a22	-0.01678187
237	0xbbc4ce08	-0.006006006
238	0xbc8b354c	-0.016993187
239	0xbbaebf7d	-0.005332886
240	0xbc59b35d	-0.013287392
241	0xbc977293	-0.01848725
242	0xbd48d342	-0.049029596
243	0x3c3bbba4	0.011458311
244	0xbd0e68ee	-0.034768037
245	0xbcce2291	-0.025162967
246	0x3cb92dc1	0.022604825
247	0xbd045e6c	-0.03231661
248	0x3cd762d9	0.026292251
249	0x3ceae376	0.028672915
250	0xbc38f00d	-0.011287701
251	0xbb75cbd5	-0.0037505527
252	0xbd1cebe2	-0.038310893
253	0xbb3ebd1a	-0.0029104413
254	0xbba40819	-0.005005848
255	0xbd1901fd	-0.03735541

fc1.bias f4 [11]
0	0xbb4696e2	-0.0030302336
1	0x3d6c2526	0.057652615
2	0x3c1afc58	0.0094595775
3	0x3ca9aa00	0.020710945
4	0xbcfa95fd	-0.030589098
5	0xbcff2e63	-0.031150049
6	0xbcc030b5	-0.023460725
7	0xbd48dc66	-0.049038313
8	0xbc3db026	-0.011577642
9	0x3ba8fd88	0.0051571764
10	0xbc99b018	-0.018760726

fc2.weight f4 [11, 672]
0	0xbac768e5	-0.0015213756
1	0x3d228b9a	0.039683916
2	0x3d7e5679	0.062094186
3	0x3cda1314	0.026620425
4	0xbb4bdf19	-0.0031108318
5	0x3bab14fb	0.005221007
6	0x3d51548c	0.05110602
7	0x3c945939	0.01810895
8	0x3c893aa0	0.016751587
9	0x3d3e5991	0.046472136
10	0xbd260c41	-0.04053903
11	0xbdf4dbec	-0.11956009
12	0x3d10cfb3	0.035354327
13	0xbb6625eb	-0.0035117816
14	0x3d81bae4	0.06334475
15	0x398f9df6	0.00027392776
16	0xbb0b95fb	-0.0021299112
17	0x3bd44c03	0.006478788
18	0xbd708792	-0.05872304
19	0xbd4f2226	-0.050569676
20	0x3cca0246	0.024659287
21	0x3d1b75b5	0.03795405
22	0x3a5c7da1	0.0008411054
23	0xbcb4e3b8	-0.022081241
24	0x3cd3659b	0.025805285
25	0x3d0f93b0	0.035052955
26	0xbbc05915	-0.0058699944
27	0xbb1b5f14	-0.0023707794
28	0x3c77624b	0.015099118
29	0x3c91f97b	0.017819157
30	0x3c88fde6	0.01672263
31	0x3d3636b4	0.044485763
32	0x3d73da16	0.059534155
33	0x3cd28bab	0.025701365
34	0x3cc72505	0.024309644
35	0x3cc3af7c	0.023887388
36	0x3ca1b437	0.019739253
37	0x3d6bb697	0.057547178
38	0xbc7b7676	-0.0153480675
39	0x3d6bc7f4	0.057563737
40	0x3cc1638c	0.023607038
41	0xbc4ca420	-0.012490302
42	0x3b72c4ce	0.0037043574
43	0xbbf83335	-0.0075744637
44	0xbd0efc52	-0.0349086
45	0x3c6405a2	0.013917359
46	0x3d4876d2	0.04894144
47	0xbc9ef11b	-0.019402077
48	0x3bdd8ee9	0.006761421
49	0xbafe0c37	-0.0019382302
50	0xbc965f7a	-0.018356074
51	0x3c365258	0.011128031
52	0xbd868c39	-0.06569714
53	0xbb289345	-0.0025722545
54	0xbd096603	-0.03354455
55	0x3a1bde85	0.0005945939
56	0xbcadb678	-0.021205172
57	0xbcad87ea	-0.021182973
58	0x3cd9ea00	0.026600838
59	0xba9241b7	-0.00111585
60	0xbb8a70b2	-0.00422486
61	0x3b177e93	0.0023116216
62	0x3bee73f8	0.007277008
63	0xbc558e57	-0.013034425
64	0x3d35c7f0	0.04438013
65	0xbd1dc7c7	-0.0385206
66	0xbba8e0c4	-0.0051537473
67	0x3cf410eb	0.029793223
68	0xbc11c630	-0.008897349
69	0x3be04b74	0.006844932
70	0x3c55d6eb	0.013051729
71	0x3d358efb	0.04432581
72	0x3b15ca75	0.002285627
73	0xbd41d7c9	-0.04732493
74	0xbd3cf47e	-0.046131603
75	0x3cab317f	0.020897625
76	0x3d1a8a75	0.0377297
77	0xbcdba733	-0.026813125
78	0xbc86068d	-0.016360546
79	0xbc7b16a9	-0.015325227
80	0xbad0ccd5	-0.0015930185
81	0x3ca04197	0.019562526
82	0x3d2bd74b	0.041953366
83	0xbcdf5db8	-0.027266368
84	0x3ce34f6d	0.027747834
85	0x3cfa652c	0.03056582
86	0x3c607dde	0.013701884
87	0x3db4d87c	0.088303536
88	0xbdb761bc	-0.08954188
89	0x3b7d8607	0.0038684623
90	0xbc7dc7cb	-0.015489529
91	0xbcd1d8ec	-0.025616132
92	0x3d00bf27	0.031432297
93	0x3d4c58b6	0.04988929
94	0x3bd63f40	0.0065383017
95	0x3e2263d5	0.15858395
96	0x3e0f380e	0.13986227
97	0x3d4d102f	0.050064262
98	0xbbc73a2f	-0.006079934
99	0x3d619149	0.055070195
100	0x3d51ed01	0.051251415
101	0xba9cbea2	-0.0011958668
102	0xbc5a388c	-0.013319146
103	0x3c5f3bc1	0.013625086
104	0x3d8d3d16	0.06896417
105	0xbc11f228	-0.008907832
106	0x3d2bf469	0.041981135
107	0xbcb39caf	-0.021925298
108	0x3bd8e442	0.0066190073
109	0x3b89a29d	0.004200293
110	0x3d188ad6	0.03724178
111	0x3c1b5bb8	0.009482317
112	0xbc8967d0	-0.016773134
113	0x3cf7399d	0.03017884
114	0x3cb3c84f	0.0219461
115	0xbd4c7c3b	-0.049923163
116	0x389acd59	7.381541e-05
117	0x3c6dbd5a	0.014510477
118	0x3bb2be70	0.005454831
119	0xb9e0b813	-0.00042861755
120	0x3ce3b992	0.027798448
121	0x3ca38a93	0.019963538
122	0xbcd26e71	-0.025687428
123	0xbb13c2a3	-0.0022546432
124	0x3c443f51	0.011977986
125	0xb929139b	-0.000161244
126	0x3d05984c	0.032615945
127	0xbb878aaf	-0.0041364054
128	0xbccbf0ec	-0.024895154
129	0xbccf6910	-0.025318652
130	0xbd197cd1	-0.03747255
131	0x3c51a35a	0.012795294
132	0xbc4905dc	-0.012269463
133	0xbc91f77b	-0.017818203
134	0x3c6afbf9	0.0143423015
135	0x3d2f15da	0.04274545
136	0xbdd999ce	-0.10625039
137	0xbe36e2ff	-0.1786003
138	0xbca1f199	-0.019768523
139	0xbc186696	-0.009301802
140	0x3d335ca3	0.043789517
141	0x3d55536d	0.052081514
142	0x3d3c0fbf	0.045913454
143	0xbc88e65c	-0.016711406
144	0xbd93087a	-0.07179351
145	0x3c266fd0	0.010158494
146	0xbc98fcfc	-0.01867532
147	0xbd22f66d	-0.03978579
148	0xbd26ba6e	-0.040705137
149	0x3cb62ad4	0.022237219
150	0xbc8248e5	-0.0159039
151	0x3d06b5a2	0.032888062
152	0x3ca3b107	0.019981874
153	0xbc732876	-0.01484119
154	0xbb8bb36a	-0.004263331
155	0xbc9fc790	-0.019504339
156	0x3c717587	0.014737493
157	0xbd5ce243	-0.053926717
158	0xbe502443	-0.20326333
159	0xbd62305b	-0.055221897
160	0xba296346	-0.0006461631
161	0x3ce3dc4c	0.027815007
162	0xb9bf374f	-0.00036471567
163	0x3c9cef86	0.019157182
164	0xbb4a6332	-0.003088188
165	0x3b13a87c	0.0022530844
166	0x39b79cce	0.0003502131
167	0xbc9984fc	-0.01874017
168	0x3c754d77	0.014972082
169	0x3c01cf3d	0.007922945
170	0x3ab27e03	0.0013617877
171	0xbac9ebba	-0.0015405335
172	0x3c818d9b	0.015814593
173	0x3d1207ce	0.035651974
174	0x3d08a49a	0.0333601
175	0xbc4ccd57	-0.012500129
176	0xbc244473	-0.010026085
177	0xbba77a20	-0.005110994
178	0xbcb30157	-0.021851225
179	0xbc1bef05	-0.009517436
180	0xbbe68fa0	-0.0070361644
181	0x3cf94b73	0.030431485
182	0xbc92f882	-0.017940763
183	0x3d18c9f3	0.03730197
184	0x3cf85e6e	0.030318465
185	0x3d0ace6a	0.033888258
186	0x3cd449b2	0.025914047
187	0x3cb2f483	0.021845108
188	0xbced6094	-0.028976716
189	0x3d39e3eb	0.045383375
190	0xbc8e1592	-0.01734427
191	0x3ceca26f	0.028886048
192	0x3d178d4e	0.036999993
193	0x3c6cfa0e	0.014463915
194	0x3cc8b594	0.024500646
195	0xb952e3f7	-0.00020112084
196	0xbd02c931	-0.031930152
197	0x3c3dc483	0.011582497
198	0x3d61f18d	0.055162
199	0xbd388742	-0.045050867
200	0xbd6dee89	-0.058088813
201	0x3c3f832f	0.011688991
202	0xbc4229b3	-0.011850762
203	0x3c18e120	0.009331018
204	0xbcff4479	-0.03116058
205	0x3d70b76f	0.058768686
206	0xbcefc7eb	-0.029270133
207	0x3c59812d	0.013275427
208	0x3d2b3a6f	0.041803773
209	0x3d354cce	0.0442627
210	0x3bef99d1	0.0073120375
211	0x3d3a211b	0.045441728
212	0x3ca2759d	0.019831473
213	0x3d090740	0.03345418
214	0x3daa5c28	0.08318359
215	0x3d6f9f78	0.05850169
216	0x3d14d7a4	0.036338463
217	0xbbd7cc17	-0.0065856087
218	0xbb966896	-0.0045901043
219	0xbc5386bf	-0.012910544
220	0xbdb2d26c	-0.08731541
221	0xbe031602	-0.12801364
222	0xbd335732	-0.043784328
223	0x3d671851	0.056419674
224	0x3ccbf470	0.02489683
225	0xbc8a8406	-0.016908657
226	0xbd14c58b	-0.036321204
227	0xbd3a6071	-0.04550213
228	0xbd7a41db	-0.06109796
229	0x3c1ae229	0.009453335
230	0x3d0ca25b	0.03433452
231	0xbcdf3a7b	-0.027249565
232	0x3c8ffe8b	0.01757743
233	0x3c431c9a	0.011908675
234	0xbce7435a	-0.028230358
235	0x3c29f2e4	0.010372851
236	0x3cc9d7b4	0.024638988
237	0x3b1ce6d6	0.00239413
238	0xbd0203f9	-0.03174207
239	0xbc529399	-0.012852573
240	0xbd1ee4aa	-0.03879229
241	0xbd114ff9	-0.03547666
242	0xbcefb75d	-0.02926224
243	0xbcb5e30d	-0.022202993
244	0x3ca9f92f	0.020748703
245	0xbcebdfa5	-0.028793165
246	0x3d446d8f	0.047956046
247	0xbc83965c	-0.016062908
248	0xbcac5f4c	-0.021041535
249	0x3ca1433c	0.01968538
250	0x3c07de01	0.008292676
251	0xbc1a24c2	-0.009408178
252	0x3c9bf4cc	0.019037627
253	0x3ba9c7b0	0.0051812753
254	0xbb9b8b94	-0.0047468636
255	0x3b955143	0.0045568063

fc2.bias f4 [11]
0	0x3c9bd5ef	0.01902291
1	0xbca2d87b	-0.019878617
2	0xbcca34e5	-0.024683425
3	0xbc4c8cf6	-0.01248478
4	0xbd0752f1	-0.033038083
5	0xbcbda90e	-0.0231519
6	0x3b90d1d3	0.0044195442
7	0xbbf76413	-0.0075497716
8	0xbd1ebfd1	-0.03875715
9	0xbcafedd0	-0.021475703
10	0xbcc50c4b	-0.024053713

fc3.weight f4 [11, 672]
0	0xbc24951e	-0.010045318
1	0x3c4f6219	0.012657666
2	0xbd073d10	-0.033017218
3	0x3d48d335	0.049029548
4	0x3cef8a99	0.029240893
5	0x3cb44132	0.022003744
6	0x3c18138f	0.009282007
7	0xbc9a293d	-0.018818492
8	0x3b218e6f	0.0024651547
9	0xbdad9f54	-0.08477655
10	0xbd707d48	-0.058713228
11	0xbd2f6cac	-0.042828247
12	0xbd92473f	-0.07142495
13	0x3d07c6a5	0.033148427
14	0x3c939b3e	0.018018361
15	0x3b07f7a9	0.0020746982
16	0xbd349e30	-0.04409617
17	0xbd455773	-0.0481791
18	0xbc0dfbfd	-0.008666036
19	0xbce6dc69	-0.028181272
20	0xbc663b77	-0.014052263
21	0xbca0bdf9	-0.019621836
22	0xbb515540	-0.0031941682
23	0xbc4acca2	-0.01237789
24	0xbcf8f43b	-0.030389896
25	0xbd06a1cc	-0.032869145
26	0xbbbdd345	-0.0057930076
27	0x3ce45232	0.027871225
28	0x3ca6d84b	0.020366808
29	0xbc5c7c41	-0.013457359
30	0x3d847582	0.06467725
31	0x38d4b503	0.00010142664
32	0x3cf4f423	0.02990157
33	0x3d959ae2	0.07304932
34	0x3c92d16a	0.017922122
35	0xbccec14b	-0.025238654
36	0x3c115880	0.008871198
37	0x37f5357a	2.9231178e-05
38	0x3ce2392a	0.027615149
39	0xbbf68797	-0.007523488
40	0x3d840785	0.06446747
41	0xbbc30085	-0.0059509897
42	0xbbefb335	-0.0073150643
43	0xbc4321fd	-0.011909959
44	0xbd37eb75	-0.044902284
45	0x3ccfa430	0.025346845
46	0x3c40db79	0.011771076
47	0x3ca91470	0.020639628
48	0x3d0494a6	0.032368325
49	0x3cf34800	0.029697418
50	0x3cd8e583	0.026476627
51	0xbb5ddb66	-0.0033852695
52	0xbc34f8ca	-0.011045644
53	0xbdabb6e5	-0.08384494
54	0xbbde2841	-0.006779701
55	0x3b80954d	0.003924048
56	0xbc8bfe91	-0.01708916
57	0xbb971902	-0.0046111355
58	0xbd1040a2	-0.03521789
59	0x3c4f1591	0.012639419
60	0xbce99edd	-0.028518135
61	0xbd408b2f	-0.047007736
62	0x3c295f47	0.010337657
63	0x3cf80f4c	0.030280732
64	0xbcecf5b9	-0.028925763
65	0xbc1b4d44	-0.009478871
66	0xbca96c85	-0.020681629
67	0xbd5a7921	-0.053338174
68	0x3bc8e2b3	0.0061305403
69	0xbccd0571	-0.025027009
70	0xbc6b83cd	-0.0143746855
71	0xbc558cb3	-0.013034034
72	0x3c98b8d8	0.018642828
73	0xbd32e1ab	-0.043672245
74	0xbc9964d3	-0.018724835
75	0x3ca909a4	0.02063448
76	0x3cb2e576	0.021837931
77	0xbcd15110	-0.025551349
78	0x3ba73e31	0.0051038493
79	0x3c57a753	0.013162452
80	0x3cdf7188	0.027275816
81	0x3c22f91c	0.009947088
82	0x3c10365e	0.008802025
83	0xbca96f27	-0.020682884
84	0x3b973320	0.004614249
85	0xbcbccf8e	-0.023048189
86	0x3b5ad99c	0.0033393865
87	0x3d5f1948	0.05446747
88	0x3d983c37	0.0743336
89	0xbc945407	-0.018106474
90	0xbc9a05f0	-0.01880166
91	0x3cc69a21	0.024243416
92	0xbd51d157	-0.051225033
93	0x3c8623c3	0.016374474
94	0xbcdd960e	-0.02704909
95	0xbd9cec4b	-0.07662257
96	0x3da14c2f	0.07875859
97	0xbb967654	-0.0045917425
98	0x3ca30b3d	0.01990282
99	0x3c9cac07	0.019124998
100	0xbc75bf65	-0.014999245
101	0xbda9282b	-0.082596146
102	0xbdd75a8b	-0.105153166
103	0x3c2f2d95	0.01069202
104	0x3c07bb31	0.008284376
105	0x3cd6d391	0.02622393
106	0x3b8beab7	0.0042699235
107	0xbc93396b	-0.017971715
108	0xbc62c112	-0.013839977
109	0x3c840fb8	0.016120777
110	0x3b2eb323	0.0026657067
111	0xbd050bc6	-0.03248193
112	0x3b98b169	0.004659821
113	0xbca16d3e	-0.019705411
114	0xbd355276	-0.044268094
115	0xbcd74d1c	-0.026281886
116	0xbd6edc63	-0.058315646
117	0x3bbc0330	0.0057376847
118	0x3cff37a3	0.03115446
119	0x3d01940a	0.03163532
120	0xbc70d799	-0.01469984
121	0xbbd0ab9d	-0.006368114
122	0xbc8caeca	-0.01717319
123	0xbc540692	-0.01294102
124	0xbaa30dba	-0.0012440004
125	0x3cdc065f	0.026858507
126	0x3c9b63af	0.018968431
127	0x3c9bb507	0.019007219
128	0x3b9b1d16	0.004733692
129	0xbcad5e2f	-0.021163074
130	0xbd86a6ec	-0.065748066
131	0xbc355e17	-0.011069796
132	0x3cb69245	0.022286544
133	0x3cd976b1	0.026545854
134	0x3ccc7ac3	0.024960881
135	0x3c9dd686	0.019267332
136	0xbc40730c	-0.011746179
137	0xbdc69818	-0.09696978
138	0xbb84b1d9	-0.0040495214
139	0xbc0b74d9	-0.008511745
140	0xbd232bf4	-0.03983684
141	0x3c57c59f	0.013169675
142	0xbc8b44fb	-0.017000666
143	0x3c8b74df	0.017023502
144	0x3c9a8760	0.01886338
145	0x3d0990f8	0.03358552
146	0x3b89d063	0.00420575
147	0x3cf574cc	0.02996292
148	0xbc15076a	-0.009096006
149	0x3c7dfe4b	0.015502523
150	0x3ce42ef3	0.027854418
151	0xbbfa682c	-0.007641813
152	0xbb897284	-0.0041945595
153	0xbbdebaa5	-0.006797152
154	0xbd35cd07	-0.044384982
155	0xbcc18878	-0.023624644
156	0x3c141da6	0.009040272
157	0xbd07be76	-0.033140622
158	0xbdb84b90	-0.089987874
159	0xbd328857	-0.043587055
160	0x3b4e4d9a	0.003147936
161	0xbc585fcf	-0.013206436
162	0x3c27b756	0.010236582
163	0x3c4e9aab	0.012610118
164	0xbc3bb8d8	-0.011457644
165	0xbd3edecb	-0.04659919
166	0x3c5e732f	0.013577267
167	0xbc75fb37	-0.015013508
168	0xbca6fb71	-0.020383568
169	0x3c5505ae	0.013001842
170	0x3cc35995	0.023846427
171	0xbbc64728	-0.006050963
172	0x3bb083f0	0.005386822
173	0x3c101b3a	0.008795554
174	0x3cd38ec5	0.025824914
175	0x3c88e426	0.016710352
176	0xbc97e5c6	-0.018542182
177	0x3b70f8fe	0.0036769505
178	0xbd30540b	-0.0430489
179	0xbcaa4d18	-0.020788714
180	0x3b8cb32e	0.004293821
181	0x3c65a46f	0.014016255
182	0x3c950748	0.018191949
183	0x3adffb36	0.0017088416
184	0xbc33a05c	-0.010963526
185	0x3ca8e53e	0.020617124
186	0x3c9255b2	0.017863128
187	0xbc978957	-0.018498106
188	0xba027c0a	-0.00049775897
189	0xbb94b513	-0.0045381873
190	0x3ca5ede4	0.020255037
191	0xbbe275d2	-0.006911018
192	0xbc47e5fc	-0.012200829
193	0xbc5c06f9	-0.013429397
194	0x3d32dc2a	0.043666996
195	0x3c25e618	0.010125659
196	0x3ab65b89	0.0013912778
197	0x3c4d0f7d	0.0125159
198	0x3d767aff	0.060175892
199	0xbcccf141	-0.025017383
200	0xbd663881	-0.05620623
201	0xbb8bdcdc	-0.004268272
202	0x3be427aa	0.006962736
203	0x3ca15f98	0.019698903
204	0xbd200097	-0.039063063
205	0x3ce4ffd0	0.027954012
206	0xbcb5bed5	-0.022185722
207	0x3a1a4562	0.00058849726
208	0x3ca6b65e	0.020350631
209	0xbc4f040d	-0.012635243
210	0x3cc64ac1	0.024205567
211	0xbbf3beee	-0.007438532
212	0xbd08c69a	-0.033392526
213	0x3c0afeb5	0.008483578
214	0x3d6e9e06	0.05825617
215	0x3c156a79	0.009119623
216	0xbc94d8bb	-0.018169751
217	0x3bb963ce	0.0056576496
218	0x3c818872	0.015812133
219	0xbcb1d4ef	-0.02170798
220	0xbca87338	-0.020562753
221	0xbdf7c088	-0.12097269
222	0xbd5ad935	-0.0534298
223	0xbc8a6ded	-0.01689812
224	0xbd0c91e9	-0.03431884
225	0xbcae6e24	-0.021292754
226	0xbd3c9ea2	-0.04604972
227	0x3c737f25	0.014861857
228	0xbc2af763	-0.010434958
229	0xbd4dec4d	-0.050274182
230	0xbca3c837	-0.01999293
231	0x3a1e784e	0.00060451485
232	0x3c63a080	0.013893247
233	0x3c7c9bb7	0.015417985
234	0x3b9f5ef2	0.0048636133
235	0xbd4f36fa	-0.05058954
236	0x3b02695e	0.001989923
237	0x3cda85d9	0.026675152
238	0xbc5eaadb	-0.01359054
239	0x3c8d4be9	0.01724811
240	0xbcd29898	-0.025707528
241	0xbcdceba4	-0.026967831
242	0xbd34faba	-0.044184424
243	0x3c145271	0.009052859
244	0x3d1fdeb1	0.039030734
245	0x3ca149dc	0.01968854
246	0xbb03aa23	-0.0020090423
247	0xbcf4e0ee	-0.029892411
248	0x3c85c8a7	0.01633103
249	0x3c8b9def	0.017043082
250	0xbc3636a5	-0.011121427
251	0xbb9fee12	-0.004880675
252	0xbcf21417	-0.029550595
253	0x3c8ca9c6	0.017170798
254	0xbd1da6d6	-0.038489185
255	0xbbd92152	-0.0066262865

fc3.bias f4 [11]
0	0x3ca2a899	0.019855784
1	0xbceb6eca	-0.028739352
2	0x3c0df7f6	0.0086650755
3	0xbd2ed5b1	-0.04268426
4	0xbbf1cd93	-0.0073792427
5	0xbb9da270	-0.004810624
6	0x3b0e48db	0.0021710906
7	0xbc95cc99	-0.018286036
8	0xbd25eba4	-0.040507928
9	0xbc5614e1	-0.013066501
10	0x3d172e04	0.03690912

fc4.weight f4 [11, 672]
0	0x3c936521	0.017992558
1	0xbd6b4cdf	-0.057446357
2	0x3baa28c7	0.0051928493
3	0xbbf0e503	-0.007351519
4	0x3cf039f3	0.029324507
5	0xbc5503bc	-0.013001379
6	0xbc192ed4	-0.009349544
7	0xbbc490f8	-0.005998727
8	0xbc5d1a75	-0.013495077
9	0xbdc82dce	-0.097743616
10	0xbd11a199	-0.035554502
11	0xbd183914	-0.03716381
12	0xbd4f6290	-0.050631106
13	0xbcf6fd27	-0.03015001
14	0xbcf7bd35	-0.030241588
15	0xbd8e6eaf	-0.06954705
16	0xbdb7b86f	-0.08970725
17	0xbc5e23d2	-0.013558345
18	0xbd2384bd	-0.03992151
19	0xbd9c107f	-0.07620334
20	0xbcb8e49d	-0.022569949
21	0xbd155604	-0.036458984
22	0xbd17788e	-0.036980204
23	0xbc20ed81	-0.00982225
24	0x3bc5fbe7	0.006041992
25	0xbd566f9c	-0.052352533
26	0x3bed841d	0.007248415
27	0xbd28f275	-0.04124685
28	0xbc4175ff	-0.011807918
29	0xbc54ff1d	-0.013000277
30	0xbb50468a	-0.0031780326
31	0x3ca3b0f1	0.019981833
32	0xbb990a28	-0.0046704
33	0xbc2e1d80	-0.010627151
34	0x3c5e4bea	0.013567904
35	0xbd4c9167	-0.049943354
36	0x3b58cfd5	0.0033082862
37	0x3d0d8666	0.034552
38	0x3cf3031c	0.029664569
39	0xbd1898da	-0.037255146
40	0x3bb1eafc	0.0054296236
41	0x3c90e7fd	0.017688746
42	0x3b2f4b82	0.0026747887
43	0xbcfb58e9	-0.030682044
44	0xbc9340f8	-0.017975315
45	0xbcb25ae2	-0.021771852
46	0x3bca49dc	0.0061733555
47	0xbb91aa59	-0.004445356
48	0x3c1ecb5e	0.009692041
49	0x3c50bc3c	0.012740191
50	0xbcf36b06	-0.029714119
51	0xbc37607c	-0.011192437
52	0xbc0d5bbe	-0.00862783
53	0xbb34d31b	-0.002759165
54	0xbd7f9091	-0.06239373
55	0xbad3d56c	-0.0016161627
56	0xbb69b5b4	-0.0035661282
57	0xbca7d9db	-0.020489624
58	0xbd303b52	-0.043025322
59	0xbd067601	-0.03282738
60	0xbd6be17d	-0.05758809
61	0xbcacd00b	-0.021095296
62	0xbca211d6	-0.019783895
63	0xbd2e09da	-0.042489864
64	0xbaa948e5	-0.0012915401
65	0xbd3b7e24	-0.045774594
66	0xbb67555e	-0.0035298686
67	0xbc94eaca	-0.018178362
68	0x3bd089e5	0.0063640946
69	0xbd1bcff7	-0.038040128
70	0xbc99aa03	-0.018757826
71	0xbbfc652f	-0.0077024917
72	0xbc8237aa	-0.015895683
73	0xbd2b71df	-0.041856643
74	0x3a83de4f	0.001006076
75	0xbc3a8c5d	-0.011386004
76	0x3bec35e6	0.0072085736
77	0xbd0313c7	-0.032001283
78	0xbd157c1d	-0.036495317
79	0x3b4449de	0.0029951255
80	0xbc8d999f	-0.017285166
81	0xbd67c7cc	-0.056587026
82	0xbd308a7b	-0.043100815
83	0x3c8d3e56	0.017241638
84	0x3c12d91f	0.0089628985
85	0x3ca3752f	0.019953338
86	0xbc568e0e	-0.013095392
87	0xbd14c134	-0.036317065
88	0xbcb0cd09	-0.021582143
89	0xbcc0ffe7	-0.023559524
90	0x3ba57bd0	0.00505016
91	0xbd9bbe2f	-0.07604634
92	0x3b968790	0.004593797
93	0x3d84821a	0.064701274
94	0xbb448fb0	-0.002999287
95	0xbd99186b	-0.074753605
96	0x3bdaa14f	0.0066720615
97	0xbce19faa	-0.027541954
98	0xbc1b88dd	-0.00949308
99	0xbaebb584	-0.0017983173
100	0x3d883491	0.06650651
101	0x3c35af34	0.011089135
102	0xbcb30ad7	-0.021855755
103	0x3b22d408	0.0024845619
104	0xbd3d49e8	-0.04621306
105	0x3c955df1	0.018233271
106	0xbcdf5692	-0.02726296
107	0xbc16aefe	-0.009196995
108	0xbd53b310	-0.05168444
109	0xbd15c9ee	-0.03656953
110	0x3c9e0f98	0.019294545
111	0xbc559d0f	-0.013037934
112	0xbcda7cf3	-0.026670909
113	0xbcebbf08	-0.028777614
114	0xbd45178d	-0.048118163
115	0xbb3bde43	-0.0028666414
116	0xbcf4951d	-0.029856259
117	0xbd3367a1	-0.0438
118	0x3cc1612a	0.023605902
119	0xbc150ae7	-0.009096838
120	0xbd074b50	-0.033030808
121	0xbd6b7ac7	-0.057490136
122	0xbd6c0ce1	-0.05762947
123	0xbceead42	-0.02913535
124	0x3c1444f6	0.009049645
125	0xbd1f4f74	-0.03889413
126	0xbcc54de5	-0.024084995
127	0xbb8e1982	-0.004336537
128	0x3d089112	0.033341475
129	0xbd467db2	-0.048459716
130	0xbccd9a28	-0.025097921
131	0xbcba53fd	-0.022745127
132	0x3c22dbf2	0.009940134
133	0xbc5b66d8	-0.013391219
134	0xbb84e150	-0.0040551797
135	0x3cf3c617	0.029757543
136	0x3c663f58	0.014053188
137	0x3c4d4642	0.012528958
138	0xbc3dc8a9	-0.011583486
139	0xbcb8ee98	-0.022574708
140	0x3c28f512	0.010312336
141	0x3aeb737a	0.0017963492
142	0x3d6b3416	0.05742272
143	0xbcfacf0e	-0.03061631
144	0x3c0ed99e	0.008718876
145	0x3d51e9b3	0.051248264
146	0xbc8d3b86	-0.017240297
147	0xbcfc014e	-0.03076234
148	0x3d5aece6	0.05344858
149	0x3c358536	0.011079123
150	0xbb89e1c4	-0.0042078216
151	0xbd0c42b2	-0.034243293
152	0xbc958b0e	-0.018254783
153	0xbcd5e431	-0.026109787
154	0xbd3cd8d9	-0.04610524
155	0xbce527ab	-0.027973017
156	0x3a379f00	0.0007004589
157	0xbd495a35	-0.049158294
158	0xbd936f0d	-0.07198916
159	0xbd4c2c09	-0.049846683
160	0x3ca5b736	0.020228963
161	0xbd3241b1	-0.04351968
162	0xbc68b231	-0.01420264
163	0x3ce2809c	0.027649216
164	0xbd20ab58	-0.039225906
165	0x3c162785	0.009164696
166	0xbaba83a9	-0.0014229912
167	0xbc8a2e4a	-0.016867775
168	0xbd38fa19	-0.045160387
169	0xbce28dd7	-0.027655525
170	0xbcbbf1d5	-0.022942463
171	0xbc845b32	-0.016156767
172	0xbd197f86	-0.03747513
173	0xbcff858e	-0.031191614
174	0x3c5af3af	0.013363763
175	0x3c9ca367	0.019120885
176	0xbd56c3b1	-0.05243272
177	0x3b33ff0d	0.0027465255
178	0x3c47b91a	0.012190128
179	0xbb6ccabf	-0.0036131588
180	0xbc50589e	-0.0127164405
181	0xbc3c2362	-0.011483045
182	0x3bd74510	0.006569512
183	0x3c9d62fa	0.019212235
184	0xbcf7ad38	-0.030233964
185	0xbbb195bb	-0.0054194606
186	0xbcb7b7c4	-0.022426493
187	0xbd0367f8	-0.032081574
188	0x3bb56d24	0.005536692
189	0xbb9bb0d5	-0.0047513046
190	0x3b0f0acc	0.0021826504
191	0xbd3e57b4	-0.04647036
192	0xba352c77	-0.0006911228
193	0x3c4d878f	0.012544527
194	0xbcd27c45	-0.025694022
195	0xbd1f027c	-0.03882073
196	0xbb9b90f3	-0.004747504
197	0x3c56499d	0.013079074
198	0xbcb5cd03	-0.022192484
199	0xbcbe10b7	-0.02320133
200	0xbcf40e45	-0.02979196
201	0xbd3af561	-0.045644168
202	0xbd11c313	-0.035586428
203	0x3d04a676	0.032385312
204	0xb9bd4768	-0.0003610209
205	0xbcdffb79	-0.027341591
206	0xbd204c4a	-0.039135255
207	0x3cadab12	0.021199737
208	0xbcb922fb	-0.022599688
209	0x3cb8ea17	0.02257256
210	0x3ab00942	0.0013430493
211	0xbbd7367c	-0.0065677743
212	0x3c7866a9	0.015161195
213	0xbc484e4a	-0.012225697
214	0xbcd94cb6	-0.026525836
215	0xbca73120	-0.020409167
216	0xbc552010	-0.013008133
217	0xbcd75aa8	-0.026288345
218	0x3bcc9ddd	0.0062444047
219	0xbd04c059	-0.03241
220	0xbd321350	-0.04347545
221	0xbdaaad40	-0.08333826
222	0xbd243aa4	-0.040094987
223	0xbcafbee4	-0.021453328
224	0xbd2bb736	-0.04192277
225	0xbc3da771	-0.011575566
226	0xbd399f00	-0.04531765
227	0xbd21b030	-0.039474666
228	0xbd124b59	-0.03571639
229	0xbd863a67	-0.06554108
230	0x3c8f2d52	0.017477665
231	0xbbc5a73c	-0.006031899
232	0x3ce0435b	0.027375868
233	0xbc96800f	-0.01837161
234	0xbcf3fbeb	-0.02978321
235	0xbd1ae2f0	-0.03781408
236	0xbd1e311d	-0.038621057
237	0xbd14ee19	-0.03635988
238	0xbd103013	-0.035202097
239	0xbd2810af	-0.041031536
240	0xbc9cbff6	-0.019134503
241	0xbcd52e0a	-0.02602293
242	0xbcc1a1d9	-0.023636745
243	0x3c1859f3	0.009298789
244	0xbd6dc2ac	-0.05804698
245	0xbd39f94d	-0.045403767
246	0x3c45e722	0.012079032
247	0xbd50d8c3	-0.05098797
248	0xbcb40cd5	-0.021978775
249	0x3c101edb	0.008796419
250	0xbd52616b	-0.051362436
251	0x3cac40eb	0.021027049
252	0xbc5bc324	-0.013413224
253	0xbcc933ad	-0.024560774
254	0xbcf3106f	-0.029670922
255	0xbd68d94e	-0.056847863

fc4.bias f4 [11]
0	0xbbb10978	-0.00540274
1	0xbc89e36f	-0.016832082
2	0xbc53e805	-0.012933736
3	0xbcdbf0d2	-0.02684823
4	0xbce8d9b1	-0.028424116
5	0xbc648444	-0.01394755
6	0xbbbf7d5b	-0.005843801
7	0xbab4e18d	-0.001380013
8	0xbd013a01	-0.031549457
9	0xbd5945f1	-0.053045217
10	0x3d501fe9	0.050811682
