code/model.pt (torch, 203135 bytes, 16 tensors)

cnn.0.weight f4 [16, 3, 3, 3]
000000 6f 1f 70 be fb 25 59 bd 88 25 ac be 37 32 55 be
       -0.23449491 -0.053014737 -0.33622384 -0.20819937
000010 6f 41 ab bd d9 33 77 3d 92 7a 42 3e cb 5f ad 3e
       -0.0836209 0.06035218 0.1899207 0.33862147
000020 32 d0 85 3e 39 22 00 be 92 3e 3b be 02 97 71 be
       0.26135403 -0.12513055 -0.18285587 -0.23592761
000030 f0 d5 36 be ba a6 d8 bd c1 56 ad bd ce 5d 90 3e
       -0.17855048 -0.105786756 -0.084638126 0.28196567
000040 da d3 9b 3e 22 1f c3 3e 99 96 78 be 7f 3f 1b be
       0.30435067 0.3810969 -0.24276198 -0.1516094
000050 3a 52 82 bd 79 ad bf 3d 0a 9c b8 bd 86 05 84 3d
       -0.0636334 0.09359259 -0.09014137 0.06446366
000060 bd 5b 97 3d 8d 26 89 3d e4 a2 78 3e 1f 6c 43 bd
       0.073905446 0.06696806 0.24280888 -0.047710534
000070 ec 15 0d be 09 88 27 bc 2a 52 48 bb 80 dc 2b 3e
       -0.13777894 -0.010225304 -0.0030566552 0.16783333
000080 99 a8 90 bd 9c f9 56 bd f8 a8 cd bd 0c e9 17 be
       -0.070634075 -0.05248414 -0.10041994 -0.14834994
000090 20 75 ab bd 44 97 b6 3d 06 8d 09 3e 3d e2 7e 3d
       -0.08371949 0.089155704 0.13432702 0.062227476
0000a0 b3 14 5e bd 3e bd 63 bd a6 d1 fd bc 79 2a 61 be
       -0.05421896 -0.055600397 -0.030983757 -0.21988858
0000b0 e8 42 06 be 11 57 02 bd d7 b8 f4 3b 39 cf fc 3d
       -0.1311146 -0.031821314 0.0074683237 0.12344212
0000c0 4a ae 91 bd f9 80 8e bd 66 3c 3b 3e 99 ef 4a 3e
       -0.07113321 -0.06958193 0.18284759 0.19817962
0000d0 92 d1 b4 3d 4b 62 e8 3d d6 08 95 3e 9b 0c 30 be
       0.08829035 0.11346873 0.29108304 -0.17192309
0000e0 f2 d7 c9 bd 7e 09 3b bc f8 78 b3 bd 84 f3 8e bd
       -0.098556414 -0.011415837 -0.08763307 -0.06980041
0000f0 8f a1 5b 3e 1f 1c 81 3d 3c ad 39 be 62 ab 58 3e
       0.21448348 0.06304192 -0.1813249 0.21159127
000100 f0 71 e8 bc 0e 66 90 be 6a 93 15 3e 72 ec f7 3c
       -0.028374642 -0.28202862 0.14607015 0.030264113
000110 c4 49 21 3d 5b 6b a8 3e 0e 22 49 be 4a 8f 68 be
       0.03937699 0.32894406 -0.19641897 -0.2271091
000120 f3 66 09 3e 74 76 25 3d 94 69 0d 3c 28 0b 59 3e
       0.13418178 0.04039617 0.008631129 0.21195662
000130 d9 be 08 3d 88 fc 0f be e3 1b a3 3d 43 66 17 be
       0.03338513 -0.14061177 0.07964303 -0.14785103
000140 e7 e1 68 be 40 39 ab 3e 3f 07 45 3e 9f 3f 7a be
       -0.22742425 0.33442116 0.19241045 -0.24438332
000150 75 45 d4 3d dd 3e 4c 3c c0 86 0a bd 92 20 06 be
       0.103648104 0.01246616 -0.033819914 -0.13098362
000160 b3 f2 c9 bc f0 d7 8d be 78 1e 8a 3e f8 63 2c 3e
       -0.02465186 -0.2770381 0.2697637 0.1683501
000170 64 dc a1 3d 61 7a 26 3e 32 bd 03 be ff d2 0e be
       0.07903364 0.16257621 -0.12865141 -0.13947676
000180 f8 bf 94 3d 43 9b 4a bd c0 21 ac be e9 74 9d 3b
       0.07263178 -0.049464475 -0.336195 0.0048051965
000190 25 a5 6d 3e f1 09 07 3e 48 3e b2 bc 53 08 13 3d
       0.23207529 0.13187386 -0.021758214 0.03589661
0001a0 3d ac c9 bd 4d 50 97 bb fb a7 1b be 01 8c 47 be
       -0.09847305 -0.004617727 -0.15200798 -0.19487001
0001b0 83 94 65 be 41 36 73 3d 92 fd 24 3e 10 19 ab 3c
       -0.22419934 0.059377912 0.16112354 0.020885974
0001c0 fb b9 05 be f6 5b d1 3e ae 5c c8 3d 74 94 9e be
       -0.13059227 0.40890473 0.09783302 -0.30972636
0001d0 ce bd a9 bd c3 a8 e3 bd 7e 2b e8 3d 60 20 87 3e
       -0.082881555 -0.11116173 0.113364205 0.26391888
0001e0 33 73 c0 3d 61 25 91 3d f7 35 e4 3d 4a 71 4c 3e
       0.093969725 0.070872076 0.111431055 0.19965091
0001f0 49 90 69 be 74 03 07 be a2 70 5a be cd a9 c3 3d
       -0.22808947 -0.13184911 -0.21332029 0.09553871
000200 81 b0 ae 3e d3 21 b2 be 23 16 b4 bc 26 bb 9f 3e
       0.34119037 -0.3479143 -0.021983212 0.3119747
000210 c2 8b be be c5 6b 82 be ea 1f a7 3d 0a b3 d0 3b
       -0.37216002 -0.25472847 0.08160384 0.0063689994
000220 1e 8d 21 3d 0a d1 86 3b 60 3b 86 3d 90 24 0a 3e
       0.03944122 0.004114275 0.06554294 0.1349051
000230 fc ea 2b 3e 1d a0 08 3e bc c2 2c 3e 7c 0d 6c bd
       0.16788858 0.13342328 0.1687116 -0.057630047
000240 45 03 4c be 0a 82 be bd 36 b6 07 3e f6 00 eb bc
       -0.19923122 -0.09302147 0.13253102 -0.028686982
000250 a5 b2 e2 bd 2f 2a 2a be 81 64 61 be 90 d2 47 be
       -0.1106923 -0.16617654 -0.22010995 -0.19513917
000260 f4 e2 93 bd 78 7f 0b 3e 96 e3 35 3e 5e 8f af bd
       -0.07221022 0.13622844 0.17762598 -0.08572267
000270 7c 65 23 3e 7d 93 ab bd 28 2b 15 3d 66 11 3c bd
       0.15956682 -0.083777405 0.03641811 -0.04591503
000280 61 dd fd 3b f0 11 a0 3c d7 6a 39 bd 03 11 cf bc
       0.0077473377 0.019539803 -0.045267906 -0.025276667
000290 c9 d7 73 3e d4 a8 b8 3d 36 3b c4 bd eb 30 30 3e
       0.23812784 0.090165764 -0.09581606 0.1720616
0002a0 e3 65 8b be ae 2d 72 be 48 7c c5 3d 3e 4a ab bc
       -0.2722617 -0.23650238 0.096428454 -0.020909425
0002b0 94 62 92 3e c4 34 b9 3e 27 7f 2a be 30 b3 a6 3d
       0.28590834 0.3617307 -0.16650067 0.08139646
0002c0 af eb ec 3d da 5b 8f be 1f 16 ea bd 7c 9f 3d be
       0.115683906 -0.27999765 -0.114300005 -0.1851787
0002d0 bd 1e ca 3d 38 6e 64 3a d4 8c 8d 3e 92 9d dd 3d
       0.09869144 0.00087139336 0.27646506 0.1082107
0002e0 89 b6 0c 3d b6 47 c6 3d ce ce 21 be be 54 86 be
       0.034353767 0.096816465 -0.15801546 -0.26236528
0002f0 19 37 71 be 08 f2 a7 3e 16 6f 8a 3e b0 52 ae 3e
       -0.23556174 0.32801843 0.27037877 0.3404746
000300 62 6a fb bd 89 bc 0c bb a7 10 1e be b9 07 78 be
       -0.1227615 -0.002147468 -0.1543604 -0.24221696
000310 4a 73 53 be 52 7a 32 be 1f 3a 18 3e 24 bc 4d 3e
       -0.20649448 -0.17429474 0.14865921 0.20091301
000320 fc f1 b5 3e 77 13 e9 3d d6 6e 06 be 40 8c aa bd
       0.35536182 0.11380666 -0.13128218 -0.08327532
000330 08 f6 b1 be c3 02 ef bc 14 3c ab be 41 1d 82 3e
       -0.3475802 -0.029176122 -0.33444273 0.25412944
000340 3b 79 a3 3d e7 6e 23 3e 21 36 ff bc 98 dd 93 bd
       0.07982107 0.15960275 -0.03115374 -0.0722
000350 f3 03 a3 3b 2a 3c 2e be f3 ef ac bd 11 b7 32 be
       0.004974836 -0.17015138 -0.08444204 -0.17452647
000360 5d 56 b1 be 4f 8d 1e be 2d 13 59 3e 07 18 54 be
       -0.34636202 -0.15483592 0.21198721 -0.2071229
000370 0d d5 2c 3d 9d ed a4 3e 92 64 f6 bd bd ca 91 3d
       0.04219537 0.32212535 -0.12030901 0.071187474
000380 be d0 00 3e 9a 96 1d be e5 0b 5a be 51 89 ed bb
       0.12579629 -0.15389481 -0.212936 -0.0072490354
000390 ee f9 28 be a2 34 c8 3b d9 5e f5 3d 20 df a7 bd
       -0.1650159 0.00610979 0.119809814 -0.081968546
0003a0 e3 2e 74 3d 4c 37 dc 3e 7d 76 69 bc 50 9b 4a be
       0.059615027 0.43010938 -0.014249441 -0.1978581
0003b0 3e 8d 2f 3d f1 69 d5 bd 8e 16 45 bd 56 8e b9 3d
       0.04285931 -0.10420597 -0.048117213 0.090603516
0003c0 73 d0 32 bd 1b 92 3d 3e f6 fe db 3d 60 1c f0 bc
       -0.043655824 0.18512766 0.10741989 -0.029310405
0003d0 65 e2 45 3e f8 9a 63 be 8c a8 22 3e 58 2e a1 3b
       0.19324644 -0.22227085 0.15884608 0.0049188547
0003e0 ca cb 5c 3d b3 73 a2 bd f5 0e 04 3c a9 31 19 3d
       0.053905286 -0.07932224 0.008060207 0.037400875
0003f0 a7 c8 01 3d c1 59 2a bd 89 85 77 be 63 b5 22 be
       0.031685498 -0.041589502 -0.24172033 -0.15889506

cnn.0.bias f4 [16]
000000 e2 ff ca bd 33 05 99 be 6d e9 e3 bd 12 ee 65 bd
       -0.09912087 -0.2988678 -0.11128507 -0.056135245
000010 6b 5d 3b bf d0 cf 50 bf 1f d2 b7 bd 4a dd 99 bd
       -0.7318942 -0.81567097 -0.08975624 -0.07512911
000020 b6 06 30 be 62 d7 03 bf 5a e6 1e be 61 51 25 bf
       -0.1719006 -0.51500523 -0.1551756 -0.645773
000030 b1 d6 02 be f2 96 3b be 81 66 82 be 97 0a 47 bc
       -0.12777211 -0.183193 -0.2546883 -0.012148521

cnn.4.weight f4 [32, 16, 3, 3]
000000 79 47 c3 3d 92 1c 2b 3d 39 50 87 bd 0b 6d ae 3d
       0.09535117 0.041775294 -0.06607098 0.08516892
000010 c1 b9 10 3e 86 87 fc bd 33 ac f6 3c 1e 22 e6 bb
       0.1413336 -0.123305365 0.030111408 -0.00702311
000020 57 15 62 be d0 da c5 3d 2a c5 49 bd 26 69 5a bc
       -0.22078453 0.09660876 -0.049260296 -0.013330733
000030 77 a7 d8 bd 09 ad a0 3c 9f f0 28 3e 81 b4 0c be
       -0.105788164 0.01961376 0.1649804 -0.13740732
000040 a3 26 3c be ea d2 b9 3c ff c4 8a be 2c fe ab be
       -0.18374114 0.02268358 -0.2710342 -0.33592355
000050 15 0b 9e bd cb ac a8 be ed a5 17 be dd 83 77 3d
       -0.077169575 -0.3294433 -0.1480939 0.06042849
000060 8d b8 15 bf da 62 04 be ea 70 4d bc ec ca 5f bd
       -0.5848473 -0.12928334 -0.012539128 -0.05463688
000070 cf 79 58 bc e5 de c9 bc fa 36 9a 3c 44 d9 25 3d
       -0.013212635 -0.024642417 0.018825043 0.040490404
000080 84 0e a7 bd 0b 29 de bd fb c5 8d be 42 7c 55 be
       -0.081570655 -0.10847672 -0.2769011 -0.20848182
000090 4f d2 45 be 6d 25 35 be 9a db 8e bd 04 3b a1 bd
       -0.19318508 -0.17690058 -0.069754794 -0.078725845
0000a0 2a 0d 1a be 61 04 62 bd 9d b4 b4 bd a6 29 30 3e
       -0.15044084 -0.055179957 -0.08823512 0.17203388
0000b0 71 9f b8 bc 15 18 73 be 88 ad 73 bd 7f a7 81 3d
       -0.022536965 -0.23739655 -0.059491664 0.063307755
0000c0 48 4c f1 bd 0a 4a 5d bc b4 6e 5f 3e cb e3 21 be
       -0.117821276 -0.013506422 0.21819574 -0.15809552
0000d0 71 4a ad bd 1a 9c 45 3e 4e e3 5f 3d cc f9 38 3d
       -0.08461464 0.1929783 0.054660134 0.0451601
0000e0 df 94 1a 3d 2b 0a 41 bd e6 e7 c2 bc 18 4e 42 3d
       0.03773963 -0.047128838 -0.023792218 0.047437757
0000f0 cc 2b d1 3d bc 62 0c 3e 5b 2c 81 3d de 7e 3d 3d
       0.10213432 0.13709539 0.06307288 0.046263568
000100 a0 1c 28 3d 1f 31 65 bc 7e 5e 0b 3e bf 96 42 3d
       0.041042924 -0.013988762 0.13610265 0.047507044
000110 a0 29 c0 3c 37 cb 54 3e 78 cb d6 3c 86 1c 33 bd
       0.023457348 0.20780645 0.026220068 -0.043728374
000120 67 9d 09 3c 17 ef ea bd 24 4f 10 be 82 de 44 be
       0.008399344 -0.11471384 -0.1409269 -0.19225505
000130 6c 54 48 be 57 fb 16 be d7 6e 3d be f6 46 ac be
       -0.19563454 -0.14744316 -0.18499313 -0.3364789
000140 de 63 fc bd b8 08 3d be ac 3a bc 3d b9 e9 3a 3e
       -0.12323736 -0.18460357 0.09190878 0.1825322
000150 f5 d3 66 be c6 27 f8 3d dc 6b 5a 3e 9d 9e f8 bd
       -0.22541793 0.12116961 0.21330208 -0.12139628
000160 60 ea be bd 96 85 a1 3d 0b c9 cc 3c 30 f4 8b 3c
       -0.09322047 0.078868076 0.024998209 0.017084211
000170 fc f8 b9 bc 47 f7 c1 3d 1d 36 62 3b 57 4e 02 bd
       -0.022701733 0.094709925 0.0034517117 -0.031812992
000180 93 3d 09 3d 87 e3 9a 3d 78 54 01 3d 81 ee b8 bd
       0.033505987 0.07562929 0.031574696 -0.09029866
000190 e9 80 87 bd 1d 77 52 be bd 60 d5 bd 13 81 9a be
       -0.066163845 -0.2055325 -0.10418842 -0.301766
0001a0 ef 22 e1 bd 75 ee 86 be c0 4b e1 be e9 82 ad be
       -0.10992991 -0.26353803 -0.44003105 -0.3388894
0001b0 c3 fc c9 3d 24 f8 0b 3d 35 d0 95 3c 74 3f 13 3e
       0.098626636 0.034172192 0.018287757 0.14379674
0001c0 05 df 29 3d 76 4c 89 bd 40 43 0d 3e 2c 5c 06 be
       0.041472454 -0.06704037 0.13795185 -0.13121098
0001d0 0b 1f 61 be 78 6b 6e bd 41 36 ca bc 84 a9 67 3c
       -0.21984498 -0.05820796 -0.024684073 0.014139537
0001e0 72 93 a4 3d 71 00 52 3d 9a 92 5b 3d 70 c3 77 3d
       0.080359355 0.051269952 0.053606607 0.060489118
0001f0 a8 23 b5 3d 17 59 87 bc 27 a8 fc 3d 92 77 a0 3d
       0.088446915 -0.016521974 0.1233676 0.07835306
000200 67 13 ac bd 92 c8 4b 3d 7f a2 38 3d bd ed 16 3d
       -0.08402138 0.049751826 0.045076843 0.03684782
000210 94 39 a8 3d 8d d7 35 3d 66 7e b5 3b ab b0 d3 bc
       0.08214107 0.04439502 0.0055387495 -0.025841078
000220 3e ba 51 3d cc 3c c2 3d 0c 60 fc bd ef b3 89 3c
       0.051203005 0.09484252 -0.12323007 0.016809432
000230 f4 aa e8 3d 9f 22 28 3c ee f0 9f 3d f2 68 e6 3d
       0.11360732 0.010262161 0.078096256 0.112504855
000240 b6 27 12 be 2e 78 51 bd 74 6e d3 bd 94 64 e4 be
       -0.14272961 -0.051140003 -0.10323802 -0.44607985
000250 05 49 9f be 69 0f de be c6 59 84 be 60 d9 49 be
       -0.31110397 -0.43371132 -0.25849742 -0.19711828
000260 f4 0b a9 be 70 81 23 3d fe d3 16 be 01 67 0d be
       -0.33016932 0.039918363 -0.14729306 -0.13808824
000270 33 a0 2d 3d 6e fa 7c bd d3 f0 7c 3d ba 2d 3f 3e
       0.042389106 -0.061762266 0.061753105 0.18669787
000280 40 46 77 3d 2a 1b aa bb 41 ee 4a 3e 76 fe d8 3d
       0.06036973 -0.0051912265 0.19817449 0.105954096
000290 ef 29 25 3e ba b4 c2 3d b4 19 08 3e d4 db 04 3e
       0.16129278 0.09507127 0.13291055 0.12974483
0002a0 93 f6 1c 3e 5e 50 1b 3e 86 72 e9 3d 48 7f 7b 3d
       0.15328436 0.15167376 0.11398797 0.06140068
0002b0 05 48 b3 bc 8d 78 ed 3b 8f b4 04 3e 94 72 ee 3d
       -0.021884928 0.007247037 0.12959503 0.11642948
0002c0 41 f2 00 3e 54 36 54 3e ca 7e fb 3d 5f 0a da 3d
       0.12592413 0.2072385 0.122800425 0.106465094
0002d0 8a 0a f9 bd 86 8e 24 be 70 2c 62 be 9a 13 a0 bd
       -0.12160213 -0.16069993 -0.22087264 -0.07816239
0002e0 f9 3e ed bd ca eb d5 bd 79 2b 91 bc 1a c1 34 be
       -0.11584277 -0.10445364 -0.017720925 -0.17651787
0002f0 f9 a5 4b be 6e b0 2f 3e 0e 4d 68 3e d2 b8 4f bc
       -0.19887532 0.17157146 0.22685644 -0.012678342
000300 92 aa 5c 3e 75 c0 42 3e cd 19 0c be 57 19 b2 3e
       0.21549442 0.19018729 -0.13681717 0.34784958
000310 7e ea 04 3e af 95 e8 bd df 13 83 3c 7e 76 2c 3e
       0.12980077 -0.11356675 0.016000686 0.16842076
000320 9f 4d 61 3d 7e 6f 8a 3d 51 2c c7 3d 34 cd 85 3d
       0.055005666 0.06759547 0.097252496 0.0653328
000330 66 0d ba 3c 72 c1 f4 3d 27 64 21 3c e6 7f 29 be
       0.022711467 0.11950959 0.009850538 -0.16552696
000340 b9 bc e8 bd 81 96 bb bd bc 3b 1f bf 3a 3e 23 bf
       -0.11364121 -0.09159566 -0.6220052 -0.63766825
000350 6a d1 1d bf 35 52 1b bf ec e6 0a bf 47 25 da be
       -0.61647666 -0.6067231 -0.5425861 -0.42606565
000360 b6 2b ec 3c ec d7 f3 3c 2d 2b 58 3d 5d c9 a4 3d
       0.028829437 0.029766046 0.05277555 0.080462195
000370 79 41 3c 3d 44 3b b9 3d 01 42 ed 3d 79 7c d7 3d
       0.045960877 0.09044507 0.11584855 0.10521788
000380 e0 7c db 3d ef fd 81 bd 38 29 55 be f1 4f 32 be
       0.107171774 -0.06347262 -0.20816505 -0.17413308
000390 46 5e 5a bb 0f c3 f9 bc 5d c3 38 bd 83 ae 88 3e
       -0.0033320352 -0.030488519 -0.045108188 0.26695642
0003a0 7f 87 8e 3c 11 69 21 bd cc 02 fe 3c 07 f1 6c 3d
       0.017398594 -0.03940684 0.031007193 0.05784705
0003b0 46 ab 16 3d fd 7b f8 bd 10 43 2b bd 1e f4 0c bd
       0.036784433 -0.12133024 -0.041812003 -0.034412496
0003c0 f6 8b 27 be 54 1a 57 bd 2b 0c 98 b8 a1 5a f3 bd
       -0.16361985 -0.052515343 -7.250191e-05 -0.118825205
0003d0 55 4f 1c 3d 5e 96 f4 bd 64 d0 88 be b8 c0 e4 be
       0.038161594 -0.11942743 -0.2672149 -0.44678283
0003e0 8d 60 c5 be 96 8c bf bd 9e 1b 4b be f6 a0 89 be
       -0.38550225 -0.093529865 -0.19834754 -0.26880616
0003f0 0a 45 41 be dc 5a 5d bc b3 1c f3 bd e7 5f 88 be
       -0.18873993 -0.013510432 -0.11870708 -0.26635668

cnn.4.bias f4 [32]
000000 37 39 8d 3e 2a b2 38 3e f4 fc 96 3d 27 fb 48 bd
       0.27582714 0.18036714 0.07372466 -0.049067643
000010 70 aa 98 3c e7 62 63 3d 6e 77 51 bc a2 2e c2 be
       0.018635958 0.055514243 -0.012784822 -0.37926203
000020 df df a5 bd b6 af bf bb f8 15 8d 3e 23 02 d9 bd
       -0.08099341 -0.005849804 0.27555823 -0.10596111
000030 c6 7d 2b 3d 9c d8 6d be dc 52 22 be 5e 40 62 3e
       0.041867994 -0.23227161 -0.15851921 0.22094867
000040 ab 78 0a 3a 0b 77 8b bd 1d 75 7d 3d 07 50 61 bd
       0.0005282263 -0.06809815 0.061879266 -0.05500796
000050 3d 1d f0 bd 82 28 33 be 77 5b 0b bc 74 9c b8 3c
       -0.11724327 -0.17495921 -0.008505694 0.02253554
000060 78 7c ac 3d 22 cd a1 be 16 8c 7b 3c 4b 7f 7b 3d
       0.08422178 -0.31601816 0.015353223 0.061400693
000070 9b 15 f2 bd cd f4 c7 3b 45 cb 5f bd d1 a4 2c be
       -0.11820527 0.0061021806 -0.054637212 -0.16859747

fc1.weight f4 [11, 672]
000000 9a 17 1d be bf 9a f8 3c 6e 39 a1 be 89 6c 00 bd
       -0.15341035 0.030347226 -0.31489128 -0.031353507
000010 b8 71 cb 3c b8 22 39 be 53 de 65 bd ae 53 ba bd
       0.024834499 -0.1807965 -0.056120228 -0.09097992
000020 56 0b db 3d 32 07 b2 bd 7d 72 35 bc d0 b7 30 be
       0.106955215 -0.08692779 -0.011074659 -0.17257619
000030 fb e6 cb be 43 f0 0c be 10 0f c6 bd cd 5d d1 bd
       -0.39824662 -0.13763528 -0.09670842 -0.10222969
000040 d9 d4 ca bd 28 5a ae 3e 6e 8a 60 3e 4e bb f3 be
       -0.09903879 0.3405316 0.21927807 -0.4760384
000050 b6 b5 57 be c1 fb 12 3d fa ab 1f bd 1f 1d 93 be
       -0.21065411 0.035884622 -0.03898237 -0.28733155
000060 fb 88 5a be 80 39 10 3e dd 60 59 bd 45 2b e3 be
       -0.21341316 0.14084435 -0.05307089 -0.4436895
000070 6d 2e 8f 3e 52 d6 04 be 01 83 04 be 13 0d 36 3e
       0.27965108 -0.12972382 -0.12940599 0.17778425
000080 f1 fc 96 3d 26 4c d9 3d bf 55 8d be 4e 1d 84 bc
       0.073724635 0.10610227 -0.27604482 -0.016127255
000090 17 94 d5 bd 9b 26 12 be 9a f8 6a 3e 88 47 91 be
       -0.104286365 -0.1427254 0.22946396 -0.28374887
0000a0 fa 8f 39 3e 21 58 bb be 7b 23 58 bd a5 f9 27 3e
       0.18121329 -0.36590675 -0.05276821 0.16403826
0000b0 34 a8 a9 be 29 08 05 be a9 b0 71 be 44 45 32 3d
       -0.3313614 -0.12991394 -0.23602547 0.043523088
0000c0 b8 60 d1 3e f1 79 75 bd 58 39 d5 bd 74 4e 17 ba
       0.40894103 -0.059930746 -0.10411328 -0.00057718833
0000d0 37 d6 f5 be 32 9e b9 be da 1e d8 bd 46 62 d7 3d
       -0.48014995 -0.36253506 -0.105527595 0.10516791
0000e0 58 bb f6 3d 9e 62 a7 be 58 88 2d be 0e 7d 45 be
       0.12047452 -0.32692426 -0.16946542 -0.19285986
0000f0 e5 3c 13 be 7e 5e ef 3d 38 cc df 3e 2d 39 a0 be
       -0.14378698 0.11687945 0.43710494 -0.31293622
000100 dd 24 3d be 5d 3e 70 3e bd 75 e3 bd 15 75 95 be
       -0.18471093 0.2346129 -0.11106441 -0.2919089
000110 17 0d b7 be f8 59 07 be 45 25 89 bd d3 c3 d1 be
       -0.35752174 -0.13217914 -0.06696562 -0.40969715
000120 06 0b 6e 3d 8c ef cb 3c fe 53 3f be a9 99 66 3d
       0.05811598 0.024894498 -0.18684384 0.056298885
000130 a5 1e bd be 69 4e 36 be 7d 17 d0 3d 61 41 55 3d
       -0.36937442 -0.17803349 0.1016073 0.052064303
000140 7f d9 cd bd 9a 11 51 bb 18 96 41 be 7c 23 71 3c
       -0.1005125 -0.003190136 -0.18904912 0.014717933
000150 85 ff 88 be 08 af 6d be 86 01 ce 3c 24 a7 55 be
       -0.26757446 -0.232113 0.02514721 -0.2086454
000160 b2 a2 c0 be 42 b6 cf be 65 72 e5 be 2b be c8 3e
       -0.37624127 -0.4056874 -0.4481384 0.39207587
000170 ad fa d3 3d 90 ee aa bd f3 0b b1 be a1 d9 07 3e
       0.10350547 -0.083462834 -0.3457943 0.13266613
000180 d9 62 b0 3e 5a a4 d6 bd 6c 47 78 bd 3e d1 99 bd
       0.34450415 -0.10480566 -0.06061499 -0.07510613
000190 f8 74 a9 be 07 47 7f be 47 d3 0b be b8 38 69 3e
       -0.33097053 -0.24929439 -0.13654815 0.22775543
0001a0 07 33 7e 3e a3 f0 f8 be 88 1a e1 be 5c 5a e6 be
       0.24824153 -0.4862109 -0.43965554 -0.44990814
0001b0 bb a3 4a be 08 e5 75 3b a1 ab 71 3d ff e4 56 bf
       -0.1978902 0.0037520546 0.05900157 -0.8394317
0001c0 c5 d7 85 3d dc fe 0f 3d af 59 b2 bb 8a 16 0e be
       0.065352954 0.035155162 -0.00544282 -0.13875785
0001d0 bb b8 e3 3c 96 93 05 be d3 bc 04 bf fc 1d 01 be
       0.027798047 -0.13044581 -0.5185062 -0.12609094
0001e0 df ef 24 be dd 3b 9b be 25 ed 18 bf a6 c8 2b bf
       -0.16107129 -0.3031911 -0.59736854 -0.6710304
0001f0 18 77 0c 3d ce 3a b2 be db de 94 bd da cd 74 3e
       0.034293264 -0.3481049 -0.07269069 0.23906651
000200 ad d5 f8 be 77 7c 1f be 8f e0 f2 bd 55 6d eb bd
       -0.48600522 -0.15574823 -0.118592374 -0.11495463
000210 cf f5 4d 3d 6e 3e eb bd 56 83 9d ba 4d d4 5e bf
       0.05028325 -0.11486517 -0.001201729 -0.87042695
000220 a4 06 3b bf 79 7f ad bf 29 9b d0 3d a4 59 32 be
       -0.7305701 -1.3554527 0.101858445 -0.17417008
000230 2d 31 18 bd 3b 95 53 bc a5 1d db be 71 7a 47 bd
       -0.037156273 -0.012913997 -0.42796054 -0.048700754
000240 b5 dd de be 41 08 2d 3e fd 07 11 bf 45 ed c6 be
       -0.43528524 0.1689768 -0.56652814 -0.38852897
000250 d4 b5 81 3e 77 21 02 bf d2 b2 49 bf f2 a4 0d bf
       0.25334036 -0.50832313 -0.78788483 -0.5532981
000260 9c a6 a5 bf 01 77 80 be 35 2f 85 bf cc 1b ab be
       -1.294147 -0.25090793 -1.0405031 -0.33419645
000270 06 86 82 bd 68 dc 6a bf c0 66 f1 be 57 2e c0 bf
       -0.06373219 -0.91742563 -0.47148705 -1.5014142
000280 91 61 21 bf 37 dc 04 be 0e 52 7f bf f9 ca 49 bf
       -0.630395 -0.1297463 -0.9973458 -0.78825337
000290 5e d6 80 be 70 e4 b3 be 0b f9 34 bd b7 bd 12 bb
       -0.2516355 -0.3513522 -0.04418282 -0.002239091
0002a0 b9 58 0b bd 25 05 ef bc 18 3a 6b bd 1f cb 9b bd
       -0.03402016 -0.029177258 -0.05742845 -0.07607102
0002b0 64 d2 a2 bd ea e9 b7 bd eb a5 46 bd 60 21 1b bc
       -0.07950285 -0.089801624 -0.048498075 -0.009468406
0002c0 e6 0b d9 bd b3 f3 a6 bc d6 63 f6 3b 9e d0 3b bd
       -0.105979726 -0.020379877 0.0075192256 -0.04585325
0002d0 bc a4 bc bd 6d b2 22 bc 88 65 3c be be 04 15 be
       -0.09211108 -0.009930235 -0.18398106 -0.1455259
0002e0 23 ff 8d bc db a5 fc 3c d7 49 7b bd 3a 58 9c bd
       -0.017333573 0.030840805 -0.061349716 -0.076340154
0002f0 0f 71 90 bd a2 cd a5 3d 83 2a 4a be b8 13 4b bc
       -0.07052814 0.08095862 -0.1974278 -0.012394838
000300 f6 28 c0 be 45 47 a5 be a0 96 51 3e 4a ad ff 3d
       -0.3753125 -0.32280937 0.20467615 0.12484224
000310 40 12 c5 be 17 03 d8 bb 46 49 9b bd 54 b8 1e be
       -0.38490486 -0.006592165 -0.07582335 -0.15500003
000320 61 6c 66 bc 81 c9 eb bb 2d c0 04 be ca b5 38 bd
       -0.0140639255 -0.007195652 -0.12963934 -0.045095243
000330 d1 e3 6d 3e 88 ed 5d 3e e0 66 ea be 95 3b db 3d
       0.23231436 0.21672642 -0.45781612 0.10704724
000340 56 0a 6a bd d5 e5 60 3d 28 a3 11 be 6c 3e 27 3d
       -0.057138763 0.054906685 -0.14222395 0.040831015
000350 dc d9 e9 bd 37 f7 9b 3e fd e8 87 3e 2c 4a cf 3d
       -0.114185065 0.30462047 0.26544943 0.10121569
000360 54 fc 19 3e ed 7e 12 3e e4 3b 26 3e e5 01 31 3d
       0.15037662 0.14306231 0.16233784 0.043214697
000370 93 42 8b bd e9 16 2f 3e 14 de b6 bd de ff e7 3c
       -0.067998074 0.17098583 -0.08929077 0.02832025
000380 82 7a 61 3e a5 29 01 3d 98 35 a3 3d b4 fa 1b bf
       0.2201939 0.031533856 0.079692066 -0.6092942
000390 3f c7 3b bc 44 0f 5a be 75 6f bc 3e e3 86 59 be
       -0.011461078 -0.21294886 0.36803785 -0.21242861
0003a0 df de 28 3e 9d 1e 66 3e ba 3e dc be e4 94 9d be
       0.16491269 0.22472616 -0.43016607 -0.30777657
0003b0 28 f4 4b 3c aa ff 66 3e 13 00 3b bf c8 6c 0d bf
       0.012448348 0.22558466 -0.7304699 -0.5524411
0003c0 43 5c 54 be 5c 60 e9 bd b1 4f 13 bf 45 ab 94 be
       -0.2073832 -0.11395332 -0.57543474 -0.29036918
0003d0 12 54 e8 be 18 7e c3 be af 49 c7 be 1f ff fb 3d
       -0.4537664 -0.3818214 -0.38923404 0.1230452
0003e0 00 cb 54 be 4d ea 41 be 8a 16 c1 be af 5f 92 be
       -0.20780563 -0.18937035 -0.37712508 -0.28588626
0003f0 a1 f5 84 3d d8 c3 a4 3d 96 0c 99 3e cd 98 f5 bc
       0.064921625 0.08045167 0.29892415 -0.029980088

fc1.bias f4 [11]
000000 48 4d 0c be fa f7 dd 3e e4 2f 83 3e f5 4f 56 3e
       -0.13701355 0.43353254 0.25622475 0.20928939
000010 0d 4e 2c bd d6 a0 3b be a6 42 95 be 14 49 af be
       -0.042066623 -0.18323073 -0.2915241 -0.34235442
000020 c9 40 9c be 2f 92 9d be 7b ee 76 bf
       -0.30518177 -0.30775592 -0.9645764

fc2.weight f4 [11, 672]
000000 6e 1c fe 3c 46 4d 38 3c 07 d9 a7 bb e2 4c 12 3e
       0.031019416 0.011248892 -0.005122307 0.14287141
000010 6a 25 4c 3e 17 75 0c bc 54 2a 75 bc b8 5e a8 3c
       0.19936147 -0.008572838 -0.014963705 0.020552978
000020 74 07 ac ba be 97 15 bd 31 27 a3 38 9a 20 ba be
       -0.001312478 -0.036521666 7.779746e-05 -0.36352998
000030 bb 37 67 be 39 42 ee 3c ae 37 51 bc de 1e 28 3d
       -0.22579853 0.029084312 -0.012769623 0.041045062
000040 85 ee 97 be 46 66 24 ba f6 2b 6e 3d 66 cf 61 be
       -0.29674163 -0.00062713434 0.058147393 -0.22051772
000050 84 4f 0c be 2f 8a 3a bd a7 64 6e bd 7e 84 04 be
       -0.13702208 -0.04554194 -0.05820146 -0.12941167
000060 39 c5 27 be 95 b9 87 be 62 47 80 bd 12 8a ad bd
       -0.16383828 -0.26508775 -0.06263615 -0.084736004
000070 b7 6e 99 bd b5 95 9a bd 14 7d 0b be 3e 2d ff 3e
       -0.0749182 -0.075480856 -0.13621932 0.49839205
000080 7e 94 39 3f 13 18 b8 3c fc 37 d0 bd e9 88 34 bd
       0.72492206 0.022472417 -0.10166928 -0.04407588
000090 30 82 b2 bd 62 9a f8 bd 6d 53 c4 3b 32 0b 40 be
       -0.087162375 -0.12138821 0.0059913904 -0.1875427
0000a0 ef 39 12 be 00 29 59 bb f9 f6 1e be 6e ca c6 3c
       -0.14279912 -0.003313601 -0.155239 0.024266448
0000b0 c0 b2 0f be da 36 a4 3d a4 7c 3b 3e 51 d8 c8 bc
       -0.14033031 0.080182746 0.18309265 -0.02451721
0000c0 38 30 96 bd 8c 56 ea 3c 35 05 03 bd a9 46 3f bc
       -0.07333416 0.028605722 -0.031987388 -0.011674562
0000d0 4c 8e 7c be e9 37 b3 be 73 92 be be 76 97 d3 bd
       -0.24663657 -0.35003594 -0.37221107 -0.10331623
0000e0 4a 55 ba bd 5a 3b b1 39 57 1a af bd 9f 8e ce 3d
       -0.09098299 0.0003380429 -0.08549946 0.100857966
0000f0 d0 fc 17 3e b3 37 98 bd c7 db d7 bc 65 1e 8e bd
       0.14842534 -0.07432499 -0.026349915 -0.06939391
000100 e5 da b6 bd a4 87 ac 3b 59 9d 46 3e 29 59 ca be
       -0.089284696 0.005265193 0.19395961 -0.3952115
000110 b6 1e 1c be 99 00 9d 3d 43 2f 7b bb 55 00 1e bc
       -0.1524609 0.076661296 -0.003832773 -0.009643634
000120 29 4f e8 bd 8e 38 00 be 74 10 97 be 32 4b 2f bd
       -0.113432236 -0.12521574 -0.2950474 -0.04279632
000130 1b 35 ce bd 92 e5 66 3b 2f 81 42 be 54 d1 e2 bc
       -0.10068723 0.003523205 -0.18994592 -0.027687706
000140 4b 6f 92 bd d3 4b 27 3c 89 47 69 bd 45 31 10 be
       -0.07150134 0.010210949 -0.056952987 -0.14081295
000150 e8 cc ed 3d 90 26 8d bd 98 10 48 3c df c9 9c 3d
       0.116113484 -0.06892121 0.0122109875 0.07655691
000160 f6 3a bd be a8 a0 38 3d 54 98 c2 bd 32 45 7d bd
       -0.36959046 0.04507509 -0.095017105 -0.061833568
000170 ef ab e7 3d ef 19 87 bd 1b d0 73 be 29 56 f5 bd
       0.113120906 -0.06596743 -0.23809855 -0.11979324
000180 27 30 b9 bc 1c db f3 3d 85 65 a4 bd 15 7f a0 bc
       -0.022605969 0.11907026 -0.08027176 -0.019591847
000190 97 e2 a4 bd a1 0c db be c1 63 02 be 89 cf 9b 3c
       -0.08051031 -0.42783073 -0.12733366 0.019019859
0001a0 3c 1a 8c bd c9 3e 35 be 60 89 08 be 07 b3 a8 bb
       -0.06840941 -0.17699732 -0.13333654 -0.005148295
0001b0 2f 5b 02 bd b6 a1 ae 3e b6 f4 80 3d ac 20 19 be
       -0.03182524 0.3410775 0.06296675 -0.1495387
0001c0 6d 0f 20 be 0c 7a bc bd b4 b4 4e 3c a2 88 5f be
       -0.15630884 -0.09202966 0.012616325 -0.21829465
0001d0 8c c9 d7 bd 36 c3 a6 bd 2b e3 15 be 17 fb c8 bd
       -0.10536489 -0.08142702 -0.14637439 -0.098135166
0001e0 41 43 48 bb 4c 72 e9 3c e2 84 b2 bd 87 a0 1c be
       -0.0030557665 0.028496884 -0.08716752 -0.15295611
0001f0 ee 4e 64 be 5d 8d 34 3e 40 3a 77 bd 21 cc 6f bd
       -0.22295734 0.17632051 -0.060358286 -0.058544282
000200 02 fb 63 3d cc 59 ce bd 6b 55 05 3d 28 4b a3 bd
       0.0556593 -0.10075721 0.032552164 -0.07973319
000210 02 38 2c bd 05 88 57 be 11 b9 92 bc 8c 0d b1 3d
       -0.0420456 -0.21047981 -0.017910512 0.08645162
000220 5e 83 83 be b0 d3 07 bf f0 94 56 be 02 cc 33 be
       -0.25686163 -0.53057384 -0.20955253 -0.17558292
000230 a3 0c cc 3c 6f ac e0 3c 04 66 62 bc 69 db 24 be
       0.02490837 0.027425973 -0.013818268 -0.16099323
000240 2f 30 07 be 87 9d f9 3d 12 c1 48 bd c2 8a 12 3a
       -0.13201974 0.12188249 -0.04901225 0.00055901345
000250 d7 52 d9 3c 33 fe 3b bd fc 2b 36 bd 36 f0 65 3d
       0.026528759 -0.04589672 -0.04447554 0.056137286
000260 55 6c 47 3d 72 7b 1b be 27 da 39 be 81 b7 b0 be
       0.048687298 -0.1518381 -0.18149625 -0.34515002
000270 a6 db da bc 2b f4 44 bf af 12 45 bd 27 96 fd bd
       -0.026716065 -0.7693507 -0.04811352 -0.12382155
000280 a6 95 53 be 75 9b 34 be 56 34 16 be 83 df 66 bd
       -0.20662555 -0.17637427 -0.14668402 -0.0563655
000290 6a b7 46 3e 91 34 c3 3d 63 c1 12 3e 42 be 58 be
       0.19405904 0.095315106 0.14331584 -0.21166328
0002a0 8d 14 2b bd a0 b7 ba bd 83 49 cd b9 7b 4a 84 3b
       -0.041767646 -0.09117055 -0.00039155417 0.004037199
0002b0 f2 a9 8e 3b 3c 93 a5 bd 6e 53 df bc 7f 7b 0d 3c
       0.004353755 -0.08084723 -0.027261462 0.008635401
0002c0 5c 03 ff bd c8 12 21 3c 10 39 4e bb dd 07 53 bd
       -0.124518126 0.009831138 -0.0031467117 -0.05152117
0002d0 75 2c 40 bd a7 f7 d5 bd 70 49 b3 bd d7 70 da bd
       -0.046917398 -0.104476266 -0.087542415 -0.10666054
0002e0 2b 2b b6 bc b1 91 80 bc 35 32 8c bc 73 af 28 3d
       -0.022237381 -0.015694471 -0.017113784 0.041182946
0002f0 76 19 e7 bd f0 11 1c b9 73 88 11 bd a8 4d 6d bd
       -0.11284153 -0.00014884002 -0.03553052 -0.057935387
000300 13 04 50 3d fb 3b c0 3e 6f 7e c0 bd eb 99 3c bc
       0.050785135 0.3754576 -0.09399115 -0.011511306
000310 eb b1 58 bd a4 8b 6b bd 96 89 47 3d 6f 51 4e bd
       -0.05290405 -0.05750622 0.048715197 -0.05037063
000320 dc 74 89 bc 86 f9 d1 bd 7d 29 9a be 91 52 4a be
       -0.016779356 -0.10252671 -0.30109778 -0.19758059
000330 1d 29 e8 bd 80 3d 86 bd f2 35 25 bd eb 2d a2 3d
       -0.11335967 -0.06554699 -0.04033465 0.079189144
000340 c8 bf 43 3e 96 07 c3 bb 44 1c d7 bc 03 e0 ac bd
       0.19116127 -0.005951832 -0.026258595 -0.08441164
000350 53 ab 0f bd 0e 37 43 3e fd 44 ef 3d 99 96 8b bd
       -0.035075497 0.1906397 0.1168308 -0.068158336
000360 06 4d 93 ba 9f b8 6a 3d 29 a3 cb bc 17 a4 ba be
       -0.0011238165 0.057304975 -0.024858074 -0.36453316
000370 d0 0c 29 be 40 47 13 be 79 75 2c be 11 9e 37 3b
       -0.16508794 -0.14382648 -0.16841687 0.00280178
000380 f7 e8 4f bd b1 e1 28 3d b4 1d 0d be 6d 10 b8 bc
       -0.050759282 0.04123086 -0.13780862 -0.02246877
000390 d1 f9 6a 3d b5 5c 4f 3e 51 8f b5 bd 3b 92 29 bc
       0.05736715 0.20250209 -0.08865226 -0.0103498055
0003a0 93 3a d6 bc 2d b3 cf 3d 38 ba b7 3d e0 41 5a be
       -0.026150977 0.10141597 0.08971065 -0.21314192
0003b0 e5 4d 4b bd cd a1 e5 3d 00 46 d6 3d 3e f6 41 3d
       -0.049634833 0.11212502 0.1046257 0.047353975
0003c0 b0 ed 40 be bc f2 1c 3e 2a a4 ff bd a1 58 5e 3b
       -0.1884067 0.15326971 -0.12482484 0.0033927339
0003d0 bc ae 95 bc e7 6c d9 3d 43 3e 43 3c 1c 4c 26 bd
       -0.018271796 0.106164746 0.0119167 -0.040599927
0003e0 6b d7 ed bd 17 4e 92 be a2 ea 5e bd 60 cc ba b8
       -0.11613353 -0.28575203 -0.054422982 -8.907239e-05
0003f0 b8 b2 d6 bd 1c 84 0e bd e8 80 4c 3c da 60 f2 bb
       -0.10483307 -0.034793958 0.0124819055 -0.0073967995

fc2.bias f4 [11]
000000 b0 38 96 3c e1 bd 8c bc 7a 14 7c 3d 9e 0f 02 3e
       0.018337578 -0.017180385 0.061542965 0.1270127
000010 b9 9f eb bc db 6e 01 3d a6 d9 ce bd c9 e4 85 bc
       -0.028762685 0.03159986 -0.10100107 -0.016344445
000020 3f be 9f bd 2b 1b fe ba 88 81 24 be
       -0.077999584 -0.0019386759 -0.16065037

fc3.weight f4 [11, 672]
000000 54 d0 62 be 0c da b8 3d b0 f1 89 bd 0d 06 85 bd
       -0.22149783 0.09025964 -0.06735551 -0.06495295
000010 8b ac 87 bd 73 32 ca 3d 89 de 0d be ff 8b 26 be
       -0.06624707 0.09872904 -0.13854422 -0.16264342
000020 d9 6f 5c 3d bc dd 12 be 78 5e 39 bd 94 1c 42 3d
       0.053817604 -0.14342397 -0.045256108 0.047390535
000030 10 4d 7b be 76 15 0f be d9 d1 97 bd 29 d6 51 bd
       -0.24541116 -0.1397303 -0.07413072 -0.05122963
000040 b4 90 7f 3c 1f ee 4e be c1 67 2c 3e 96 ad 1f bd
       0.015598465 -0.20208023 0.16836454 -0.038983904
000050 87 98 7e bd f4 5e 04 be 38 ac 3f bd ab 70 9b be
       -0.06215718 -0.12926847 -0.0467951 -0.30359396
000060 6c ab 91 3d 15 c6 41 be 70 72 10 be 6a 7f 0f be
       0.07112774 -0.18923219 -0.14106154 -0.14013448
000070 a7 01 40 be 56 26 4c be d7 d9 97 3d 6b 79 09 be
       -0.1875063 -0.19936499 0.074145965 -0.13425224
000080 bd de 3c 3f 67 35 00 3f 8d 3a bc bd fe ba c6 3c
       0.7377737 0.50081486 -0.09190855 0.024259087
000090 94 4c 96 bc b4 6f 31 be bd 11 18 be 70 84 66 3d
       -0.018347062 -0.17327768 -0.14850517 0.056278646
0000a0 de 33 8b bd 83 90 32 be 98 cd 32 3d ff fa a3 3c
       -0.06797002 -0.1743794 0.0436531 0.020017145
0000b0 a5 5a 75 bc b1 96 eb bc 1b 03 cf bc a0 fe a0 3b
       -0.014975225 -0.028758379 -0.025270035 0.004913166
0000c0 29 76 37 3d 0d 4f 07 be 4b ff e2 bd e0 30 a6 bd
       0.04479042 -0.13213749 -0.110838495 -0.08114791
0000d0 3c 07 3e be c9 89 d6 be ed fe a5 be 51 e3 98 bd
       -0.18557447 -0.41901997 -0.32421055 -0.07465232
0000e0 f9 9f 45 be ca 92 cb bd 5b c7 a6 be fc 4c 99 be
       -0.19299306 -0.09940107 -0.3257397 -0.29941547
0000f0 48 88 74 b7 4a a0 0e be 1f 5b 00 be db e6 8f be
       -1.4575264e-05 -0.13928333 -0.1253476 -0.28105816
000100 7c 72 62 bc 81 ca fa 3c 1e 21 c5 bd 61 0e 28 3e
       -0.0138212405 0.03061414 -0.09625457 0.16411735
000110 2e b2 bd be 03 cc dd bd 98 8a a5 bd ac 52 f9 3b
       -0.37050003 -0.10829928 -0.08083075 0.007608732
000120 ea 10 2a bd 79 ee 0f be d7 37 ae bd 89 a7 4b be
       -0.041520037 -0.14055814 -0.08506744 -0.19888128
000130 0d 4f b6 bd d3 fa 27 3c 36 8d 21 be 73 63 fa 3d
       -0.089017965 0.010252672 -0.15776524 0.12226
000140 cd 1d b0 bd 44 13 a5 bd 67 d8 b4 3d cd 8f 99 bd
       -0.08599434 -0.08060315 0.08830338 -0.07498131
000150 ef 30 5c 3d a5 c0 19 be 02 ba a1 bd 04 62 7a 3c
       0.053757604 -0.15014894 -0.07896806 0.015282158
000160 40 e6 67 3e d1 86 74 be 93 58 6a bd 2a a3 b6 3b
       0.22646427 -0.23879553 -0.057213377 0.00557365
000170 fa 7b 99 be a1 c4 94 bd 9d 83 13 bd 80 2f 02 bf
       -0.299774 -0.072640665 -0.036014188 -0.5085373
000180 f8 1b 74 be 45 78 ba 3c 3f a0 07 bd c1 0b 03 be
       -0.23838794 0.022762427 -0.033111807 -0.12797453
000190 21 4e 4a be df ce ac bd 9d ff ce be 6a 64 20 bd
       -0.19756366 -0.08437895 -0.40429392 -0.039158262
0001a0 ae 12 f2 bb 01 46 cc be 19 a2 9f be be 7f 41 be
       -0.0073874807 -0.3989716 -0.31178358 -0.18896386
0001b0 42 10 02 be b8 7a 71 bd 07 72 23 3e 34 59 41 be
       -0.12701514 -0.058954924 0.15961467 -0.18881685
0001c0 6a c8 2e 3d 00 91 70 be b7 ed 22 3c e3 1f 82 be
       0.0426716 -0.23492813 0.009944371 -0.25414953
0001d0 f2 bd 4f be 74 3a 2a 3d 4a 8b 8e be 6c d7 74 bd
       -0.20287302 0.04155965 -0.27840644 -0.059775755
0001e0 f9 89 06 be 96 21 08 bd 19 ea 9a be c0 5f 31 3e
       -0.1313857 -0.033235155 -0.30256727 0.17321682
0001f0 42 c5 da be af df 00 be 01 13 b6 bd 77 05 8b 3d
       -0.4272862 -0.12585329 -0.088903435 0.06788152
000200 8d 54 ae bc 9b 55 23 be 9f 79 1c be 11 84 14 be
       -0.021280551 -0.15950625 -0.1528077 -0.14503504
000210 ff 89 b7 bd 3a d6 06 bd cc b8 a4 bd f4 e7 fc bd
       -0.089618675 -0.032919146 -0.0804306 -0.12348929
000220 de e9 06 bf ff 84 5a bf 0a a5 fb be 74 16 d0 3d
       -0.52700603 -0.85359186 -0.49149352 0.101605326
000230 83 1c 00 be 4f 98 66 3d 91 11 7b be a1 fd 9b be
       -0.12510876 0.056297597 -0.2451842 -0.3046694
000240 5a 07 6b be b8 f7 e5 bd 18 33 4b bd e1 0c 3f be
       -0.22952023 -0.11228889 -0.049609274 -0.18657257
000250 fa f1 7b bd 51 95 35 be 8a 8d 93 be 78 da 27 bd
       -0.061510064 -0.17732741 -0.28818923 -0.040979832
000260 1d 36 57 be 9f c6 6b be 5d 4d 17 be a6 1d 02 3d
       -0.21016736 -0.23024987 -0.14775605 0.031766556
000270 72 50 57 be 77 e5 38 3d 34 46 1d be 1d 2c ac 3c
       -0.21026781 0.04514071 -0.15358812 0.021017129
000280 e0 27 ca be 81 3f 66 be dc 0f 92 bd d9 40 8e bd
       -0.39483547 -0.22485162 -0.07131931 -0.069459625
000290 eb 5e 94 bd cd f6 38 3e 66 53 f2 3d f5 41 fc bd
       -0.07244667 0.18062897 0.11832313 -0.12317268
0002a0 2a 88 fa bc 87 49 04 3d 10 93 37 3d a5 3c 27 3d
       -0.030582506 0.032296684 0.044817984 0.04082932
0002b0 8b ef 84 3d 6b de e4 3d 98 6c ad 3d bb f5 03 bd
       0.06491002 0.11175235 0.08467978 -0.03221677
0002c0 d0 45 6e bd 81 dd f5 bd c8 c5 c2 bb fc e5 10 bc
       -0.058172047 -0.12005139 -0.0059439875 -0.008843895
0002d0 f0 3d eb bc fe e9 4a 3d c9 4b 7d 3b a4 d5 ba bd
       -0.028716058 0.04953956 0.0038649908 -0.0912278
0002e0 45 ca 18 bc bd 2e 6c ba 76 1a 0a bd 07 6a 70 bd
       -0.009325569 -0.000900965 -0.03371664 -0.058694866
0002f0 78 3f b7 bc 8e 52 28 be e3 bc 13 3e 0d f9 ec bd
       -0.022369131 -0.16437742 0.14427523 -0.1157094
000300 69 74 9e bd 08 95 c6 3d 76 82 14 be a1 30 75 3d
       -0.07737047 0.09696394 -0.14502892 0.05986083
000310 a7 97 82 be 3a 24 c4 3a 6a ac 16 3d 01 31 29 bd
       -0.25506327 0.001496441 0.03678552 -0.0413065
000320 4f f4 14 be 0d 26 6f bd 43 cd a5 bc 68 b7 e8 bc
       -0.14546321 -0.058385897 -0.020239478 -0.028407767
000330 cd 70 d2 3c 48 6e 9c 3b b0 91 10 bd aa 6d 91 be
       0.025688553 0.0047738887 -0.03529519 -0.2840398
000340 a9 ab b3 3d 93 da 20 3d b0 b3 14 3d 86 36 0a 3d
       0.08772976 0.03927095 0.036304176 0.033743404
000350 d7 a8 da bd f0 71 92 3e 0c a4 48 3e 14 b6 0d be
       -0.10676735 0.28602552 0.19593829 -0.13838989
000360 65 77 45 be 12 64 99 3b f2 21 80 bd 1f d7 95 be
       -0.19283827 0.0046811188 -0.062564746 -0.29265687
000370 16 c7 d2 bd 66 f5 9f bd 18 75 6e bd b7 be 54 bc
       -0.10291879 -0.07810478 -0.058217138 -0.012984923
000380 e2 30 10 bd d6 2f 9d bd 3d 4d 81 be 64 03 7f be
       -0.03520287 -0.076751396 -0.2525424 -0.24903637
000390 68 c7 a6 3d 25 01 59 3e 0e 72 02 3e 22 68 c5 3c
       0.081435025 0.21191843 0.12738821 0.024097506
0003a0 cf 63 34 3d 5a a7 c9 3d 60 c8 88 bd 73 02 23 be
       0.044040497 0.09846373 -0.066788435 -0.15918903
0003b0 ae 1b e8 39 f9 a6 15 bc e7 a5 25 3c 4b 33 ce 3c
       0.0004427111 -0.009134048 0.010110355 0.025170943
0003c0 4a 0a 10 be 17 2d 85 bd 2a 67 6d bd e7 3a e1 3c
       -0.14066425 -0.06502741 -0.057959713 0.027493907
0003d0 2f d3 e3 bc 74 6b 72 bd 30 89 2c bc ed df a7 3d
       -0.027810661 -0.059184507 -0.010530755 0.08197007
0003e0 32 f0 2f bc 75 dd 5f be df 4b 0e be 13 0b 37 bd
       -0.010738419 -0.21861823 -0.1389613 -0.044688296
0003f0 5a 7c 1f be 7f 66 84 3d 07 fb e6 3b 7f b4 31 be
       -0.1557478 0.06464862 0.0070489678 -0.1735401

fc3.bias f4 [11]
000000 72 52 60 bd b1 0e 42 be c0 ef e3 bd c0 5a 22 be
       -0.054766126 -0.18950917 -0.11129713 -0.15854931
000010 14 57 94 bd bb 77 06 be 95 08 8f be 3e 2c 3b be
       -0.07243171 -0.13131611 -0.27936235 -0.18278596
000020 b5 5b 56 be b5 67 62 be d1 fe 29 3f
       -0.20933421 -0.22109874 0.66404444

fc4.weight f4 [11, 672]
000000 8b ed c1 bc 52 55 91 be 24 02 d1 bc 4f 28 ac 3b
       -0.02367284 -0.28385407 -0.025513716 0.0052538286
000010 22 1e f8 bd 58 be 06 3e 41 16 a5 bd 84 42 d8 3d
       -0.121151224 0.13158548 -0.08060885 0.10559562
000020 f8 2a 2d be 1c 41 bb be 9c d7 d7 be ca 63 2e bd
       -0.16910923 -0.36573112 -0.42156684 -0.042575635
000030 2c 7b bf be 14 32 1c be 34 23 b2 3d b9 b6 aa be
       -0.3739866 -0.15253478 0.08698121 -0.3334253
000040 1f 2e b9 be cb 6a 8f be 2b ed 43 be 97 1f cd bc
       -0.36168 -0.28011164 -0.19133441 -0.025039477
000050 e0 dd 22 be a0 f2 96 be 87 ab 07 be 3e d9 70 be
       -0.15904951 -0.29481983 -0.13249026 -0.23520371
000060 dc b3 a6 be 50 05 12 be bd a1 99 be 47 ba b0 bd
       -0.32559097 -0.14259839 -0.3000621 -0.086292796
000070 d1 18 ee be 16 1c 80 bd 5f 86 b2 be 19 55 bd bc
       -0.46503308 -0.06255357 -0.34868142 -0.023111867
000080 14 ec 5d 3e 5e b0 41 3f 96 b6 88 3d 27 64 80 be
       0.21672088 0.7565974 0.066754505 -0.2507641
000090 80 74 1d be 3b 44 91 be a5 ad 94 be 03 03 38 be
       -0.15376472 -0.28372368 -0.2903873 -0.17969899
0000a0 56 70 7c be 94 60 86 be 3f b7 4c 3d 48 90 a4 be
       -0.24652228 -0.26245558 0.049979445 -0.32141328
0000b0 60 79 85 bc ab 0b 6b be 82 ac a8 bd 40 08 4f be
       -0.016293228 -0.2295367 -0.08236028 -0.20217991
0000c0 e5 63 8a be b9 18 87 3e 70 9f ea 3d 24 53 8a be
       -0.27029338 0.2638605 0.114561915 -0.27016556
0000d0 ab 76 25 be de 3b 28 bf d0 9f b6 be 98 78 da be
       -0.1615855 -0.6571635 -0.35668802 -0.4267013
0000e0 47 2b 49 bd 41 d3 0a bf 2f 19 4c bf 43 57 fa be
       -0.049113538 -0.542286 -0.7972593 -0.488947
0000f0 66 6e d4 be bf 6b c0 3d 71 06 91 3e aa 0b 03 be
       -0.41490477 0.09395551 0.28325227 -0.12797418
000100 0a 02 be 3c 41 49 a7 be ef da 7e be de 28 eb bd
       0.023194332 -0.32673076 -0.24888204 -0.11482404
000110 7d 25 3a bf c9 98 48 bf 14 b0 84 be fa c9 ef be
       -0.7271345 -0.7835813 -0.25915587 -0.46833783
000120 43 02 f1 3c 8f 68 c3 be bd d2 cd bd 11 4e 57 be
       0.029420024 -0.3816571 -0.10049961 -0.21025874
000130 00 37 af be 2b a8 98 be 3b 85 e5 bd 19 da d4 bd
       -0.3422165 -0.29815802 -0.11207052 -0.10393161
000140 a7 82 98 bd e7 9c 79 bd a2 1f b3 3d b8 94 ae bd
       -0.07446795 -0.06094065 0.08746268 -0.085244596
000150 b4 fa c5 3c 50 34 f0 3d f4 b8 14 be 5d 97 51 bd
       0.024167396 0.11728728 -0.14523679 -0.051169742
000160 b1 18 1d be f9 32 30 be 11 6c fa bc 1e d3 f1 bd
       -0.1534145 -0.17206945 -0.030569108 -0.118078455
000170 fe e1 82 3d c5 68 5e 3d 6d b4 57 bd e0 ca 5f bd
       0.06390761 0.054299135 -0.0526623 -0.054636836
000180 d6 16 d8 be 27 15 1b 3d 7a 54 9e bd 8b 0e e5 bd
       -0.42204922 0.03786197 -0.077309564 -0.111844145
000190 9d 49 5d bd ae a7 09 be 3d a7 b9 be 59 dd 92 be
       -0.05402528 -0.13442871 -0.36260405 -0.286845
0001a0 15 9b 90 bd da 75 57 be 23 ca 13 be 5b 38 30 3e
       -0.070608296 -0.2104105 -0.14432578 0.17208998
0001b0 fb 38 af be 89 bb 12 bf 1f 15 42 3c 93 09 ae be
       -0.3422316 -0.57317406 0.011845856 -0.3399168
0001c0 13 38 2f 3e a0 da 4c be 2c 94 41 bf 1b 8a 1a 3d
       0.17111234 -0.20005274 -0.7561672 0.037729364
0001d0 62 31 2d bf 73 54 6e bf 98 71 bc be 4c 8f 21 bd
       -0.6765348 -0.9309761 -0.36805415 -0.0394433
0001e0 f2 31 e8 3c 1d f3 0e be 11 e4 86 bf 46 54 e9 be
       0.028344128 -0.13959928 -1.053835 -0.45572108
0001f0 1f 38 47 bf 75 d1 83 3a 57 fd 91 be 57 e3 70 be
       -0.7782001 0.001005693 -0.28513595 -0.23524223
000200 5b 0c a6 be 15 9e c0 be ed 11 44 be 26 65 d6 bd
       -0.324313 -0.37620607 -0.19147463 -0.10468511
000210 ed 57 19 be b2 40 81 be e0 c4 00 be 9a db e8 be
       -0.14974947 -0.2524467 -0.12575102 -0.45480043
000220 1d 99 12 be 32 5d e1 be 60 61 ac bf f1 d8 d2 3d
       -0.1431622 -0.44016415 -1.3467216 0.102952845
000230 02 5f 7d be 5d 6f 76 be 76 e3 14 bf 82 a9 83 be
       -0.24743274 -0.24065919 -0.5815958 -0.25715262
000240 3e 9b 6d be f7 62 3b 3d f4 9f 0d bc ed de 03 bf
       -0.23203751 0.045748677 -0.008644093 -0.5151203
000250 54 93 4b be 6c 22 32 bf 25 b1 5c be 12 eb 77 be
       -0.1988042 -0.69583774 -0.2155195 -0.24210766
000260 f7 13 5c be f8 97 ff be 10 ad ad be 08 ff 13 be
       -0.21491991 -0.4992063 -0.339211 -0.14452755
000270 d5 45 ef be 36 85 be be 5f 8e 64 be 2e 54 1b bf
       -0.46732965 -0.37211007 -0.22319935 -0.60675323
000280 35 23 ea be 05 07 1f bf 5c 7b a0 bd d3 b7 3e be
       -0.45729986 -0.62120086 -0.07836029 -0.18624811
000290 54 a0 2c bf ba 30 09 bc bf d7 83 3e bc 78 ef 3d
       -0.6743214 -0.008373434 0.2575054 0.1169295
0002a0 da 76 ae bd 08 93 09 be 76 4b 3b bc f2 ce 63 bd
       -0.08518763 -0.13434994 -0.0114315655 -0.05561728
0002b0 38 f2 0a bd a3 45 16 3d 8b 3d b1 3d bf 92 ce bc
       -0.033922404 0.036687505 0.086543165 -0.025216458
0002c0 ff aa 0c be cd c0 01 3d 6b a1 14 3b 79 33 8c bd
       -0.13737105 0.03167801 0.002267922 -0.06845755
0002d0 3e 2a ed bc 7d 83 99 bd 5a eb df bd d8 ea 0a be
       -0.028950807 -0.074957825 -0.109335616 -0.13566148
0002e0 f3 2d 2c 3d a0 e0 39 3d bb 80 39 bd c9 67 25 bd
       0.042036008 0.045380235 -0.045288783 -0.04038218
0002f0 e1 11 e5 bd c2 56 6d be d4 24 96 3d d3 d0 c2 bd
       -0.11185051 -0.23177627 0.07331243 -0.09512486
000300 84 ea 58 be ea 2f 2f be 86 00 a3 3d ee 51 04 bf
       -0.2118321 -0.17108122 0.07959084 -0.51687515
000310 34 41 67 be 0a c4 c2 be 98 0f cd ba ee e6 53 be
       -0.22583467 -0.3804019 -0.0015644906 -0.20693561
000320 3a 0f a7 be ed 1f d7 be ea 7c 28 bf 0b 60 df be
       -0.32628804 -0.42016545 -0.65815604 -0.43627962
000330 0b e4 b3 3c 07 fc a9 bd f3 a8 22 bc e7 10 10 be
       0.021959325 -0.083000235 -0.009927976 -0.14068948
000340 cd 68 9f bd 98 78 e3 bd 90 84 b8 bd 92 5e 8c 3d
       -0.07783661 -0.11106986 -0.09009659 0.06853975
000350 58 03 73 be e1 e4 5b 3e 7d fe 3f bd 2a bd c0 3d
       -0.23731744 0.21474029 -0.04687356 0.0941108
000360 ee 3e 9d 3b 6b aa cb bd 54 1b 1a be cb 7a 56 be
       0.0047987616 -0.09944614 -0.15049487 -0.2094528
000370 60 5c 52 bf 20 b0 83 be e6 ca 8b bd 1d d8 28 bd
       -0.82172203 -0.2572031 -0.06825809 -0.041221727
000380 ee e8 8e bd a1 44 58 be 27 35 91 be 66 f9 af be
       -0.069780216 -0.2111993 -0.28360865 -0.34369963
000390 a7 c7 b9 be db b1 a0 bd 10 ba 74 3e 08 c7 95 3b
       -0.36285135 -0.07846423 0.23899102 0.0045708455
0003a0 32 11 71 be c5 dd b1 bd 9e c2 6f be f7 44 0b be
       -0.23541716 -0.08684877 -0.23414084 -0.13600527
0003b0 ba d1 e0 be 37 ef 97 be 44 b8 11 bb 5b fe af be
       -0.4391001 -0.29674694 -0.0022235075 -0.34373745
0003c0 e9 67 84 3d 72 f5 88 be a1 43 c3 bd 2f a0 f5 bd
       0.06465132 -0.2674976 -0.095343836 -0.11993443
0003d0 a7 45 e4 be 76 2c 36 bd f7 8a 98 bd 27 3f 07 be
       -0.4458439 -0.044475995 -0.074483804 -0.13207684
0003e0 c8 c4 8c be 07 3d fd bd 56 e2 ed be 17 2d e6 bc
       -0.27493882 -0.12365156 -0.46461743 -0.028097672
0003f0 d5 30 e7 be 6d ba 8b bc 6c 69 50 3c 39 98 92 bd
       -0.45154443 -0.017056668 0.012720447 -0.071579404

fc4.bias f4 [11]
000000 fa 41 ce be 50 8a cf be 9a 6f da be dd 99 a0 be
       -0.4028471 -0.40535212 -0.4266327 -0.31367388
000010 d0 24 91 be f3 cf f4 be 3d a9 d6 be 08 51 99 be
       -0.28348398 -0.47814903 -0.41925994 -0.29944634
000020 c0 38 75 be 0f 37 02 bf 77 c1 9a 3f
       -0.2394743 -0.5086526 1.2090291
