code/model.pt (torch, 142939 bytes, 12 tensors)

cnn.0.weight f4 [16, 3, 3, 3]
-0.29464972 -0.12806477 -0.4357197 -0.1426351 -0.049220063 0.056445926 0.22243471 0.3808988
0.3399641 -0.16465129 -0.23046441 -0.30788204 -0.11267779 -0.07024366 -0.09197083 0.2794331
0.31483483 0.42660558 -0.26921752 -0.19233836 -0.14089121 0.18089837 -0.04150416 0.056297865
0.095846444 0.08012971 0.27522543 -0.13030642 -0.14428805 -0.09200501 -0.064210854 0.19600308
-0.11613135 -0.12797478 -0.033858337 -0.14369822 -0.0366807 0.19225402 0.096765 0.122412704
0.089420795 -0.05027358 -0.005876907 -0.041874524 -0.09169314 -0.034347538 0.08690159 0.093463995
-0.0790474 0.016519338 0.1702763 0.13590692 0.16812594 0.10645317 0.36661372 -0.14814517
-0.18797632 0.058985658 -0.08455302 -0.15730219 0.25795567 0.04804032 -0.30662188 0.26388565
0.015367449 -0.3293261 0.20279455 0.056748737 -0.0018268181 0.37626597 -0.1772543 -0.29344642
0.15024203 0.065663576 -0.031707034 0.23539829 0.05967487 -0.16221093 0.102429695 -0.120622374
-0.26860344 0.47546744 0.3002566 -0.20092604 0.108907185 0.009231538 -0.050604884 -0.20586072
-0.112931125 -0.39456788 0.39827195 0.27394205 0.13658027 0.16396242 -0.12693806 -0.13569532
-0.015769085 -0.13022786 -0.4338698 0.089715965 0.29708284 0.15711576 -0.029158186 0.030086193
-0.10323647 -0.07084579 -0.21718626 -0.2733754 -0.07987301 0.12465904 0.15545988 0.027346736
-0.20948407 0.35151052 0.16909264 -0.37763715 -0.14219612 -0.0067702658 0.1893273 0.3061618
0.067408904 -0.0033952417 0.12525627 0.24716422 -0.28812933 -0.12490989 -0.114981584 0.15388821
0.40151897 -0.4005476 -0.104682244 0.33684248 -0.39792442 -0.38237846 0.038537804 -0.23827438
-0.34542772 -0.32561618 -0.034297407 0.03745082 0.11394125 0.20825084 0.4728112 0.20929277
-0.2519008 -0.27102068 0.057238873 0.03915953 -0.009452412 0.0077373018 -0.0072717224 0.24897632
0.33258402 -0.18977097 -0.3195064 -0.51990134 0.114490636 -0.18123718 -0.043136735 0.18700826
0.35186446 0.28513515 -0.10223217 0.009519244 0.18163095 0.012910258 -0.07258162 0.1407983
-0.30797625 -0.10286744 0.24670944 -0.08774184 0.31688282 0.32253566 -0.25654775 0.09643618
0.10058344 -0.31009263 0.03424069 -0.004113768 0.03043895 0.017807076 0.20632151 0.04606034
0.043003708 0.0512414 -0.18027312 -0.14872517 -0.14251624 0.40518954 0.31289643 0.3941454
-0.111191414 0.024056297 -0.13271993 -0.37182996 -0.31577334 -0.27637884 0.25090477 0.25144956
0.44484353 0.15931998 -0.0833733 -0.02380193 -0.44546628 -0.11916625 -0.41404432 0.32324138
0.09504801 0.16773659 0.017562343 -0.0398849 0.009557432 -0.23499991 -0.1501252 -0.2645696
-0.43082726 -0.23874635 0.14078553 -0.26749343 0.016070928 0.30282545 -0.030442422 0.19453901
0.26703075 -0.24922973 -0.309125 -0.08160066 -0.21542557 -0.020636445 0.10782384 0.008929598
0.17935862 0.55756444 -0.059143357 -0.24930978 0.0046335184 -0.13996123 -0.07180864 0.063166566
0.039312538 0.26329526 0.18484615 -0.04387263 0.12959252 -0.23137163 0.16361633 -0.032759067
0.03161312 -0.07279004 -0.042215377 -0.008869705 0.0057273884 -0.09755152 -0.21836118 -0.15677981
00000000: 54dc 96be 6923 03be a716 dfbe f00e 12be
00000010: fa9a 49bd d833 673d edc5 633e 2b05 c33e
00000020: c60f ae3e 599a 28be ddfe 6bbe b7a2 9dbe
00000030: 9dc3 e6bd e8db 8fbd 345b bcbd db11 8f3e
00000040: 0832 a13e 0c6c da3e e1d6 89be 59f4 44be
00000050: c945 10be 6c3d 393e 4400 2abd 9798 663d
00000060: 244b c43d 0c1b a43d 59ea 8c3e 0c6f 05be
00000070: 3fc0 13be 1f6d bcbd fb80 83bd 08b5 483e
00000080: 46d6 edbd d20b 03be 0aaf 0abd a025 13be
00000090: 803e 16bd 3dde 443e ba2c c63d 83b3 fa3d
000000a0: 4022 b73d abeb 4dbd 1293 c0bb 9f84 2bbd
000000b0: 9dc9 bbbd 01b0 0cbd 76f9 b13d 0d6a bf3d
000000c0: 9ae3 a1bd 9053 873c e95c 2e3e 2f2b 0b3e
000000d0: 3529 2c3e 1f04 da3d cbb4 bb3e 5eb3 17be
000000e0: dd7c 40be f29a 713d 222a adbd d313 21be
000000f0: c412 843e edc5 443d 8bfd 9cbe 051c 873e
00000100: c1c7 7b3c 6e9d a8be 60a9 4f3e 5d71 683d
00000110: d871 efba efa5 c03e 2782 35be 9c3e 96be
00000120: 0cd9 193e a07a 863d 3cdf 01bd 400c 713e
00000130: a36d 743d 9f1a 26be a9c6 d13d dd08 f7bd
00000140: 6486 89be 7870 f33e 3cbb 993e 8ebf 4dbe
00000150: bb0a df3d e03f 173c 1147 4fbd 27cd 52be
00000160: 6f48 e7bd cd04 cabe 4dea cb3e 2242 8c3e
00000170: b3db 0b3e c4e5 273e 0dfc 01be b7f3 0abe
00000180: 2b2e 81bc 745a 05be 2f24 debe 01bd b73d
00000190: 3e1b 983e f4e2 203e 26dd eebc 5277 f63c
000001a0: a46d d3bd 9917 91bd 1366 5ebe dcf7 8bbe
000001b0: 7694 a3bd 3d4d ff3d e030 1f3e 4306 e03c
000001c0: fe82 56be 30f9 b33e 9f26 2d3e a859 c1be
000001d0: dc9b 11be 1bd9 ddbb 04df 413e 3dc1 9c3e
000001e0: ae0d 8a3d b482 5ebb 2e43 003e 9e18 7d3e
000001f0: b085 93be c2d0 ffbd 777b ebbd df94 1d3e
00000200: e593 cd3e 9314 cdbe a563 d6bd 9e76 ac3e
00000210: c0bc cbbe 1cc7 c3be d1d9 1d3d 33fe 73be
00000220: e7db b0be 2ab7 a6be 707b 0cbd 0866 193d
00000230: 085a e93d b53f 553e 4f14 f23e d850 563e
00000240: 24f9 80be 39c3 8abe 4f73 6a3d be65 203d
00000250: 4ade 1abc 3189 fd3b a147 eebb a6f3 7e3e
00000260: 7448 aa3e 5253 42be 5896 a3be 4118 05bf
00000270: 117a ea3d 3d96 39be 25b0 30bd 187f 3f3e
00000280: 9427 b43e 3cfd 913e 1a5f d1bd 9af6 1b3c
00000290: 77fd 393e 8c85 533c aca5 94bd 6e2d 103e
000002a0: 10af 9dbe 2aac d2bd 66a1 7c3e feb1 b3bd
000002b0: 773e a23e 6523 a53e 3a5a 83be 5580 c53d
000002c0: b1fe cd3d 76c4 9ebe f73f 0c3d cacc 86bb
000002d0: 1b5b f93c 25e0 913c f245 533e c4a9 3c3d
000002e0: a824 303d 81e2 513d 8499 38be 694b 18be
000002f0: c7ef 11be 0175 cf3e f633 a03e 6dcd c93e
00000300: 53b8 e3bd b611 c53c bce7 07be 7f60 bebe
00000310: 0bad a1be 8781 8dbe 9776 803e ffbd 803e
00000320: 88c2 e33e c724 233e 9fbf aabd 44fc c2bc
00000330: 2814 e4be 6f0d f4bd 9efd d3be e57f a53e
00000340: 88a8 c23d 24c3 2b3e e7de 8f3c 595e 23bd
00000350: c696 1c3c d1a3 70be 6cba 19be ab75 87be
00000360: 6495 dcbe ec79 74be 152a 103e e6f4 88be
00000370: 2ea7 833c f00b 9b3e 6362 f9bc 3c35 473e
00000380: 41b8 883e 1436 7fbe a245 9ebe 3f1e a7bd
00000390: 8598 5cbe c30d a9bc bfd2 dc3d 734d 123c
000003a0: c9a9 373e 8bbc 0e3f 4e40 72bd 104b 7fbe
000003b0: c5d4 973b ff51 0fbe 6910 93bd 795d 813d
000003c0: 2f06 213d a3ce 863e 4f48 3d3e c9b3 33bd
000003d0: e7b3 043e afec 6cbe 0a8b 273e 5f2e 06bd
000003e0: c27c 013d f212 95bd 08ea 2cbd 3d52 11bc
000003f0: d1ac bb3b 17c9 c7bd 139a 5fbe e38a 20be

cnn.0.bias f4 [16]
-0.10953555 -0.6179092 -0.1545797 -0.038067244 -0.6648497 -0.5841508 0.17960955 -0.085133106
-0.1426398 -0.6474516 -0.09480517 -0.6783069 -0.2374204 0.29559696 -0.43258172 -0.14624661
00000000: 2d54 e0bd 4c2f 1ebf 244a 1ebe 66ec 1bbd
00000010: 9733 2abf e88a 15bf 91eb 373e 445a aebd
00000020: 2b10 12be 63bf 25bf 3729 c2bd 85a5 2dbf
00000030: 551e 73be 7c58 973e 5a7b ddbe acc1 15be

cnn.3.weight f4 [32, 16, 3, 3]
-0.06878751 -0.15421914 0.110780716 -0.13705188 -0.03233867 0.11314219 -0.079035796 0.13099013
0.03673503 0.092103794 -0.031162336 -0.0863142 -0.07057409 0.019251099 0.024474638 0.0027243556
-0.0016745413 -0.10073412 -0.19275902 -0.4641379 -0.11898898 -0.29892266 -0.28551504 -0.07358392
-0.16502562 -0.49300137 -0.123522386 0.0433138 -0.032417715 0.27307257 0.024903862 0.27374366
-0.015006437 0.122110486 0.14098062 0.20010288 0.22554518 -0.042404756 -0.36975598 0.05503864
0.12345183 -0.5393522 -0.45943952 -0.16686769 -0.61484766 -0.085427575 0.23120204 -0.071487464
0.016448295 0.07606745 -0.14019516 -0.123288125 -0.18745793 -0.042607836 -0.027358355 0.029624628
0.042282347 0.039470818 0.010893762 0.03069276 0.116942 -0.023711175 -0.012924755 -0.05979447
-0.34455377 0.10614593 -0.1042109 -0.057343956 0.024689667 -0.097827055 0.10932985 0.23926394
-0.21275148 -0.16283138 0.25473395 -0.111395895 -0.20273528 0.19748545 0.08408119 0.05705373
0.0321168 0.0694543 0.15753193 0.21611351 0.020383434 0.005646511 -0.009980479 0.053473085
-0.1047086 -0.20608325 -0.13650146 0.02624361 -0.10829167 -0.1021679 -0.12421148 -0.040135864
-0.009519013 -0.009104114 -0.009058274 -0.11091821 0.24045447 -0.122614846 -0.2651598 -0.23247612
-0.2598076 -0.075105764 -0.3038492 -0.36553174 0.15255897 -0.010125636 -0.20103794 0.026924243
-0.19537778 -0.27358913 0.02416286 -0.033674635 0.09227495 0.05696602 -0.022181667 -0.07406528
0.12278789 0.055484008 0.113873616 0.0047697984 -0.024980424 -0.10674243 0.2974495 0.1896167
-0.5087373 -0.12989302 -0.10864028 -0.19377717 -0.58962476 -0.4983382 -0.5602023 -0.16810954
-0.1698676 -0.12210245 0.022907505 -0.023203978 -0.010480316 -0.09393946 -0.35278502 0.019715102
-0.5884978 -0.6992027 -0.60571975 -0.19130217 -0.18677616 -0.32231557 -0.057672095 -0.044498403
-0.0718729 0.08435267 -0.052693475 -0.27535555 0.14078178 0.037067126 -0.023754975 0.020507205
0.030318862 -0.1413606 0.3430593 0.12781163 0.22718836 0.15719777 0.32113257 0.2678798
0.046035945 0.106035426 0.057622526 0.004480521 -0.32594556 -0.12603372 0.22396041 0.044130497
0.06763027 0.21557304 -0.01571067 0.17709942 0.16396263 -0.2092746 0.0021847647 -0.18544737
-0.14304782 -0.03199288 -0.09871092 -0.3325201 -0.16581056 0.044605397 0.268335 0.40278515
-0.011179694 0.09286394 0.10066657 0.043445837 -0.054549277 0.0012930273 -0.2374053 0.5091769
-0.021330865 -0.09051298 0.2244419 0.0055727875 -0.16792418 0.11312437 -0.2097501 -0.967504
-0.2954456 -0.65820915 -0.6818253 -0.2711693 -0.44195062 -0.28809297 0.06694224 -0.08261072
-0.16041225 -0.0984541 -0.004101895 0.22843924 0.017459372 0.24174811 0.044252038 -0.019944679
0.15678519 0.051776275 -0.026674274 -0.3341493 0.0557478 0.07369119 0.027544972 0.069913216
0.14075267 -0.3769247 0.31552646 0.041885383 0.14293796 -0.022704912 -0.26828167 0.0361972
-0.007887178 -0.019501934 0.025573576 -0.5381588 0.22793192 -0.28191638 -0.38507885 -0.08579439
-0.2828802 -0.22382976 -0.27000526 -0.30902544 0.0895637 0.111668386 -0.21937211 0.011292234
00000000: 77e0 8cbd 9feb 1dbe 00e1 e23d 5457 0cbe
00000010: 8e75 04bd 18b7 e73d 85dd a1bd 4722 063e
00000020: 7977 163d eaa0 bc3d 2848 ffbc 80c5 b0bd
00000030: 2689 90bd 7bb4 9d3c 097f c83c 1a8b 323b
00000040: 487c dbba b14d cebd 9f62 45be 7ca3 edbe
00000050: 7fb0 f3bd 640c 99be 072f 92be 2bb3 96bd
00000060: 7afc 28be ad6a fcbe 4ef9 fcbd d069 313d
00000070: 70c8 04bd 2bd0 8b3e 2f03 cc3c 2128 8c3e
00000080: 8fdd 75bc 1015 fa3d 395d 103e c5e7 4c3e
00000090: 51f5 663e 9cb0 2dbd a850 bdbe 3270 613d
000000a0: 50d4 fc3d fc12 0abf a83b ebbe 5ddf 2abe
000000b0: a866 1dbf a7f4 aebd 3ac0 6c3e 0568 92bd
000000c0: 93be 863c 40c9 9b3d 528f 0fbe 7c7e fcbd
000000d0: f9f4 3fbe 8e85 2ebd a11e e0bc 59af f23c
000000e0: 4130 2d3d 27ac 213d c07b 323c 626f fb3c
000000f0: 4a7f ef3d f03d c2bc 5ac2 53bc 0ceb 74bd
00000100: 5a69 b0be 0a63 d93d 866c d5bd 7fe1 6abd
00000110: fc41 ca3c 8d59 c8bd 54e8 df3d 9b01 753e
00000120: 86db 59be 45bd 26be 7d6c 823e 8823 e4bd
00000130: d699 4fbe a039 4a3e c232 ac3d 2cb1 693d
00000140: e88c 033d 0e3e 8e3d 0d50 213e dc4c 5d3e
00000150: 29fb a63c 5e06 b93b 2a85 23bc 9806 5b3d
00000160: 7671 d6bd 7d07 53be 0ac7 0bbe d7fc d63c
00000170: 06c8 ddbd 673d d1bd 9762 febd 8165 24bd
00000180: a2f5 1bbc 6c29 15bc 2869 14bc 1629 e3bd
00000190: b239 763e 7e1d fbbd 06c3 87be 380e 6ebe
000001a0: 8005 85be 0dd1 99bd 1f92 9bbe fa26 bbbe
000001b0: 6b38 1c3e ffe5 25bc e4dc 4dbe 3b90 dc3c
000001c0: 1d11 48be e013 8cbe 31f1 c53c 6aee 09bd
000001d0: a6fa bc3d 3455 693d 54b6 b5bc 8aaf 97bd
000001e0: 3878 fb3d 3343 633d 9236 e93d f84b 9c3b
000001f0: bfa3 ccbc c69b dabd 4d4b 983e e12a 423e
00000200: 9c3c 02bf ad02 05be cc7e debd 866d 46be
00000210: a6f1 16bf 2f26 ffbe 6b69 0fbf e824 2cbe
00000220: c6f1 2dbe d910 fabd 85a8 bb3c 4516 bebc
00000230: a2b5 2bbc 5563 c0bd 3da0 b4be 9181 a13c
00000240: cba7 16bf f3fe 32bf 7310 1bbf b7e4 43be
00000250: 4042 3fbe 8c06 a5be 9339 6cbd f543 36bd
00000260: 1932 93bd 18c1 ac3d 1dd5 57bd 67fb 8cbe
00000270: 1929 103e b3d3 173d cb99 c2bc bafe a73c
00000280: 435f f83c d5c0 10be 78a5 af3e 0de1 023e
00000290: 11a4 683e 74f8 203e 7d6b a43e 8b27 893e
000002a0: 3090 3c3d 1a29 d93d 9905 6c3d 56d1 923b
000002b0: 56e2 a6be fc0e 01be e155 653e 2ec2 343d
000002c0: bd81 8a3d 2ebf 5c3e aab3 80bc 8d59 353e
000002d0: d2e5 273e 154c 56be 452e 0f3b eae5 3dbe
000002e0: 217b 12be f70a 03bd f328 cabd 1340 aabe
000002f0: 3eca 29be 26b4 363d 3563 893e db39 ce3e
00000300: 092b 37bc 732f be3d 462a ce3d 43f4 313d
00000310: 106f 5fbd cc7a a93a 601a 73be 6b59 023f
00000320: 11be aebc df5e b9bd 19d4 653e ee9b b63b
00000330: 51f4 2bbe c0ad e73d bbc8 56be 58ae 77bf
00000340: a544 97be 6580 28bf 1a8c 2ebf b4d6 8abe
00000350: 5a47 e2be ec80 93be 0319 893d cf2f a9bd
00000360: 1c43 24be 4ea2 c9bd 3069 86bb faeb 693e
00000370: f506 8f3c d18c 773e a041 353d 0663 a3bc
00000380: 4c8c 203e 5c13 543d 0284 dabc 9e15 abbe
00000390: ce57 643d 68eb 963d fea5 e13c a92e 8f3d
000003a0: 7821 103e 46fc c0be af8c a13e 0290 2b3d
000003b0: 545e 123e a7ff b9bc 375c 89be 8443 143d
000003c0: 3939 01bc 85c2 9fbc ad7f d13c c6c4 09bf
000003d0: fc66 693e 5857 90be 0e29 c5be f8b4 afbd
000003e0: acd5 90be a133 65be 213e 8abe 9538 9ebe
000003f0: 2c6d b73d 65b2 e43d 15a3 60be 1003 393c

cnn.3.bias f4 [32]
0.2512716 0.07478738 0.041611835 0.02452928 0.16136672 0.36726224 -0.07697489 -0.20702372
-0.043582488 -0.045418397 0.25243682 -0.025804976 -0.027541822 -0.07960455 -0.035556093 -0.020689419
-0.049544927 0.08613931 0.063676074 -0.1253284 -0.055245347 -0.097343445 -0.050715312 -0.017744962
0.14281717 -0.048584215 0.056023873 0.053024072 -0.04984846 -0.049024962 -0.11952588 -0.09748306
00000000: aca6 803e 202a 993d 2c71 2a3d a1f1 c83c
00000010: 513d 253e cc09 bc3e 03a5 9dbd 07fe 53be
00000020: 8d83 32bd a408 3abd 663f 813e f564 d3bc
00000030: 639f e1bc b607 a3bd 44a3 11bd db7c a9bc
00000040: 9fef 4abd ce69 b03d 9a68 823d 1756 00be
00000050: f248 62bd 005c c7bd dcba 4fbd e25d 91bc
00000060: aa3e 123e 3e00 47bd 4a79 653d c52f 593d
00000070: e62d 4cbd 66ce 48bd fcc9 f4bd 33a5 c7bd

fc1.weight f4 [11, 672]
-0.048875354 -0.013814161 -0.3478456 0.034221426 0.03972166 -0.29474756 0.18334396 -0.014253497
0.25664923 -0.082212225 0.066 0.14773673 -0.4697827 0.051091615 -0.10017456 0.022589875
-0.02329959 0.54048514 -0.057440937 -0.41497514 -0.2307266 0.06571243 0.15944663 -0.26959082
-0.56535727 -0.0025287077 0.25600687 -0.23573434 0.29285866 -0.046790425 0.10506828 -0.10776639
0.114473276 0.051196657 -0.16940583 -0.03508824 -0.17017196 -0.11102284 0.45761594 -0.057074517
0.174543 -0.36838847 -0.31676847 0.24721588 -0.18681076 0.1423189 -0.14177825 0.009516049
0.27013302 -0.24016908 0.12738565 0.22154479 -0.2670259 -0.41585606 0.043366097 -0.10492046
0.029726801 -0.041961983 0.27002695 -0.41758752 -0.117715575 0.2109281 0.601741 0.068667755
0.20626472 -0.4331014 0.14421044 -0.23920262 -0.11784233 -0.15502547 0.22012037 0.13371721
-0.21122222 -0.101834044 0.113547824 0.10583164 -0.025383523 -0.3318194 -0.6678757 -0.08071155
-0.0099048335 -0.32153392 0.12185671 0.055796232 -0.13124418 0.021651447 0.22190395 -0.1500305
-0.27375987 -0.40768325 -0.53298795 0.25103357 -0.120598346 -0.07703573 -0.8633873 0.2997083
0.051968317 0.4417318 -0.084537484 -0.18744822 -0.15696692 -0.5703844 -0.34853756 0.20049156
0.17279404 -0.027820716 -0.2895432 -0.4088244 0.2614072 0.11326268 -0.038648494 -0.023224995
0.102968 -0.13471426 0.100239895 -0.69370884 -0.35160363 -0.26674545 -0.19141091 -0.008534432
-0.17740197 -0.2836105 -0.68419737 -0.3488756 -0.4275053 -0.12166448 -0.07116612 -0.10948395
-0.076345384 0.0013626975 -0.22194998 -0.12235301 -0.1437905 -0.11230638 -0.07915109 -0.14009254
-0.05970639 -0.06816928 -0.05530279 -0.116377085 -0.15667892 -0.14052989 -0.09525983 -0.06328744
-0.030425321 -0.09980522 -0.040612258 0.01505195 0.10293823 0.26375842 -0.6158424 -0.40027666
0.08230904 0.01283655 -0.9916768 -0.199228 -0.117034435 -0.5768246 -0.33799332 -0.29626685
-0.2494183 -0.43738955 -0.09588369 -0.46249053 -0.5674073 -0.1529946 -0.1211311 -0.4055461
-0.036359966 -0.028896822 -0.046950947 -0.013940006 -0.007833773 -0.05220854 0.0046670595 0.008975852
-0.029370228 -0.015649643 -0.0153452465 -0.023976984 -0.04606231 0.011683701 -0.00052746484 -0.05041219
-0.05225085 0.01548692 -0.013219321 -0.02998891 0.006253039 -0.20560968 -0.037495 0.37323058
-0.14469282 -0.2335484 0.083823234 0.13051353 -0.2905282 -0.04506631 0.30689266 -0.038344804
0.13082463 -0.015280676 -0.0786705 0.13266262 0.056753572 0.23856995 -0.058581043 0.049155626
-0.12021248 0.27085432 -0.08719641 0.087034926 -0.17138286 0.13092235 -0.084385164 0.20436287
-0.18719505 0.2133598 0.41317558 -0.1634237 -0.15831472 0.023656156 0.080625854 0.0132260015
0.14243844 0.119334295 -0.28695834 -0.32663584 -0.051000286 -0.07998274 0.277076 -0.17463307
-0.023460006 -0.22006007 0.17482889 -0.025903309 -0.82646775 -0.7378474 -0.43293357 -0.22666386
-0.79972917 -0.13860609 -0.041303694 -0.39056218 -1.1437707 -0.33837315 -0.4561717 0.20231241
-0.9934118 -0.26910713 -0.20080455 -0.4767285 0.0066019776 0.43023932 -0.07828803 -0.1727945
00000000: 8631 48bd ca54 62bc d218 b2be c42b 0c3d
00000010: 2eb3 223d 27e9 96be 85be 3b3e 8087 69bc
00000020: 8767 833e e25e a8bd 022b 873d 4c48 173e
00000030: 5c87 f0be 7145 513d 5228 cdbd 670e b93c
00000040: c8de bebc 3c5d 0a3f 3047 6bbd 9f77 d4be
00000050: 9843 6cbe 3d94 863d fa45 233e cf07 8abe
00000060: 41bb 10bf adb8 25bb 5513 833e 5864 71be
00000070: 92f1 953e 51a7 3fbd 0a2e d73d a0b4 dcbd
00000080: f770 ea3d 96b3 513d b978 2dbe b0b8 0fbd
00000090: 8f41 2ebe f15f e3bd a34c ea3e f8c6 69bd
000000a0: 66bb 323e 6a9d bcbe 7a2f a2be 2926 7d3e
000000b0: 524b 3fbe 0cbc 113e 512e 11be 34e9 1b3c
000000c0: e04e 8a3e e2ee 75be 6271 023e a3dc 623e
000000d0: 9eb7 88be 16eb d4be a6a0 313d 8ae0 d6bd
000000e0: 9f85 f33c 54e0 2bbd f940 8a3e 08ce d5be
000000f0: dd14 f1bd 89fd 573e b30b 1a3f aea1 8c3d
00000100: 0f37 533e 77bf ddbe e7ab 133e 88f1 74be
00000110: 5257 f1bd ffbe 1ebe 3c67 613e 2aed 083e
00000120: a34a 58be 5e8e d0bd c38b e83d 42be d83d
00000130: 1bf1 cfbc 3be4 a9be e7f9 2abf 194c a5bd
00000140: e247 22bc 18a0 a4be 0390 f93d 978a 643d
00000150: e064 06be 605e b13c ca3a 633e 98a1 19be
00000160: 412a 8cbe dcbb d0be e671 08bf 7987 803e
00000170: 44fc f6bd e9c4 9dbd f306 5dbf 5e73 993e
00000180: bbdc 543d ac2a e23e fd21 adbd 6df2 3fbe
00000190: f0bb 20be b604 12bf 8473 b2be a94d 4d3e
000001a0: ecf0 303e 45e8 e3bc 023f 94be 6f51 d1be
000001b0: 2ad7 853e 44f6 e73d e24d 1ebd 5842 bebc
000001c0: e3e0 d23d 89f2 09be 934a cd3d e796 31bf
000001d0: 6405 b4be dc92 88be 3901 44be 01d4 0bbc
000001e0: dda8 35be 6535 91be 8f27 2fbf d39f b2be
000001f0: fae1 dabe 3a2b f9bd 8bbf 91bd 1f39 e0bd
00000200: f85a 9cbd 8a9c b23a db46 63be 3794 fabd
00000210: d13d 13be e300 e6bd f719 a2bd 6b74 0fbe
00000220: b08e 74bd 569c 8bbd 2e85 62bd 1c57 eebd
00000230: 7070 20be 11e7 0fbe 9617 c3bd d89c 81bd
00000240: 863e f9bc ae66 ccbd 0a59 26bd 749c 763c
00000250: 47d1 d23d 580b 873e d9a7 1dbf 10f1 ccbe
00000260: a491 a83d 6550 523c 88de 7dbf 6d02 4cbe
00000270: c0af efbd c7aa 13bf 760d adbe 4ab0 97be
00000280: 8367 7fbe 86f1 dfbe ab5e c4bd 8fcb ecbe
00000290: 9b41 11bf 9eaa 1cbe 9513 f8bd bda3 cfbe
000002a0: 30ee 14bd 07b9 ecbc a34f 40bd 9f64 64bc
000002b0: 3a59 00bc 9fd8 55bd 22ee 983b 740f 133c
000002c0: d599 f0bc ae33 80bc a16a 7bbc 616b c4bc
000002d0: d5ab 3cbd fe6c 3f3c 9145 0aba 037d 4ebd
000002e0: fd04 56bd dabc 7d3c da95 58bc 4dab f5bc
000002f0: 4be6 cc3b 588b 52be 5b94 19bd 1418 bf3e
00000300: 5b2a 14be 5027 6fbe 84ab ab3d 57a5 053e
00000310: 1dc0 94be 7397 38bd 0921 9d3e 710f 1dbd
00000320: e4f6 053e cd5b 7abc 001e a1bd b6d8 073e
00000330: 6f76 683d ae4b 743e adf2 6fbd 6957 493d
00000340: f631 f6bd 6bad 8a3e 0894 b2bd 5e3f b23d
00000350: fd7e 2fbe 8210 063e 21d2 acbd 8044 513e
00000360: 0fb0 3fbe fe7a 5a3e c08b d33e 8b58 27be
00000370: 411d 22be 8eca c13c 2b1f a53d dfb1 583c
00000380: 62db 113e 8a65 f43d 34ec 92be d03c a7be
00000390: ade5 50bd fecd a3bd e8dc 8d3e 03d3 32be
000003a0: 332f c0bc 6d57 61be 5806 333e 2d33 d4bc
000003b0: 6493 53bf 91e3 3cbf 78a9 ddbe 921a 68be
000003c0: 0dbb 4cbf c1ee 0dbe 102e 29bd c4f7 c7be
000003d0: 1467 92bf 3f3f adbe 568f e9be fc2a 4f3e
000003e0: 3c50 7ebf 69c8 89be b59f 4dbe c215 f4be
000003f0: 6755 d83b 5448 dc3e 7a55 a0bd 0bf1 30be

fc1.bias f4 [11]
-0.053532872 0.439224 0.18743135 0.1166583 0.08056518 -0.13662761 -0.26363283 -0.34659696
-0.3160352 -0.31049475 -1.0706657
00000000: 4945 5bbd f8e1 e03e 01ee 3f3e 8cea ee3d
00000010: 5bff a43d 1ce8 0bbe e2fa 86be 2875 b1be
00000020: 5ecf a1be 2bf9 9ebe 930b 89bf

fc2.weight f4 [11, 672]
-0.18746366 -0.096993536 0.03898141 0.0032283827 0.009528149 -0.23031074 -0.0089017255 -0.031569406
0.10875405 0.19001766 0.055438787 -0.726467 -0.1811947 0.059274584 -0.08838287 0.136175
-0.052891225 -0.071273595 -0.028344287 -0.2555299 -0.031479165 -0.111788794 -0.070113495 -0.03049207
-0.08471148 -0.52852887 -0.1747039 0.013725391 -0.016244885 -0.060957585 -0.10014468 0.16049674
0.57766604 0.0061425534 -0.11111033 -0.005214152 -0.09475536 -0.047836952 0.27048808 0.07704566
-0.11835917 -0.08470733 -0.1247121 0.0038563486 -0.19824636 0.20783417 0.11706186 0.010008328
-0.17064422 0.19679572 0.046506234 -0.08327896 -0.07821789 -0.53096056 -0.44189525 -0.043865375
0.097648755 0.03738157 -0.13368356 0.046767015 -0.061717834 -0.11903461 -0.064797774 -0.19666412
0.15792851 -0.34873676 -0.16152845 -0.25179178 -0.045305043 -0.24412481 0.06861051 -0.21716903
-0.06999672 0.18999027 0.69323826 0.097687334 -0.049514037 -0.052308258 -0.18727009 -0.036313202
0.084086634 -0.2903692 -0.06637315 -0.14889307 0.092763536 0.013898755 0.10830623 -0.15681298
-0.33827853 -0.0002137379 -0.23 -0.21200979 0.104934745 -0.35896832 -0.27526912 0.57887655
0.11769227 0.26937127 -0.020067671 0.023283204 0.05139316 -0.115448005 -0.34990337 -0.15928753
-0.088333935 0.02347785 -0.1860038 -0.079864085 0.31704858 0.07212928 0.25317243 -0.20996763
0.1634623 -0.090934254 -0.15580082 -0.47926623 0.19757408 -0.26331264 -0.13516176 0.11867794
-0.16669162 0.038648725 0.14955309 -0.051114094 -0.1010732 0.014280144 -0.13292032 -0.2193835
-0.06593467 -0.013749109 0.0063685533 -0.0047014 -0.22431436 -0.09658481 -0.07405196 0.0016647732
-0.10877633 -0.043858655 -0.032488327 -0.08213497 -0.09387574 -0.041064065 -0.04598342 -0.046176907
-0.029476183 -0.010728763 -0.07612201 0.09452521 -0.17874785 0.071534656 -0.096791096 -0.23390642
-0.06313138 0.0059173843 0.041447755 -0.018803326 0.19799644 0.07941626 -0.18470433 0.034272444
-0.21263611 0.08171011 0.10742066 0.124053866 -0.29211333 -0.089283064 0.11267768 0.21791491
0.0003648122 -0.012445148 -0.012997477 -0.01135204 0.012238566 0.0028671091 0.02295527 -0.019159827
-0.01623729 -0.006037451 -0.016627409 -0.012254199 -0.0076230946 0.02595492 -0.023193104 0.030419879
0.02685186 0.031800248 0.020959213 0.013222991 -0.031589035 -0.07314293 -0.020998694 -0.13362858
0.083331704 0.37860262 -0.11976118 0.057695664 0.0503007 -0.30756685 -0.19863084 -0.04608555
-0.3732412 -0.05721588 -0.086989604 0.035432953 -0.17463087 -0.13186526 0.18590394 0.11121984
0.07890586 -0.11579604 0.19874108 -0.098600216 0.1261836 0.32740638 0.100126125 0.14706257
0.029823886 0.08936321 -0.0010139989 -0.05202248 -0.18550645 -0.6229479 -0.33038145 0.17395878
0.03518611 0.049520794 -0.27103302 -0.6000477 0.043318182 0.13451837 -0.01815802 0.01329522
-0.06290524 -0.028490653 0.046238538 0.005897214 0.011223478 -0.035336107 0.023957003 -0.11574355
-0.06651785 0.006838683 -0.19375569 -0.12558876 0.13328347 -0.11858037 -0.23815556 0.106226936
-0.3580416 -0.07782645 0.031810265 -0.22126803 0.034540188 -0.146223 0.057787847 -0.053949963
00000000: 79f6 3fbe 8ca4 c6bd f9aa 1f3d 4693 533b
00000010: f41b 1c3c 94d6 6bbe 8bd8 11bc ec4e 01bd
00000020: 72ba de3d fd93 423e c813 633d bef9 39bf
00000030: 1a8b 39be e8c9 723d 1402 b5bd 7671 0b3e
00000040: 78a4 58bd e4f7 91bd 4732 e8bc d1d4 82be
00000050: 4cf0 00bd 86f1 e4bd aa97 8fbd 81ca f9bc
00000060: 367d adbd ab4d 07bf 94e5 32be 76e0 603c
00000070: fe13 85bc a9ae 79bd a718 cdbd 4259 243e
00000080: ece1 133f 7947 c93b d08d e3bd 7adb aabb
00000090: 190f c2bd aef0 43bd 6a7d 8a3e 1dca 9d3d
000000a0: 4b66 f2bd 097b adbd 0f69 ffbd cbba 7c3b
000000b0: 1801 4bbe 7bd2 543e 21be ef3d f8f9 233c
000000c0: 5cbd 2ebe d184 493e 527d 3e3d 298e aabd
000000d0: b330 a0bd 08ed 07bf 1840 e2be 2eac 33bd
000000e0: 12fc c73d 6b1d 193d 58e4 08be c58e 3f3d
000000f0: d7cb 7cbd 6bc8 f3bd b2b4 84bd 5262 49be
00000100: 03b8 213e a08d b2be b767 25be daea 80be
00000110: c891 39bd dbfb 79be ab83 8c3d 8f61 5ebe
00000120: 715a 8fbd cf8c 423e 1078 313f 4c10 c83d
00000130: 3bcf 4abd 2f41 56bd bbc3 3fbe 27bd 14bd
00000140: 9d35 ac3d 46ab 94be a5ee 87bd 6d77 18be
00000150: cffa bd3d 9bb7 633c a8cf dd3d 9593 20be
00000160: d832 adbe d51e 60b9 1f85 6bbe 1819 59be
00000170: 07e8 d63d b2ca b7be 13f0 8cbe 4131 143f
00000180: a508 f13d 08eb 893e f564 a4bc 6bbc be3c
00000190: a281 523d 0170 ecbd 8926 b3be 451c 23be
000001a0: 6ce8 b4bd 9f54 c03c c877 3ebe c88f a3bd
000001b0: 3154 a23e 84b8 933d d19f 813e c101 57be
000001c0: a962 273e bd3b babd 408a 1fbe 6262 f5be
000001d0: dc50 4a3e ead0 86be d867 0abe 6b0d f33d
000001e0: 35b1 2abe 204e 1e3d 7224 193e 035d 51bd
000001f0: 77ff cebd 44f7 693c 441c 08be 11a6 60be
00000200: c208 87bd f143 61bc 4caf d03b 340e 9abb
00000210: aab2 65be 42ce c5bd 8ea8 97bd 8534 da3a
00000220: 20c6 debd 22a5 33bd 7b12 05bd 6136 a8bd
00000230: ed41 c0bd cb32 28bd 1c59 3cbd ff23 3dbd
00000240: 0978 f1bc b2c7 2fbc dbe5 9bbd 6f96 c13d
00000250: ad09 37be c380 923d 693a c6bd 2a85 6fbe
00000260: 064b 81bd 9ee6 c13b 1fc5 293d 6f09 9abc
00000270: 94bf 4a3e fea4 a23d 2223 3dbe 4361 0c3d
00000280: 48bd 59be a157 a73d 5dff db3d f40f fe3d
00000290: e18f 95be 0ada b6bd 8ec3 e63d 1625 5f3e
000002a0: 4444 bf39 bce6 4bbc 5ff3 54bc e8fd 39bc
000002b0: 4484 483c 1ce6 3b3b b10c bc3c 12f5 9cbc
000002c0: 1104 85bc cfd5 c5bb 3436 88bc d6c5 48bc
000002d0: 27cb f9bb 6a9f d43c 77ff bdbc 1c33 f93c
000002e0: 6ff8 db3c fa40 023d a8b2 ab3c 3ea5 583c
000002f0: 8163 01bd f6cb 95bd 7405 acbc eed5 08be
00000300: d0a9 aa3d 34d8 c13e 5945 f5bd 4a52 6c3d
00000310: 1b08 4e3d 6779 9dbe e265 4bbe 34c4 3cbd
00000320: 7819 bfbe 335b 6abd 9b27 b2bd 2522 113d
00000330: 6fd2 32be b007 07be 9a5d 3e3e 3ac7 e33d
00000340: 6599 a13d 7926 edbd c882 4b3e e9ee c9bd
00000350: 4636 013e cfa1 a73e ed0e cd3d 9297 163e
00000360: 3951 f43c 0f04 b73d 28e8 84ba 8615 55bd
00000370: 67f5 3dbe 8379 1fbf c227 a9be 4022 323e
00000380: 4f1f 103d 51d6 4a3d d7c4 8abe ba9c 19bf
00000390: 686e 313d 2fbf 093e 21c0 94bc 32d4 593c
000003a0: 76d4 80bd 3b65 e9bc 9f64 3d3d 6b3d c13b
000003b0: aee2 373c 98bc 10bd 7a41 c43c f40a edbd
000003c0: 833a 88bd 0817 e03b e467 46be 579a 00be
000003d0: 767b 083e 44da f2bd 0ddf 73be 828d d93d
000003e0: 3b51 b7be 7963 9fbd 7b4b 023d 1694 62be
000003f0: 037a 0d3d 7bbb 15be f3b2 6c3d a3fa 5cbd

fc2.bias f4 [11]
-0.08840289 0.08256932 0.058660656 0.021199573 -0.0035401906 -0.00020511915 -0.052582227 0.024772594
-0.13108328 -0.10042649 0.012734576
00000000: 930c b5bd 1b1a a93d 2846 703d baaa ad3c
00000010: 8b02 68bb 4115 57b9 7660 57bd e5ef ca3c
00000020: b23a 06be 67ac cdbd afa4 503c

fc3.weight f4 [11, 672]
-0.0033649758 0.16634472 -0.109737314 0.119359605 -0.26258284 -0.028268311 -0.02309141 -0.22359793
0.042496927 -0.049843833 -0.1350065 -0.34442234 0.037900977 0.10857402 -0.052179385 -0.15418747
-0.15955292 -0.32868195 -0.25279486 0.058686122 -0.053029317 -0.16330788 0.051618494 -0.1956565
0.0005348274 -0.23005024 -0.31018195 -0.06002661 -0.118652984 -0.12806775 0.0002842233 -0.16554737
0.46111512 0.60023725 -0.0059592105 0.0014396773 -0.026996706 0.0067455648 -0.11143367 0.3062856
-0.035639428 -0.2298931 -0.15035084 0.055468414 -0.005073148 -0.08722433 0.056633864 0.13109997
-0.17359427 -0.12039455 -0.096980736 -0.13249889 -0.16197568 -0.19785625 -0.22022799 -0.12843013
-0.25729463 -0.0057888427 -0.10786029 -0.23579814 -0.038471553 -0.20322207 -0.22856599 -0.082378775
-0.11155204 -0.17390285 0.26547882 -0.8075918 -0.43873012 -0.061595794 -0.1543763 -0.24345472
0.073697925 -0.28385693 0.4013616 0.51662457 0.02237979 -0.04427683 0.09819565 -0.07665311
-0.16101803 -0.10565884 -0.09693481 -0.27488253 -0.015831571 -0.11276788 -0.08592888 -0.03383598
-0.12613602 -0.14274716 0.007283318 -0.14070445 -0.42589617 0.12137698 -0.078084856 -0.5334753
0.13951406 0.0053985603 0.1812826 -0.02079248 -0.15926196 -0.20244667 -0.19832776 -0.24172986
0.10987019 -0.08586631 -0.07429165 -0.064074904 0.10520232 0.08893377 0.20231259 -0.22004564
-0.07809044 -0.1146259 -0.15020932 -0.25067475 -0.2037604 0.11851936 -0.030985955 0.13814992
-0.012144911 -0.20757204 -0.7528329 -0.08761068 -0.06139509 0.029655484 0.05926393 0.030771326
0.0035844604 0.023563614 0.01539654 -0.09808867 -0.028217573 0.00989789 0.10046565 -0.040824883
-0.029474873 -0.013410697 -0.007911986 -0.029592328 -0.033587378 0.021636799 -0.05828631 -0.07863077
-0.00896149 -0.010420158 -0.06680463 0.05447693 -0.024135754 0.20884089 0.037990782 -0.19947405
-0.06164929 -0.067386165 -0.11430514 -0.18366215 0.19680801 0.062209927 -0.31024456 -0.07445278
0.028525684 0.00719934 0.042491287 0.043227963 -0.11386129 -0.30813524 -0.13731004 0.17159492
-0.0023992194 0.012689125 0.019801166 -0.0050556283 0.0097688725 0.045716193 0.025556613 0.02498389
-0.01143068 -0.0020298157 -0.045492735 -0.020138428 0.0017722378 0.018362783 0.020438528 0.00016727958
-0.009131801 0.02058522 0.017780334 -0.01870015 0.00073695095 -0.13482073 -0.060267404 -0.00342892
-0.16967416 0.21790014 -0.13749933 0.20266575 -0.04205573 0.14764628 -0.052817643 -0.12683886
-0.18485694 -0.44045556 -0.1109975 0.10815515 -0.06811043 0.13091314 -0.14105795 0.09837069
0.15244588 0.18762708 0.115533106 0.14189969 0.01423277 0.13837086 0.47428784 0.070228465
-0.05796535 -0.018168245 -0.20237799 -0.23251267 -0.09300511 -0.35053328 -0.38293505 -0.015483484
0.023257019 -0.09101844 -0.3589249 -0.18651074 0.039563745 0.10895993 0.1672989 -0.062536284
-0.18806444 -0.01922456 -0.02346408 0.19717084 0.026483258 -0.1557419 -0.062274862 -0.13056079
-0.16263345 -0.091501854 -0.1051318 -0.07810542 -0.13720696 -0.15297899 -0.34296334 -0.24025358
-0.0998469 -0.20916675 -0.24048215 -0.023722522 -0.1452371 -0.14943238 0.089917436 -0.042926565
00000000: ed86 5cbb 4556 2a3e f5bd e0bd cf72 f43d
00000010: 4271 86be f292 e7bc 322a bdbc dbf6 64be
00000020: 4211 2e3d 0c29 4cbd 253f 0abe 2058 b0be
00000030: 0e3e 1b3d 0e5c de3d 0dba 55bd 52e3 1dbe
00000040: d761 23be 0049 a8be 546e 81be dc60 703d
00000050: 4535 59bd 2e3a 27be ea6d 533d 2d5a 48be
00000060: a933 0c3a 4a92 6bbe 2bd0 9ebe 76de 75bd
00000070: 5600 f3bd 3124 03be ce03 9539 4085 29be
00000080: 4817 ec3e 26a9 193f 7b45 c3bb 8eb3 bc3a
00000090: 3228 ddbc e609 dd3b 5637 e4bd 77d1 9c3e
000000a0: a6fa 11bd 1969 6bbe 92f5 19be d932 633d
000000b0: a63c a6bb aba2 b2bd e9f8 673d 123f 063e
000000c0: b2c2 31be 6b91 f6bd d69d c6bd caad 07be
000000d0: f4dc 25be d49a 4abe 7283 61be 3083 03be
000000e0: 1fbc 83be 55b0 bdbb dbe5 dcbd 1175 71be
000000f0: 5994 1dbd 7219 50be 340d 6abe 34b6 a8bd
00000100: 6575 e4bd 9713 32be d7ec 873e 56be 4ebf
00000110: 3ca1 e0be df4b 7cbd d214 1ebe 324c 79be
00000120: f0ee 963d b255 91be 457f cd3e 8241 043f
00000130: d255 b73c 9f5b 35bd cd1a c93d 4efc 9cbd
00000140: e9e1 24be a963 d8bd c285 c6bd 67bd 8cbe
00000150: 36b1 81bc d9f2 e6bd 7bfb afbd 9997 0abd
00000160: cd29 01be 502c 12be e6a8 ee3b d414 10be
00000170: 100f dabe 7e94 f83d f4ea 9fbd d691 08bf
00000180: c6dc 0e3e 68e6 b03b 25a2 393e fe54 aabc
00000190: 9115 23be 2e4e 4fbe 6f16 4bbe 0888 77be
000001a0: 9f03 e13d adda afbd 3826 98bd b439 83bd
000001b0: 5074 d73d e922 b63d 082b 4f3e a553 61be
000001c0: e1ed 9fbd fcc0 eabd 79d0 19be 7158 80be
000001d0: 91a6 50be 47ba f23d 42d6 fdbc 2c77 0d3e
000001e0: 73fb 46bc c48d 54be a8b9 40bf 3a6d b3bd
000001f0: 6b79 7bbd 0ff0 f23c bcbe 723d 2614 fc3c
00000200: 44e9 6a3b 7b08 c13c c541 7c3c b6e2 c8bd
00000210: 8a28 e7bc c22a 223c efc0 cd3d fe37 27bd
00000220: 4a75 f1bc 8ab8 5bbc 46a1 01bc 9c6b f2bc
00000230: eb92 09bd a83f b13c a0bd 6ebd 2b09 a1bd
00000240: 37d3 12bc 4fb9 2abc ded0 88bd 3423 5f3d
00000250: 58b8 c5bc 63da 553e 399c 1b3d ed42 4cbe
00000260: f783 7cbd c201 8abd d018 eabd ee11 3cbe
00000270: 0a88 493e d6cf 7e3d 60d8 9ebe b37a 98bd
00000280: b2ae e93c 71e8 eb3b 580b 2e3d ce0f 313d
00000290: 1c30 e9bd e7c3 9dbe 019b 0cbe 94b6 2f3e
000002a0: 393c 1dbb 0ce6 4f3c 0e36 a23c afa9 a5bb
000002b0: 9f0d 203c e740 3b3d 1a5c d13c 04ab cc3c
000002c0: bf47 3bbc a806 05bb 9756 3abd 58f9 a4bc
000002d0: 6f4a e83a 8c6d 963c b36e a73c c567 2f39
000002e0: 8d9d 15bc 56a2 a83c 10a8 913c 0f31 99bc
000002f0: f12f 413a 720e 0abe f4da 76bd bbb7 60bb
00000300: 10bf 2dbe 3721 5f3e a0cc 0cbe 9c87 4f3e
00000310: a142 2cbd 9630 173e 5057 58bd 0ce2 01be
00000320: 234b 3dbe 6483 e1be a852 e3bd 7380 dd3d
00000330: 7b7d 8bbd 180e 063e 7f71 10be 9376 c93d
00000340: c61a 1c3e 5021 403e 9f9c ec3d 274e 113e
00000350: 9030 693c 17b1 0d3e dbd5 f23e f1d3 8f3d
00000360: 136d 6dbd 92d5 94bc 2d3c 4fbe cd17 6ebe
00000370: 7779 bebd 1979 b3be 1010 c4be 70ae 7dbc
00000380: 8185 be3c e067 babd 01c5 b7be acfc 3ebe
00000390: 980d 223d 6226 df3d 6750 2b3e 0613 80bd
000003a0: f793 40be d37c 9dbc be37 c0bc 27e7 493e
000003b0: 6bf3 d83c ce7a 1fbe ed13 7fbd bab1 05be
000003c0: 6289 26be 5365 bbbd 574f d7bd bcf5 9fbd
000003d0: fb7f 0cbe 86a6 1cbe e498 afbe 0905 76be
000003e0: 887c ccbd cf2f 56be f440 76be bc55 c2bc
000003f0: 09b9 14be cd04 19be a226 b83d c4d3 2fbd

fc3.bias f4 [11]
-0.030862061 -0.24638148 -0.1697309 -0.25610074 -0.12703273 -0.051007483 -0.2976712 -0.09575409
-0.20760116 -0.22685309 0.70677364
00000000: 6fd2 fcbc 6d4b 7cbe f0cd 2dbe a31f 83be
00000010: de14 02be 39ed 50bd 5c68 98be b81a c4bd
00000020: 6695 54be 2d4c 68be 1eef 343f

fc4.weight f4 [11, 672]
-0.16671453 -0.07606719 -0.08245018 0.11295531 -0.0037847918 -0.116346896 -0.33015192 -0.018950623
-0.5091818 -0.019537868 -0.48146918 -0.2006595 -0.30265725 -0.2983118 0.037446603 -0.3312427
-0.15486665 -0.6065814 -0.74657434 -0.17116047 -0.23673105 -0.63782144 -0.24698061 -0.07169129
-0.46196973 -0.46186706 -0.6049105 -0.30415273 -0.5139266 -0.17845519 -0.19424249 -0.019653635
0.27683607 0.7586984 0.060467996 -0.21927585 -0.22213936 -0.21341106 -0.33202645 -0.08125345
-0.086608365 -0.33770338 -0.2305627 -0.28931963 0.034770075 -0.12023729 0.15561916 0.068103604
-0.25179547 0.043237835 -0.22395205 -0.32249916 -0.14810216 -0.28065345 -0.33479184 -0.7025309
-0.03981149 -0.44877577 -0.43808192 -0.5834378 -0.102808245 0.08572554 0.26244897 -0.04299219
-0.22132865 -0.22334623 -0.43343893 -0.2188659 -0.22939731 -0.26213655 -0.37061194 -0.12490195
0.020692049 -0.013568755 -0.14873953 0.5662319 -0.060275 -0.21688859 -0.21227749 -0.054076053
-0.20023908 -0.1272003 -0.21892105 0.13146771 -0.012660833 0.1435025 -0.19924927 -0.18592422
-0.08785557 -0.3065229 -0.104205914 -0.082634225 0.13170296 0.2527752 0.09154833 -0.0139032975
-0.18865383 0.09962081 -0.18116972 -0.10306797 -0.1744928 -0.466212 -0.32811555 -0.6239036
-0.490125 -0.046542082 -0.2489394 -0.09501136 0.03751384 -0.61283314 0.25671986 -0.03777998
-0.1458376 -0.032974232 -0.43661374 -0.63893545 -0.41390592 -0.32301858 0.035247024 0.15201491
0.34171963 -0.47747976 -1.2811148 -0.16367525 -0.28686658 -0.27640605 -0.060256626 -0.07350012
0.029566972 -0.020797137 -0.12714638 -0.1561651 -0.012685625 -0.112106696 -0.12949796 -0.06676426
-0.020203596 0.018548831 -0.09771005 -0.08926727 -0.12897533 -0.15586431 -0.06968166 -0.070517376
-0.053842627 -0.05441824 -0.19070026 0.13585557 0.048111606 -0.053014 -0.100503676 -0.068406954
-0.62046313 -0.3350441 -0.3181187 -0.09667377 0.13951133 -0.006459994 -0.047398284 -0.0504353
-0.3857246 -0.25047258 -0.5721073 0.12754624 -0.3700433 0.029669186 -0.31697473 -0.34468123
-0.04535845 -0.03314081 -0.033121154 -0.021909863 -0.037252918 -0.025267592 0.012656445 0.0147882
-0.056949094 -0.0016296587 0.008400231 -0.0045745713 -0.013486799 -0.012935316 0.0036110224 0.015469168
-0.032901354 -0.0072530103 -0.021246802 -0.034158204 0.001723976 -0.050704602 -0.15859284 -0.3554494
-0.12123603 -0.044646107 0.1050718 -1.1657132 -0.29633835 -0.39712712 0.04262997 -0.22474246
-0.40460142 -0.34737197 -0.682863 -0.28668058 -0.1161257 -0.1254746 -0.023825357 -0.10502155
0.14077842 0.40804732 0.0912231 0.24590622 0.0054158587 0.084778816 -0.3103753 0.33938342
-0.06729754 0.029607369 -0.20027114 0.07938962 -0.1444634 -0.5516419 -0.5416042 -0.085837625
-0.063161865 0.03833968 -0.7264986 -0.6363087 -0.4933113 -0.08371769 0.11190333 -0.22202633
0.22769094 -0.10268352 0.017334143 -0.36274666 -0.10756452 -0.20539418 -0.12892768 0.00025052176
-0.46239245 -0.15474623 -0.16356704 -0.7560799 -0.41419992 0.0924376 0.28724787 -0.674484
-0.3487738 -0.50681233 -0.33192027 -0.15710291 -0.07524806 -0.3110041 -0.049370386 -0.43957147
00000000: 37b7 2abe 1dc9 9bbd a4db a8bd 1d55 e73d
00000010: 450a 78bb 4847 eebd ac09 a9be 563e 9bbc
00000020: bd59 02bf e10d a0bc 2183 f6be af79 4dbe
00000030: e4f5 9abe 53bc 98be 9c61 193d a598 a9be
00000040: 5d95 1ebe eb48 1bbf 7f1f 3fbf b144 2fbe
00000050: a069 72be 4448 23bf 7ce8 7cbe e2d2 92bd
00000060: 4c87 ecbe d779 ecbe 6adb 1abf e8b9 9bbe
00000070: b290 03bf f5bc 36be 81e7 46be a900 a1bc
00000080: 75bd 8d3e 0f3a 423f 4aad 773d d989 60be
00000090: 8078 63be 6e88 5abe 5fff a9be 3568 a6bd
000000a0: ba5f b1bd 75e7 acbe a118 6cbe b421 94be
000000b0: 116b 0e3d f83e f6bd a15a 1f3e e779 8b3d
000000c0: 56eb 80be 281a 313d b053 65be 9c1e a5be
000000d0: 18a8 17be cfb1 8fbe d669 abbe 11d9 33bf
000000e0: 5f11 23bd f0c5 e5be 464c e0be 2e5c 15bf
000000f0: 218d d2bd df90 af3d b65f 863e 9418 30bd
00000100: faa3 62be e0b4 64be b5eb ddbe 621e 60be
00000110: 21e7 6abe c336 86be d9c0 bdbe 98cc ffbd
00000120: 5f82 a93c 7c4f 5ebc 2d4f 18be 93f4 103f
00000130: ebe2 76bd 0b18 5ebe 455f 59be da7e 5dbd
00000140: 790b 4dbe cc40 02be d72c 60be 799f 063e
00000150: 626f 4fbc 52f2 123e 0008 4cbe eb62 3ebe
00000160: 9fed b3bd 92f0 9cbe e969 d5bd 223c a9bd
00000170: 24dd 063e c06b 813e b17d bb3d a8ca 63bc
00000180: 782e 41be ff05 cc3d 8e84 39be 4d15 d3bd
00000190: 3eae 32be 57b3 eebe c3fe a7be 25b8 1fbf
000001a0: aaf1 fabe e9a2 3ebd f8e9 7ebe 5195 c2bd
000001b0: 1da8 193d a2e2 1cbf c970 833e 2ebf 1abd
000001c0: 7456 15be fd0f 07bd d68b dfbe 4691 23bf
000001d0: 7aeb d3be b162 a5be 2f5f 103d cca9 1b3e
000001e0: e0f5 ae3e 3a78 f4be 92fb a3bf 7c9a 27be
000001f0: 2de0 92be 1885 8dbe a7cf 76bd 3b87 96bd
00000200: 6f36 f23c c25e aabc a932 02be bee9 1fbe
00000210: 5ed7 4fbc 3298 e5bd 1d9b 04be b3bb 88bd
00000220: 0382 a5bc b8f3 973c 351c c8bd c2d1 b6bd
00000230: 1c12 04be e59a 1fbe 42b5 8ebd 6a6b 90bd
00000240: 168a 5cbd a9e5 5ebd ee46 43be b91d 0b3e
00000250: ad10 453d 3525 59bd dfd4 cdbd f218 8cbd
00000260: acd6 1ebf e68a abbe 74e0 a2be e6fc c5bd
00000270: 0fdc 0e3e 5bae d3bb b424 42bd 3f95 4ebd
00000280: b27d c5be f13d 80be a075 12bf 7b9b 023e
00000290: 5176 bdbe cb0c f33c 834a a2be 0f7a b0be
000002a0: c8c9 39bd a8be 07bd 0caa 07bd 507c b3bc
000002b0: 8496 18bd fbfd cebc fa5c 4f3c 354a 723c
000002c0: 7443 69bd 469a d5ba 1fa1 093c 49e6 95bb
000002d0: bcf7 5cbc a6ee 53bc e7a6 6c3b 6572 7d3c
000002e0: 92c3 06bd a9aa edbb c60d aebc 79e9 0bbd
000002f0: 09f7 e13a a1af 4fbd 2966 22be 77fd b5be
00000300: 984a f8bd d6de 36bd e22f d73d 1736 95bf
00000310: a9b9 97be 3f54 cbbe c39c 2e3d e322 66be
00000320: eb27 cfbe bdda b1be 1cd0 2ebf ccc7 92be
00000330: 50d3 edbd 6a7c 00be 652d c3bc 8a15 d7bd
00000340: 3828 103e 94eb d03e 2dd3 ba3d d7ce 7b3e
00000350: 8477 b13b 84a0 ad3d 83e9 9ebe aac3 ad3e
00000360: 4bd3 89bd 278b f23c e113 4dbe 0697 a23d
00000370: 37ee 13be 6738 0dbf 93a6 0abf a3cb afbd
00000380: 025b 81bd 110a 1d3d d0fb 39bf 21e5 22bf
00000390: 4c93 fcbe 2e74 abbd 932d e53d df5a 63be
000003a0: d027 693e bd4b d2bd 5500 8e3c eeb9 b9be
000003b0: c94a dcbd da52 52be 9e05 04be 7658 8339
000003c0: b4be ecbe cc75 1ebe 1e7e 27be 748e 41bf
000003d0: 0312 d4be ed4f bd3d 2712 933e fcaa 2cbf
000003e0: 7b92 b2be 74be 01bf 74f1 a9be 96df 20be
000003f0: a81b 9abd ee3b 9fbe 9a38 4abd 830f e1be

fc4.bias f4 [11]
-0.40889785 -0.33841363 -0.40901712 -0.39068496 -0.31155115 -0.5058757 -0.30569053 -0.16029854
-0.21714756 -0.34806985 1.0760509
00000000: 0f5b d1be 8d44 adbe b16a d1be dc07 c8be
00000010: a283 9fbe 1281 01bf 7883 9cbe 4d25 24be
00000020: ee5b 5ebe 3636 b2be 09bc 893f
