code/model.pt (torch, 173037 bytes, 14 tensors)

cnn.0.weight f4 [16, 3, 3, 3]
0	0xbe4427e6	-0.19155845
1	0xbd822da9	-0.06356365
2	0xbe460ad8	-0.19340074
3	0xbe992c3b	-0.29916558
4	0xbd993505	-0.07480816
5	0x3e3691a2	0.17828992
6	0x3dc7f4a8	0.09763461
7	0x3e9fc962	0.3120833
8	0x3e9d9e1a	0.30784684
9	0xbe221998	-0.15830076
10	0xbe75892f	-0.23978113
11	0xbe06465c	-0.13112777
12	0xbe925947	-0.28583738
13	0xbdca9b75	-0.09892932
14	0x3d08668d	0.033300925
15	0x3e4873c9	0.19575419
16	0x3e9adfcd	0.3024887
17	0x3ed69f67	0.4191849
18	0xbdc1aa62	-0.09456326
19	0xbdf1b756	-0.11802547
20	0x3d365248	0.044512063
21	0x3d7cd103	0.061722767
22	0xbdde8f1c	-0.1086714
23	0x3d4094d9	0.047016952
24	0x3baa0161	0.0051881527
25	0xbd26b24e	-0.04069739
26	0x3e07922d	0.13239355
27	0xbe9c4035	-0.30517736
28	0x3e2daeef	0.16961263
29	0xbe5e73f2	-0.21723917
30	0xbe56313e	-0.20917222
31	0x3f48705d	0.7829645
32	0xbe38faa7	-0.18064366
33	0xbe9b9abd	-0.30391493
34	0x3ee001cb	0.43751368
35	0xbe8ec4ac	-0.27884424
36	0xbe9dbdf2	-0.3080898
37	0x3ed39041	0.41320994
38	0xbde90966	-0.11378746
39	0xbd36652e	-0.044530086
40	0x3f1a96a4	0.6038611
41	0xbe679a25	-0.22617395
42	0xbe05316e	-0.13007137
43	0x3ebc5db8	0.36790252
44	0xbeb8d4d3	-0.36099872
45	0xbeb5da08	-0.35517907
46	0x3eb52a98	0.3538406
47	0xbe82d5a5	-0.25553623
48	0xbeba452e	-0.36380905
49	0x3f02e52b	0.5113093
50	0xbe2ae60b	-0.16689317
51	0xbe2465da	-0.16054478
52	0x3f07d018	0.530519
53	0xbea2cace	-0.31795353
54	0x3ebcbc8e	0.36862606
55	0xbe626b19	-0.22111167
56	0xbe0b1f5a	-0.13586178
57	0xbde729b4	-0.11287251
58	0xbd842f73	-0.06454363
59	0x3e0ae589	0.13564123
60	0x3e607725	0.2192045
61	0x3b0706c6	0.0020603403
62	0xbe80971b	-0.25115284
63	0x3e995b46	0.2995245
64	0xbdd6b0b5	-0.10482923
65	0xbeb0c927	-0.34528467
66	0x3d2e574e	0.04256373
67	0x3ca943cd	0.020662213
68	0x3e4a7abf	0.19773386
69	0x3ec95150	0.3931985
70	0xbe50295f	-0.20328282
71	0xbe95722d	-0.29188672
72	0x3e13ab58	0.14420831
73	0xbcd74e5f	-0.026282487
74	0xba988822	-0.001163725
75	0x3d12f8d3	0.03588183
76	0x3cded0db	0.0271992
77	0x3dbc0754	0.09181085
78	0x3d8884f9	0.066659875
79	0xbdf75351	-0.12076438
80	0xbe1d6505	-0.15370567
81	0x3dab41b5	0.08362142
82	0x3e989847	0.29803678
83	0xbe522ccd	-0.20524903
84	0xbdade883	-0.08491614
85	0x3d8ced2b	0.06881174
86	0x3d1fded3	0.03903086
87	0x3d5e5500	0.05428028
88	0x3daaf37f	0.083472244
89	0xbe7fe0a8	-0.24988043
90	0x3dea3abc	0.11436984
91	0x3eb1de34	0.3473984
92	0x3e11ae13	0.1422656
93	0xbc04c4ae	-0.008103533
94	0xbd91d127	-0.07119971
95	0xbdd3b8c9	-0.10337979
96	0x3e25daf3	0.16196804
97	0x3cac4543	0.02102912
98	0xbec4d84f	-0.3844628
99	0xbe2cb6ca	-0.16866603
100	0x3e48847f	0.19581793
101	0xbba585cd	-0.0050513507
102	0xbe0d68ad	-0.13809462
103	0x3cf123ed	0.029436076
104	0xbde24ff2	-0.110504046
105	0x3e13103d	0.14361663
106	0xbd51a151	-0.051179234
107	0xbe32909d	-0.17437978
108	0xbd948c5f	-0.07253336
109	0xbdef86e0	-0.11695647
110	0x3e8801f9	0.26564005
111	0x3df2df11	0.11858953
112	0xbd8ba75b	-0.0681903
113	0x3e64fb65	0.22361524
114	0xbd16beee	-0.03680318
115	0xbdff7ccc	-0.12474975
116	0xbe7baf94	-0.24578696
117	0x3e50bc42	0.20384315
118	0x3c0a1327	0.008427418
119	0x3ed6c0df	0.41944024
120	0x3ea1efd2	0.3162828
121	0x3dcb7c9c	0.09935877
122	0xbdf7d38c	-0.12100896
123	0x3d9143fc	0.07093045
124	0xbe03fae2	-0.12888673
125	0xbeca6b06	-0.39534777
126	0x3ea45746	0.32097834
127	0x3e25fa89	0.16208853
128	0x3f1b07cb	0.60558766
129	0xbd94b3dc	-0.07260868
130	0xbd9ece27	-0.07754164
131	0x3d9ce60a	0.07661064
132	0xbf051cc9	-0.5199705
133	0xbeb9e11d	-0.3630456
134	0xbef33037	-0.47497723
135	0xbe46d672	-0.19417742
136	0x3d91e496	0.071236774
137	0xbf03455e	-0.5127772
138	0xbd8965b8	-0.067088544
139	0x3e0caab9	0.13737
140	0xbc8441ce	-0.01614466
141	0xbdfd17e7	-0.12358075
142	0x3eb4e231	0.3532882
143	0x3e54a249	0.20765032
144	0xbdce4301	-0.10071374
145	0x3e74477e	0.23855397
146	0xbd6681c7	-0.05627611
147	0x3d2d8461	0.042362574
148	0x3e143cda	0.14476338
149	0xbcf47d05	-0.02984477
150	0xbeafd39c	-0.34341133
151	0x3dc952c6	0.09830241
152	0x3eaac733	0.33355102
153	0xbedc9768	-0.43084264
154	0xbe0cc05e	-0.13745257
155	0xbf75cdb0	-0.9601698
156	0x3dbb5d07	0.09148603
157	0xbc88f574	-0.016718604
158	0xbd623e8d	-0.055235434
159	0x3e099419	0.13435401
160	0x3f02d60a	0.5110785
161	0x3f095f6f	0.53661245
162	0x3ae4acf8	0.0017446568
163	0x3e834415	0.2563788
164	0x3cd48cdb	0.025946071
165	0x3da245d5	0.07923476
166	0x3c4be796	0.012445351
167	0xbc2675fe	-0.0101599675
168	0xbeb517b3	-0.35369644
169	0xbe12ed52	-0.14348343
170	0x3e7d9046	0.24762067
171	0x3c86f834	0.016475774
172	0x3ee6f869	0.45111397
173	0x3d250074	0.040283635
174	0xbe2d37e9	-0.1691586
175	0x3e10e340	0.14149189
176	0xbdd12174	-0.10211459
177	0xbea74462	-0.3266936
178	0x3b939cf1	0.004504793
179	0x3d640659	0.055670116
180	0xbd805a89	-0.06267268
181	0x3dd56c3a	0.10421033
182	0x3de85b5d	0.11345551
183	0xbc25bde6	-0.010116076
184	0x3d616ee0	0.05503738
185	0xbbce8780	-0.006302774
186	0xbe949e7e	-0.2902717
187	0xbe0fbe2d	-0.1403739
188	0x3c004c32	0.007830666
189	0x3ec19d69	0.37815407
190	0x3d5452da	0.051836826
191	0x3eb7359c	0.35783088
192	0xbdc9b4ae	-0.09848915
193	0x3cef6708	0.029223934
194	0xbdc3e275	-0.095646776
195	0xbe917ff8	-0.28417945
196	0xbd8216e3	-0.063520215
197	0xbe859eae	-0.26097625
198	0x3e9df819	0.30853346
199	0x3de2619c	0.11053774
200	0x3f045b25	0.51701576
201	0x3e0869b0	0.13321567
202	0xbd7acd63	-0.06123103
203	0x3cbb8b8b	0.022893688
204	0xbeffa450	-0.49930048
205	0xbaed8f6c	-0.0018124408
206	0xbf010070	-0.5039129
207	0x3e9104a0	0.2832384
208	0xbdf529c5	-0.119708575
209	0x3e1220fa	0.14270392
210	0xbc14baf1	-0.009077773
211	0xbcd314a6	-0.025766682
212	0x3cc441a5	0.023957083
213	0xbe3d1d6d	-0.18468256
214	0x3d8158d4	0.06315771
215	0xbe6f0b3e	-0.23344132
216	0xbeb62193	-0.3557249
217	0xbd33b4c3	-0.04387356
218	0x3e4d9295	0.20075448
219	0x3bffe772	0.007809573
220	0x3d373373	0.0447268
221	0x3d03e872	0.0322041
222	0xbe3393c4	-0.17536837
223	0x3d392c66	0.045208357
224	0x3e26f9a5	0.1630617
225	0xbe90d8e2	-0.28290468
226	0xbd13ea11	-0.036111895
227	0x3e252e06	0.16130838
228	0xbd46d1dd	-0.048539985
229	0x3d109666	0.03529968
230	0xbd18d862	-0.037315734
231	0xbe627160	-0.22113562
232	0x3cf9cfc1	0.030494573
233	0x3f001009	0.5002447
234	0xbd318764	-0.04334201
235	0xbde876d5	-0.113507904
236	0x3d37fc57	0.044918384
237	0x3dde2ac3	0.10848
238	0xbd8c0be8	-0.068382084
239	0xbe062b4a	-0.13102451
240	0xbd8fef6c	-0.07028088
241	0x3dcdd39c	0.10050127
242	0x3e178187	0.14795505
243	0xbdb92a9a	-0.09041329
244	0x3e5b6553	0.21425371
245	0xbe85dc83	-0.261448
246	0x3e1beef0	0.15227866
247	0x3da5382f	0.08067357
248	0x3d2561bf	0.04037642
249	0xbe2957b6	-0.16537365
250	0x3d17a934	0.0370266
251	0xbdb09eb7	-0.086240225
252	0xbddf0b34	-0.10890809
253	0xbbe2fdc8	-0.0069272257
254	0xbe783100	-0.24237442
255	0xbe0a3fcf	-0.13500904

cnn.0.bias f4 [16]
0	0xbe1b294d	-0.15152474
1	0xbf0de0ed	-0.55421335
2	0xbdc5d99b	-0.096606456
3	0x3d9538d0	0.07286227
4	0xbf28e7c6	-0.6597866
5	0xbf5c2db3	-0.8600723
6	0x3d44a699	0.048010442
7	0xbd76e529	-0.060277138
8	0xbd90842a	-0.07056458
9	0xbf1cf473	-0.613105
10	0xbdb37cd4	-0.087640435
11	0xbf051a5d	-0.5199335
12	0xbe34dfbd	-0.17663474
13	0xbda0d109	-0.0785237
14	0xbf15d83c	-0.5853307
15	0xbe1e819d	-0.15479131

cnn.4.weight f4 [32, 16, 3, 3]
0	0xbc01bed3	-0.007919031
1	0x3c74364e	0.014905525
2	0x3db164c3	0.08661797
3	0xbdb9a61f	-0.09064888
4	0xbd65ff8a	-0.056151904
5	0x3da21ea0	0.079159975
6	0xbdea416e	-0.11438261
7	0xbbfe9405	-0.00776911
8	0xbb16699a	-0.0022951127
9	0xbb93628f	-0.004497833
10	0xbdc7a4a1	-0.09748197
11	0x3bfaf9cf	0.007659174
12	0xbba9b4b0	-0.0051790103
13	0x3dd193e4	0.10233286
14	0xbca19fb3	-0.01972947
15	0xbd3f37e1	-0.04668415
16	0xbda46f3f	-0.08029031
17	0x3d58163f	0.05275559
18	0xbd009e4d	-0.031400967
19	0xbdf9688e	-0.12178145
20	0xbd85d525	-0.06534795
21	0xbd19361e	-0.037405126
22	0xbda2a84e	-0.07942258
23	0xbd04d0ef	-0.032425817
24	0x3c13296c	0.008982044
25	0xbdbddf13	-0.09271064
26	0xbd77871e	-0.060431592
27	0x3a85b093	0.0010199718
28	0xbce785df	-0.028262077
29	0x3da4d1ab	0.080478035
30	0x3c324b90	0.010882273
31	0x3dd8dbe6	0.10588817
32	0x3d7efa31	0.06225032
33	0xbda604ed	-0.08106408
34	0x3cb9650b	0.022631189
35	0x3d09a43d	0.033603895
36	0xbd487d6f	-0.048947748
37	0x3ca39ad8	0.019971296
38	0xbe127291	-0.14301516
39	0xbeb223ae	-0.34792846
40	0xbd4c299c	-0.04984437
41	0xbd3a8915	-0.045540888
42	0xbeab23a8	-0.3342564
43	0x3d2a6efa	0.04160974
44	0xbe431c44	-0.19053751
45	0xbe2d2232	-0.16907576
46	0xbc9d4071	-0.019195767
47	0xbce70841	-0.028202178
48	0xbe9c389e	-0.30511945
49	0x3de53746	0.11192183
50	0xbe5462f4	-0.20740873
51	0xbe5bc3a0	-0.21461344
52	0x3e004426	0.12525997
53	0xbc96e538	-0.018419847
54	0x3c95f5ef	0.018305747
55	0xbd0029df	-0.03128993
56	0xbc1845a9	-0.009293952
57	0x3d087a2a	0.03331963
58	0x3bc347f7	0.0059595066
59	0xbc7d60b8	-0.015464954
60	0x3dc4d199	0.0961029
61	0xbddc0bcf	-0.1074444
62	0xbc898253	-0.016785776
63	0xbbd4ee76	-0.0064981533
64	0xbdc42f47	-0.0957933
65	0xbd3b2b71	-0.045695726
66	0xbd1bdf87	-0.03805497
67	0xbd809e22	-0.062801614
68	0x39604318	0.00021387299
69	0x3c8144b7	0.015779836
70	0xbcf44ce9	-0.02982183
71	0x3d07f78a	0.033195056
72	0xbd47fab6	-0.04882308
73	0xbe560794	-0.20901328
74	0x3c9329ad	0.017964208
75	0xbbd6540e	-0.006540782
76	0xbda322d8	-0.0796563
77	0x3b9dd8bf	0.004817098
78	0xbd0a34de	-0.033741824
79	0xbdc9e2d1	-0.09857715
80	0xbc9dcfbc	-0.019264095
81	0x3d04cb4f	0.032420453
82	0x3d851676	0.06498425
83	0x3de6dbca	0.1127239
84	0x3d06e50e	0.032933287
85	0x3de06a05	0.109577216
86	0xbc1b8c4a	-0.009493897
87	0xb933193c	-0.00017080171
88	0x3ddd4573	0.10804262
89	0xbdb9060c	-0.090343565
90	0xbdb26e18	-0.08712405
91	0xbdfdeecf	-0.12399065
92	0xbd1efbb9	-0.03881428
93	0xbdceaae8	-0.100911915
94	0xbdc72d6f	-0.09725463
95	0xbc8f2ade	-0.017476495
96	0x3cf65e07	0.030074133
97	0xbe02c108	-0.12768948
98	0xbbbbf513	-0.0057360022
99	0x3d9ce971	0.07661713
100	0xbcde8757	-0.027164144
101	0x3dda346d	0.10654531
102	0x3dd0ab90	0.10188973
103	0xbc1224ed	-0.008919937
104	0xbdd4f68e	-0.10398589
105	0x3d563433	0.052295875
106	0xbd2e8524	-0.04260744
107	0xbe35602a	-0.17712465
108	0x3d82a0be	0.063783154
109	0xbe445311	-0.19172312
110	0xbc07fc4b	-0.008299897
111	0xbd1cff8f	-0.038329657
112	0xbd3d31a1	-0.046189908
113	0x3d216326	0.039401196
114	0xbe305032	-0.17218092
115	0xbddff958	-0.109362304
116	0xbcceab45	-0.025228152
117	0x3c9d0c69	0.019170957
118	0xbe5a33dc	-0.21308845
119	0xbc17dfde	-0.009269683
120	0xbc2fa559	-0.010720574
121	0xbd824586	-0.06360917
122	0xbaeb2ebf	-0.0017943009
123	0xbd47eafe	-0.04880809
124	0xbd92369e	-0.07139324
125	0xbd7d48f2	-0.061837144
126	0x3c0c2550	0.008553818
127	0x3e4e6253	0.20154695
128	0xbc8259eb	-0.015912017
129	0x3dbbdd97	0.09173124
130	0x3d379ef9	0.044829343
131	0xbd45b54f	-0.048268612
132	0xbcd5796a	-0.026058871
133	0x3c59a01c	0.013282802
134	0xbd07906e	-0.033096723
135	0xbdb793f1	-0.089637645
136	0xbe50f931	-0.20407559
137	0xbdc7d465	-0.09757308
138	0xbda40868	-0.08009416
139	0xbd16c239	-0.03680632
140	0xbd227207	-0.039659526
141	0xbca5fd65	-0.02026243
142	0xbdf6a708	-0.120435774
143	0xbd1bbbde	-0.03802096
144	0xbdbaee8c	-0.091275305
145	0xbd096224	-0.03354086
146	0xbd5af293	-0.053453993
147	0xbd7b9976	-0.06142565
148	0xbd07f148	-0.033189088
149	0xbdab885c	-0.08375618
150	0xbd4278b5	-0.047478396
151	0xbd351837	-0.044212546
152	0xbcd9019c	-0.026490025
153	0xbe3b1971	-0.18271424
154	0xbd827325	-0.06369618
155	0xbd209f9c	-0.039214715
156	0x3ccb2f9a	0.024802972
157	0xbd35d7f0	-0.044395387
158	0xbcbac83b	-0.022800555
159	0xbccb5b05	-0.024823675
160	0xbd64ad34	-0.055829242
161	0xbdc372cc	-0.0954338
162	0x3e65457d	0.22389789
163	0x3de3a066	0.11114578
164	0x3e3597d1	0.17733695
165	0x3e2cf621	0.16890766
166	0x3dcd696b	0.100298725
167	0x3d9d1921	0.076708086
168	0x3e3dc8b2	0.1853359
169	0x3d383919	0.044976328
170	0x3dc1b2ac	0.09457907
171	0x3d5a67cd	0.05332165
172	0xbdc97539	-0.098368116
173	0xbd3d7509	-0.04625419
174	0xbd5b346c	-0.05351679
175	0x3c232fb4	0.009960104
176	0x3d22bbca	0.03972987
177	0x3e127d1c	0.14305538
178	0x3bf2c10b	0.0074082664
179	0x3d0b2924	0.03397478
180	0x3d9cd230	0.076572776
181	0xbd5b5a10	-0.053552687
182	0x3b2af44e	0.0026085558
183	0xbe17ee27	-0.14836942
184	0xbe6591b5	-0.22418864
185	0xbea7b812	-0.32757622
186	0xbeeb20e8	-0.45923543
187	0xbe79e3df	-0.24403332
188	0xbef55c5e	-0.47922033
189	0xbccf5608	-0.025309578
190	0xbdb93ce9	-0.09044821
191	0xbe84e288	-0.2595408
192	0xbe99fab9	-0.300741
193	0xbe3aed12	-0.18254498
194	0xbf33667b	-0.7007825
195	0xbed0702a	-0.40710574
196	0x3d019024	0.031631604
197	0xbee9ff04	-0.45702374
198	0xbd5ee986	-0.054421924
199	0x3d52967a	0.051413037
200	0xbcfb3e07	-0.030669225
201	0xbd127689	-0.035757575
202	0x3d330b29	0.043711815
203	0xbd15edc8	-0.03660372
204	0xbdb85d30	-0.09002149
205	0x3e0462a2	0.1292825
206	0xbcd326e6	-0.025775384
207	0xbc9fdb38	-0.019513711
208	0x3c51dd3e	0.012809096
209	0xbd36966b	-0.044577044
210	0xbec4ab4b	-0.38411936
211	0xbe47147a	-0.19441405
212	0xbedd0fda	-0.43176156
213	0xbf3bdf77	-0.73387855
214	0xbf29648d	-0.66169053
215	0xbf2c49f7	-0.6730036
216	0x3d8836b0	0.06651056
217	0x3da8a9bf	0.082355015
218	0x3dc803b4	0.09766331
219	0x3e0d211f	0.13782166
220	0x3da8cd03	0.08242228
221	0x3dd00b9f	0.101584665
222	0x3d54dafe	0.05196666
223	0x3dc84059	0.09777898
224	0x3d8a6a94	0.067586094
225	0xbb8a294e	-0.0042163497
226	0xbe0ee94f	-0.13956188
227	0xbe61201d	-0.21984906
228	0x3c578b28	0.013155736
229	0xbc8ad434	-0.01694689
230	0x3cb887a8	0.022525623
231	0x3e8cc77a	0.2749594
232	0x3d8c534a	0.06851824
233	0xbe5b104a	-0.21392933
234	0x3d70d84f	0.058800038
235	0x3d3c1f88	0.045928508
236	0x3d4aaed8	0.04948315
237	0x3c1ec252	0.009689884
238	0x3db1e0ac	0.08685431
239	0x3dc00a1b	0.093769275
240	0xbd420b1b	-0.047373872
241	0xbbf4038b	-0.0074467114
242	0x3c954830	0.018222898
243	0xbe16fa90	-0.1474402
244	0x3bfaf97a	0.0076591345
245	0xbe15ebf1	-0.14640786
246	0xbdc2c8c5	-0.0951095
247	0xbdb56916	-0.08857934
248	0xbddc2147	-0.10748535
249	0xbe08d9b7	-0.13364302
250	0xbd6ac573	-0.05731721
251	0xbe3b3ad8	-0.18284166
252	0x3bf91b0c	0.007602101
253	0xbdaa6d6a	-0.0832165
254	0xbdc4e5e3	-0.0961416
255	0xbe0eaa09	-0.13932051

cnn.4.bias f4 [32]
0	0x3e8f7bc9	0.28024128
1	0x3de3ab3c	0.11116645
2	0xbd8e163f	-0.06937837
3	0x3cca43b8	0.024690494
4	0x3cf646a7	0.030062987
5	0x3e005b96	0.12534937
6	0xbc45a2d9	-0.012062752
7	0xbe2548b7	-0.1614102
8	0xbc4f1647	-0.012639589
9	0x3d9563f7	0.072944574
10	0x3da08e19	0.07839603
11	0x3d8758e7	0.06608754
12	0x3c917f21	0.017760815
13	0xbba84b16	-0.005135904
14	0xbe3c10fc	-0.18365854
15	0x3dbd04f9	0.09229464
16	0xbe3b011e	-0.18262145
17	0xbda74cdd	-0.081689574
18	0xbd48919d	-0.048966993
19	0xbe36b0a8	-0.17840827
20	0xbdcd861f	-0.10035347
21	0xbde8e2ec	-0.11371407
22	0x3cb985be	0.022646781
23	0xbbc54f6a	-0.00602143
24	0xbd3adc05	-0.045619983
25	0xbd820ffa	-0.063507035
26	0x3b6474c3	0.0034859634
27	0xbe3b850d	-0.18312474
28	0xbe1da4c7	-0.15394889
29	0x3bec9421	0.007219807
30	0xbdaf54bb	-0.08561083
31	0x3b58d139	0.003308369

fc1.weight f4 [11, 672]
0	0xbee2cef1	-0.4429851
1	0xbdb16c0a	-0.08663185
2	0xbf44b69e	-0.7684115
3	0xbd226a01	-0.039651874
4	0x3e5d2075	0.21594413
5	0x3d7873a3	0.060657155
6	0xbd83e189	-0.06439502
7	0x3ebe56bd	0.3717555
8	0xbdb978f6	-0.090562746
9	0xbeaa9d4a	-0.33323127
10	0x3f12db44	0.5736582
11	0x3f6a2eb5	0.9147752
12	0xbf1b96be	-0.6077689
13	0xbf17fb8f	-0.5936822
14	0x3eebbe16	0.46043462
15	0xbea7df66	-0.32787627
16	0xbdb1a8c5	-0.08674768
17	0x3f18b898	0.5965667
18	0xbc59b10d	-0.013286841
19	0xbf8fae5e	-1.1225088
20	0xbef1c5cb	-0.47221217
21	0xbe1eece3	-0.15520053
22	0x3d57c47a	0.05267761
23	0xbf62ee17	-0.88644546
24	0xbf99b5de	-1.2008626
25	0xbe18fa13	-0.14939146
26	0x3df0ada6	0.11751871
27	0xbf15cb7c	-0.5851362
28	0x3ef32318	0.47487712
29	0xbe911dbb	-0.28342995
30	0xbdb5f39e	-0.08884357
31	0x3ef745c9	0.4829543
32	0x3e809a7a	0.25117856
33	0xbd6a9f0e	-0.057280593
34	0xbede31d2	-0.43397385
35	0x3d595773	0.053061914
36	0xbefed503	-0.4977189
37	0x3d908dfe	0.07058333
38	0x3e2be29a	0.1678566
39	0xbf61935d	-0.88115484
40	0x3ec91ea3	0.39281186
41	0xbf196e96	-0.59934366
42	0xbf3a60d7	-0.72804016
43	0xbf95947e	-1.1685941
44	0x3dfaf4b5	0.122537054
45	0xbefdad4a	-0.49546272
46	0x3dcda2e3	0.10040834
47	0xbf354102	-0.7080232
48	0xbff7f944	-1.9372945
49	0xbc76b50a	-0.0150578115
50	0xbb0722c6	-0.0020620092
51	0xbf7f1559	-0.9964195
52	0xbe5bc86e	-0.21463177
53	0xbeb00bf1	-0.3438411
54	0xbef3dae6	-0.47627944
55	0xc01d75b0	-2.460308
56	0xbf39f66c	-0.72641635
57	0x3d53dd26	0.051724575
58	0xbf4a2e30	-0.78976727
59	0xbee13c74	-0.43991435
60	0xbd60513d	-0.054764975
61	0x3f0248c1	0.50892264
62	0xbfb8994e	-1.4421785
63	0xbe2ddd7a	-0.16979018
64	0x3df304f7	0.11866181
65	0xbf7ecc88	-0.9953084
66	0xbcc3013f	-0.023804305
67	0xbf3de4f3	-0.74177474
68	0xbf696bdb	-0.911802
69	0xbe7ec9c7	-0.2488166
70	0x3d62814f	0.0552991
71	0xbeb04d06	-0.34433764
72	0xbed8fed1	-0.4238191
73	0x3d0cc6e0	0.03436935
74	0xbea9d5c7	-0.33170912
75	0x3eddb441	0.43301585
76	0xbec2f09f	-0.38074204
77	0xbf5c4215	-0.86038333
78	0xbfd360bf	-1.65139
79	0xbeaec264	-0.34132683
80	0xbf6463a5	-0.89214545
81	0xbeb4546e	-0.35220665
82	0x3e317d50	0.17332959
83	0x3eb3cd3a	0.35117513
84	0xbe8301d7	-0.2558734
85	0xbf225cdf	-0.6342296
86	0x3e48b8fe	0.19601819
87	0xbfa97753	-1.323954
88	0xbf809042	-1.0044024
89	0xbf6e55a5	-0.93099433
90	0x3c67b14a	0.01414139
91	0x3dd56b0e	0.1042081
92	0xbf3310b4	-0.6994736
93	0xbe9c9d11	-0.30588582
94	0xbf65b658	-0.8973136
95	0x3f3dec65	0.74188834
96	0x3ef24238	0.47316146
97	0x3d969e4b	0.07354411
98	0xbe9ec124	-0.3100673
99	0xbd8af24d	-0.067844965
100	0xbf00896c	-0.5020969
101	0xbfc276f0	-1.5192547
102	0xbe37eec1	-0.17962171
103	0x3e934b33	0.2876831
104	0x3e8269a6	0.25471228
105	0x3ec7950d	0.38980904
106	0xbeb709d5	-0.3574969
107	0xbf9d5fa6	-1.2294815
108	0x3ea257c9	0.317076
109	0x3f5e4163	0.8681852
110	0xbe55f241	-0.20893194
111	0xbea163e6	-0.3152153
112	0xbdca09f7	-0.09865182
113	0x3db9f35e	0.09079622
114	0xbdb63431	-0.088966735
115	0xc08a2859	-4.3174253
116	0xbf6ac8d7	-0.9171271
117	0xbf35d50c	-0.7102821
118	0xbfadd333	-1.3580078
119	0xbe1e86a1	-0.15481044
120	0x3e870b4f	0.26375815
121	0xbfdcb85c	-1.7243762
122	0xbed9e46e	-0.4255709
123	0xc02bcd7b	-2.6844165
124	0x3d9b4861	0.075821646
125	0xbfb58732	-1.4181883
126	0xbf8af004	-1.0854497
127	0x3ea01746	0.31267756
128	0xbf07a793	-0.5299007
129	0xbf104cb5	-0.56367046
130	0xbeef96b7	-0.46794674
131	0xbecb5720	-0.3971491
132	0xbda00fcf	-0.07815515
133	0xbfec7f8a	-1.8476422
134	0x3d7371b0	0.059434593
135	0x3e4ffa1c	0.20310253
136	0xbee1d171	-0.44105104
137	0xbf915443	-1.135384
138	0xbd7cd294	-0.06172426
139	0xbfa64fab	-1.2993063
140	0xbe9ec148	-0.31006837
141	0x3d5c2c03	0.05375291
142	0x3d85524c	0.065098375
143	0xbbe0e3c4	-0.0068630893
144	0x3d5f8f86	0.054580234
145	0xbebf4bfd	-0.37362662
146	0xbf440cad	-0.7658184
147	0xc07aa052	-3.9160352
148	0x3eaaa9b8	0.3333261
149	0xc0125a61	-2.2867663
150	0xc093a419	-4.6137815
151	0xbed72811	-0.42022756
152	0xc0270688	-2.6097736
153	0xbe1051a2	-0.1409364
154	0xc06f117b	-3.735442
155	0xbf537bd8	-0.82610846
156	0xbe90e6b0	-0.28301
157	0xbfc19ef4	-1.5126634
158	0xbe272536	-0.16322789
159	0xc06c3a90	-3.6910744
160	0xbff29def	-1.8954448
161	0xbf819b7f	-1.0125579
162	0xc086e28a	-4.2151537
163	0xbf9c1f66	-1.2197082
164	0xbed1eb04	-0.40999615
165	0xbffc6ae1	-1.9720117
166	0xbdf8d7a5	-0.12150506
167	0x3bcff7cd	0.006346679
168	0xbed2b357	-0.4115245
169	0xbf0a2195	-0.5395749
170	0xbe4db4b9	-0.20088471
171	0xc080f1ff	-4.0295405
172	0xbf7c192c	-0.9847591
173	0xbfc32d82	-1.5248263
174	0xc0528319	-3.2892516
175	0xbf1a80fd	-0.6035307
176	0xbf348c3b	-0.70526475
177	0xbf76bcce	-0.96381843
178	0xbf4f6cb1	-0.81025225
179	0xbe39c356	-0.18140921
180	0xc00e89ba	-2.2271562
181	0x3daffea1	0.085934885
182	0xbf13775b	-0.57603997
183	0xbf61ce04	-0.8820498
184	0xbf7e2784	-0.99279046
185	0x3e882c82	0.26596457
186	0xbf7ad771	-0.9798499
187	0xbf28df21	-0.6596547
188	0xbfea8dc1	-1.832451
189	0xbf86d14a	-1.053262
190	0x3dca06cd	0.098645784
191	0x3f37543f	0.71612924
192	0xbeaddc73	-0.33957252
193	0xbf6b19aa	-0.91836035
194	0xbe684550	-0.2268269
195	0x3effd928	0.49970365
196	0xbe9e84e2	-0.30960757
197	0x3c7609ba	0.015016967
198	0x3d42455d	0.04742943
199	0xbe1dbdc0	-0.15404415
200	0xbdb2bf2d	-0.0872787
201	0x3c50a8ee	0.0127355885
202	0xbf5637d9	-0.83678967
203	0x3ec5400c	0.38525426
204	0x3f2a473b	0.6651494
205	0x3ec7a20c	0.3899082
206	0xbe9eebb2	-0.31039196
207	0x3e3fe905	0.18741234
208	0xbed78e76	-0.42100877
209	0x3f24c68b	0.6436545
210	0xbf19e45f	-0.6011409
211	0xbe5d1b1a	-0.2159237
212	0xb9b56d57	-0.00034604475
213	0x3c1e75aa	0.009671608
214	0x3e712898	0.23550642
215	0x3f046a71	0.51724917
216	0xbe92e8cb	-0.28693232
217	0x3f67f88f	0.90613645
218	0x3e8a3d8a	0.27000076
219	0xbed3af8f	-0.41344878
220	0xbfcfcc6e	-1.6234262
221	0xbec2cd99	-0.38047484
222	0x3f066ce1	0.52509886
223	0xbe8f5bcb	-0.2799972
224	0x3e4e65ae	0.20155975
225	0xbda8d309	-0.08243377
226	0xbed32ecb	-0.41246638
227	0xbf9e0a14	-1.2346826
228	0xbd88f087	-0.06686502
229	0xbf4846c5	-0.78232986
230	0x3f4a1d1e	0.7895068
231	0xbe741111	-0.23834635
232	0x3d4abaae	0.049494438
233	0xbf4baa38	-0.7955661
234	0xbdcb63ba	-0.09931131
235	0xbf06aab3	-0.52604216
236	0xbefeadf5	-0.49742094
237	0x3e17212e	0.14758751
238	0xbecd8084	-0.40137112
239	0x3eb63376	0.35586137
240	0x3e089b12	0.13340405
241	0xbe7724e2	-0.24135163
242	0xbe65ad51	-0.22429396
243	0xbea8ce8b	-0.3297008
244	0x3f22eab6	0.6363939
245	0xbf135423	-0.5755026
246	0xbf7a4fef	-0.9777822
247	0x3f280911	0.65638834
248	0x3e02de8b	0.12780206
249	0xbb91bc65	-0.004447507
250	0xbecea8d2	-0.40363175
251	0xbec79319	-0.38979414
252	0x3e76fa2a	0.24118868
253	0x3e819851	0.2531152
254	0xbcfdfd89	-0.031004684
255	0xbf20ce0e	-0.62814415

fc1.bias f4 [11]
0	0xbf54fa8d	-0.8319481
1	0x3f5f86b7	0.87314934
2	0x3ee4ac95	0.4466292
3	0x3eab70fd	0.3348464
4	0x3dfce36a	0.12348063
5	0xbe95e406	-0.2927553
6	0xbef861c0	-0.48512077
7	0xbf2df0bc	-0.67945457
8	0xbf292da3	-0.6608526
9	0xbf403656	-0.7508291
10	0xc0c9e1c5	-6.3088098

fc2.weight f4 [11, 672]
0	0xbe5307dd	-0.20608468
1	0xbd637c9e	-0.055538766
2	0x3ccd1f12	0.02503923
3	0x3ec5012d	0.3847746
4	0xbe2c79e5	-0.16843374
5	0x3d5e3c0c	0.054256484
6	0xbdf10532	-0.11768569
7	0x3d159257	0.036516514
8	0xbbf6eea0	-0.0075357705
9	0xbdf43858	-0.11924809
10	0xbea2d237	-0.31801006
11	0xbf120ada	-0.5704781
12	0xbef85c3d	-0.48507872
13	0xbc3c8da3	-0.011508378
14	0xbe3a9a53	-0.18222933
15	0x3e4cefa9	0.20013298
16	0xbe989e98	-0.29808497
17	0xbee496d2	-0.44646317
18	0xbdbe1500	-0.09281349
19	0xbe419420	-0.18904161
20	0xbda25433	-0.07926216
21	0xbe25329e	-0.1613259
22	0xbe8274c9	-0.25479725
23	0xbe919fb8	-0.28442168
24	0xbddf4353	-0.10901513
25	0xbf1785be	-0.5918845
26	0xbe8294f2	-0.2550426
27	0xbe6d2913	-0.231602
28	0xbe1a21ef	-0.15052007
29	0xbe609b11	-0.21934153
30	0xbeb3c2df	-0.35109612
31	0x3f24293f	0.64125437
32	0x3f7903f4	0.97271657
33	0xbc1e349e	-0.0096561
34	0xbe00fecd	-0.12597199
35	0xbe064b49	-0.13114657
36	0xbe23ae60	-0.15984488
37	0xbe5ec67f	-0.21755408
38	0xbe9cbe47	-0.3061392
39	0xbf0135a5	-0.5047248
40	0xbe856457	-0.26053116
41	0xbe944d72	-0.28965336
42	0xbeffd707	-0.4996874
43	0xbe87befc	-0.26512897
44	0xbda4c6cc	-0.0804573
45	0x3c1ef3b0	0.009701654
46	0x3dd69490	0.10477555
47	0xbc2fb412	-0.010724084
48	0xbeb70c1a	-0.3575142
49	0xbf01743f	-0.50568
50	0xbeb8d809	-0.36102322
51	0xbdc513cd	-0.09622917
52	0xbe23c72e	-0.1599395
53	0xbb0c15f1	-0.0021375383
54	0xbe541445	-0.20710857
55	0xbec9f70d	-0.39446297
56	0xbeec84fe	-0.46195215
57	0xbeea9725	-0.4581844
58	0xbec30c24	-0.380952
59	0xbecf37cf	-0.40472266
60	0xbe1cc068	-0.15307772
61	0xbf32af56	-0.6979879
62	0xbde88d28	-0.113550484
63	0xbedf3669	-0.435962
64	0xbe0dc14d	-0.1384327
65	0xbedf4fb6	-0.43615502
66	0xbebe67b5	-0.37188497
67	0xbf5f3948	-0.8719678
68	0xbec9dccc	-0.39426267
69	0xbf1bd88a	-0.6087729
70	0xbe66dd7b	-0.22545426
71	0xbe98c854	-0.29840338
72	0xbe5baca6	-0.21452579
73	0x3e25d8d9	0.16196002
74	0x3f05e24c	0.52298427
75	0xb98d7427	-0.00026980156
76	0xbe8c2c4c	-0.27377546
77	0xbe917adb	-0.28414044
78	0xbeaf3bf1	-0.3422542
79	0xbdf7d8ff	-0.121019356
80	0xbe13ca1a	-0.14432564
81	0xbe615d20	-0.2200818
82	0xbe8ec091	-0.27881292
83	0xbed38470	-0.4131198
84	0xbebd431b	-0.3696526
85	0xbdb729bf	-0.08943509
86	0xbe362482	-0.17787364
87	0xbeb032a4	-0.34413636
88	0xbf5b0502	-0.85554516
89	0xbe5c3cfb	-0.21507637
90	0xbf0bee9d	-0.5466097
91	0xbe933640	-0.28752327
92	0xbe67f1de	-0.22650859
93	0xbe44a862	-0.19204858
94	0xbefa968a	-0.48942977
95	0x3e8cbfe3	0.27490148
96	0xbe01601f	-0.12634324
97	0xbda0cd1e	-0.07851623
98	0xbe6a429c	-0.22876972
99	0x3cbd684f	0.023121027
100	0xbd466287	-0.048433807
101	0xbeeee0ac	-0.46655786
102	0xbdcd60f4	-0.10028258
103	0x3d9def88	0.077117026
104	0xbe3d6b12	-0.18497875
105	0xbe507234	-0.20356065
106	0xbe32aea2	-0.1744943
107	0xbe7cd16e	-0.24689266
108	0x3e38ca25	0.18045862
109	0xbea1a80e	-0.31573528
110	0x3ca1cb7e	0.019750353
111	0xbe94611c	-0.2898034
112	0x3e41dc49	0.18931688
113	0xbe0fe3bb	-0.14051716
114	0xbecb603a	-0.39721853
115	0xbfa05b24	-1.2527814
116	0xbec5cdb3	-0.386335
117	0xbc77104f	-0.015079572
118	0xbdbfe693	-0.093701504
119	0xbcd0beb1	-0.025481554
120	0xbe931448	-0.2872641
121	0xbe83de8e	-0.25755733
122	0x3ea2a8b8	0.31769347
123	0xbf02b39a	-0.510553
124	0xbe997746	-0.2997381
125	0xbd9e184f	-0.0771948
126	0xbf0395e2	-0.5140058
127	0xbf282404	-0.65679955
128	0xbeb7a46a	-0.35867625
129	0xbdebff46	-0.11523299
130	0xbe89277c	-0.26787937
131	0xbe6bd8c8	-0.23031914
132	0xbf33a2b8	-0.70170164
133	0xbf28929e	-0.6584872
134	0xbeb26057	-0.34839126
135	0xbe01604d	-0.12634392
136	0xbe872db6	-0.26402062
137	0xbf79e577	-0.9761576
138	0xbea4477a	-0.32085782
139	0xbeca716f	-0.39539668
140	0xbed8ee86	-0.4236948
141	0xbe6a8fb5	-0.22906382
142	0xbe493b7e	-0.196516
143	0xbc98aec9	-0.018638032
144	0x3d8a53cb	0.067542635
145	0xbebda32d	-0.37038556
146	0xbe924974	-0.28571665
147	0xbf01a1b0	-0.5063734
148	0xbf179b4a	-0.5922133
149	0xbeb949dd	-0.36189166
150	0xbe9db9d5	-0.3080584
151	0xbe8441b6	-0.25831383
152	0xbefc9223	-0.49330243
153	0xbf43575f	-0.7630519
154	0xbf2b73f8	-0.6697383
155	0xbf7130f4	-0.9421532
156	0xbeb84a19	-0.35994032
157	0xbf8d0501	-1.1017152
158	0xbd9f3e28	-0.07775527
159	0xbe5e5f92	-0.21716145
160	0xbf471b12	-0.7777568
161	0xbf2da1f8	-0.6782527
162	0xbf151842	-0.5824014
163	0xbe4d0d92	-0.20024708
164	0x3e01c22b	0.12671725
165	0xbe351cb9	-0.17686738
166	0xbcc7e67f	-0.024401901
167	0xbf1f4865	-0.6221984
168	0xbf152e92	-0.58274186
169	0xbecf42aa	-0.40480548
170	0xbed7bf5b	-0.4213818
171	0xbf26c65a	-0.6514641
172	0xbf156bc3	-0.58367556
173	0xbf2a5b19	-0.66545254
174	0xbf193af4	-0.5985558
175	0xbf204e5f	-0.62619585
176	0xbedf884a	-0.43658668
177	0xbdd37808	-0.103256285
178	0xbf98c5f0	-1.1935406
179	0xbe594a2f	-0.21219705
180	0xbe30bdff	-0.17259978
181	0xbea0f14a	-0.3143409
182	0xbf41a348	-0.7563977
183	0xbeba57b1	-0.36395028
184	0xbd90228d	-0.0703784
185	0xbe82f0d7	-0.2557437
186	0xbf1062d6	-0.5640081
187	0xbea8019e	-0.32813734
188	0xbed48bea	-0.41512996
189	0xbe951836	-0.29120034
190	0xbe939de3	-0.28831396
191	0xbe1bbd19	-0.15208854
192	0xbe408aa9	-0.18802895
193	0xbdc90dff	-0.09817123
194	0xbed149eb	-0.40876707
195	0xbcd64aae	-0.026158657
196	0xbd8571e9	-0.06515867
197	0xbea42965	-0.32062832
198	0xbee57faf	-0.44823977
199	0xbe84c897	-0.25934288
200	0xbf13551f	-0.5755176
201	0xbe327e96	-0.17431101
202	0xbdffbb27	-0.12486868
203	0xbeba2f84	-0.36364377
204	0xbeebf5a7	-0.46085855
205	0xbe7357b1	-0.2376392
206	0xbd7829c9	-0.060586724
207	0x3dab551d	0.083658434
208	0xbd7b8294	-0.061403826
209	0xbe8abfe1	-0.27099517
210	0xbdd19757	-0.10233944
211	0xbe63a91b	-0.22232477
212	0xbe697359	-0.22797908
213	0xbd2bd614	-0.041952208
214	0xbf2f1aab	-0.6840007
215	0xbe33722e	-0.17524025
216	0xbe0ddfd5	-0.13854916
217	0xbe349794	-0.17635947
218	0xbc9938d6	-0.01870386
219	0xbec3725a	-0.3817318
220	0xbf83bbb4	-1.0291657
221	0xbe2f5fcb	-0.17126386
222	0xbe512531	-0.20424344
223	0x3e1758fc	0.14780039
224	0xbe23a8e0	-0.1598239
225	0xbe2e9c2a	-0.1705176
226	0xbebf0a96	-0.37312764
227	0xbf2f4de6	-0.6847824
228	0xbe164692	-0.14675358
229	0xbcc66ffa	-0.024223316
230	0xbe43b354	-0.19111377
231	0xbe5cf735	-0.21578677
232	0xbe80796e	-0.25092643
233	0xbe77589f	-0.241549
234	0x3e1c33d8	0.15254152
235	0x3dc56a95	0.096394695
236	0xbe3beb28	-0.18351424
237	0xbe69a00c	-0.2281496
238	0xbe08ce2a	-0.13359895
239	0xbe9ae4b5	-0.30252615
240	0xbedc650f	-0.43045852
241	0xbde00af0	-0.10939586
242	0xbeb9bd11	-0.3627706
243	0xbef799bc	-0.48359478
244	0xbde0eddd	-0.10982869
245	0xbe606926	-0.21915111
246	0xbe27d6e5	-0.1639057
247	0xbeaa74dc	-0.33292282
248	0x3d268390	0.04065281
249	0xbe93c429	-0.28860596
250	0xbe12d31e	-0.14338347
251	0xbea89246	-0.32924098
252	0xbe127df5	-0.14305861
253	0xbe37d958	-0.17954004
254	0xbe1eaab6	-0.15494809
255	0xbea57119	-0.3231285

fc2.bias f4 [11]
0	0x3e726c5a	0.23674145
1	0x3e535a01	0.20639803
2	0x3e3ff5e2	0.1874614
3	0x3e48eb97	0.1962112
4	0xbc661528	-0.01404313
5	0x3e2cce23	0.1687551
6	0xbd25b1a0	-0.0404526
7	0xbda5fbb0	-0.08104646
8	0xbe9c48f7	-0.30524418
9	0xbdd36fb1	-0.10324038
10	0xbf328f64	-0.69750047

fc3.weight f4 [11, 672]
0	0x3d976afc	0.073934525
1	0x3e214737	0.15749823
2	0xbe1628a6	-0.14663944
3	0x3e9d333d	0.30703154
4	0x3dd3ed27	0.103479676
5	0x3c96b202	0.018395428
6	0xbe76ad9a	-0.24089661
7	0xbe9cc11c	-0.3061608
8	0x3d9c85c6	0.07642703
9	0xbf1d6741	-0.6148568
10	0xbed1f4af	-0.4100699
11	0xbf0da87b	-0.55335206
12	0xbe987447	-0.29776213
13	0xbea3fd6c	-0.32029283
14	0xbe3d0d44	-0.18462092
15	0xbe3212d4	-0.17389995
16	0xbead8297	-0.33888695
17	0xbf4247f9	-0.7589107
18	0xbe0a3426	-0.13496456
19	0xbe61a6cb	-0.22036283
20	0xbdb3b261	-0.087742575
21	0xbe9c3910	-0.30512285
22	0xbdee70bd	-0.11642597
23	0xbf0b7d87	-0.54488415
24	0xbed2d05b	-0.41174588
25	0xbec2b9f2	-0.3803249
26	0xbeb50bc1	-0.3536053
27	0xbebc2f19	-0.36754683
28	0xbf0af354	-0.5427754
29	0xbe9425e2	-0.28935152
30	0xbd4889a9	-0.048959408
31	0xbe710e8c	-0.23540705
32	0x3f5fc80f	0.8741464
33	0x3f11bb05	0.56925994
34	0xbedd42fc	-0.43215168
35	0xbe60e17a	-0.21961012
36	0xbd9d8430	-0.076912284
37	0xbeac055a	-0.33597833
38	0xbef2f538	-0.47452712
39	0xbef63dfb	-0.48094162
40	0xbef1edad	-0.47251645
41	0xbe9a19c7	-0.30097792
42	0xbf80e99e	-1.0071294
43	0xbf461c9f	-0.7738742
44	0xbf008bec	-0.50213504
45	0xbf122d36	-0.57100236
46	0xbd980aba	-0.07423921
47	0xbd53772c	-0.051627323
48	0xbf3b6c65	-0.7321227
49	0xbf3167ec	-0.692992
50	0xbe95a30d	-0.2922596
51	0xbf01dadf	-0.50724596
52	0xbf23849c	-0.6387422
53	0xbeb58d3e	-0.35459322
54	0xbdd07208	-0.10178
55	0xbf1de348	-0.6167493
56	0xbf13106f	-0.5744695
57	0xbf28c462	-0.65924656
58	0xbf44cd3b	-0.76875657
59	0xbe89e617	-0.26933357
60	0xbf08b3e8	-0.53399515
61	0xbf7b435e	-0.9814967
62	0xbf34f5c1	-0.7068749
63	0xbf073948	-0.5282178
64	0xbf225ead	-0.63425714
65	0xbf37f937	-0.71864647
66	0xbe898c31	-0.2686477
67	0xbfc919e6	-1.5711029
68	0xbf804f57	-1.0024213
69	0xbf02e8ac	-0.5113628
70	0xbf16f4f8	-0.5896754
71	0xbea2248c	-0.31668508
72	0xbda5f17c	-0.081027
73	0xbeebe637	-0.46074077
74	0x3d115444	0.035480753
75	0x3e5b3e44	0.21410471
76	0xbeb0ceeb	-0.34532866
77	0xbf13053b	-0.57429856
78	0xbeb8b8ee	-0.3607859
79	0xbe889eea	-0.26683742
80	0xbea7a421	-0.32742408
81	0xbe835b15	-0.25655428
82	0xbe71ce17	-0.23613773
83	0xbf4ce413	-0.80035514
84	0xbe9ecb7c	-0.3101462
85	0xbf158543	-0.58406466
86	0xbe2e161f	-0.17000626
87	0xbf161c72	-0.58637154
88	0xbeca90ae	-0.39563507
89	0xbf14fbd0	-0.58196735
90	0xbf1527e2	-0.5826398
91	0xbe44a7e9	-0.19204678
92	0xbe9e9027	-0.30969355
93	0xbe199c1c	-0.15000957
94	0xbea2d11b	-0.3180016
95	0xbf523127	-0.8210625
96	0xbdf9b23b	-0.12192198
97	0xbe566c0f	-0.20939659
98	0xbe95fad1	-0.2929292
99	0xbe4dc2df	-0.20093869
100	0xbe0e3ba3	-0.13889937
101	0xbee45668	-0.44597173
102	0xbf280fdc	-0.656492
103	0xbd50b47b	-0.05095337
104	0xbd892292	-0.06696047
105	0xbeabd1a9	-0.33558396
106	0xbedab382	-0.4271508
107	0xbf1b909d	-0.6076754
108	0x3c08a40e	0.008339895
109	0xbeeecdb4	-0.46641314
110	0xbf133df4	-0.5751641
111	0xbb9c3d70	-0.004768066
112	0xbec1dd2c	-0.37864053
113	0xbe7d3368	-0.24726641
114	0xbeec7f5e	-0.46190923
115	0xc0046064	-2.0683832
116	0xbf6e9614	-0.9319775
117	0xbe785dae	-0.24254486
118	0xbe410bda	-0.18852177
119	0x3e167c04	0.14695746
120	0xbee86dd7	-0.453963
121	0xbf30066a	-0.6875979
122	0xbf8befd0	-1.093256
123	0x3c96ffac	0.01843246
124	0xbece5f3b	-0.4030703
125	0xbebe39a3	-0.37153348
126	0xbf5f5699	-0.8724151
127	0xbf336115	-0.7007001
128	0xbf0f9278	-0.5608287
129	0xbf23b8ce	-0.63953865
130	0xbeb33916	-0.3500449
131	0xbee7bf17	-0.45262977
132	0xbf540605	-0.82821685
133	0xbf2cfbdb	-0.675718
134	0xbee89261	-0.45424178
135	0xbecc876c	-0.3994707
136	0xbe7f1cc2	-0.24913314
137	0xbf390c2b	-0.7228419
138	0xbf22dbf9	-0.636169
139	0xbf2831b9	-0.6570087
140	0xbf5b7861	-0.8573056
141	0xbf5ea9d2	-0.86977875
142	0xbe32db93	-0.17466573
143	0xbeabf99c	-0.33588874
144	0xbdb60113	-0.08886924
145	0xbe769a3f	-0.24082278
146	0xbf2b4f02	-0.6691743
147	0xbf5c4517	-0.8604292
148	0xbf09cd0b	-0.53828496
149	0xbf2b7f45	-0.6699107
150	0xbf6b28d2	-0.9185916
151	0xbe868214	-0.26271117
152	0xbf835912	-1.0261557
153	0xbf710a7e	-0.94156635
154	0xbf67d34c	-0.9055679
155	0xbf2a990d	-0.66639787
156	0xbf3ee6f1	-0.7457114
157	0xbf293d0e	-0.6610879
158	0xbf2216c7	-0.63316005
159	0xbf0e4d98	-0.5558715
160	0xbf96fede	-1.1796529
161	0xbf840e7b	-1.0316919
162	0xbf07b2e1	-0.5300732
163	0xbf256cb7	-0.6461901
164	0xbf150de5	-0.58224326
165	0xbd7fe3a0	-0.06247294
166	0xbe857c10	-0.26071215
167	0xbf1190e5	-0.56861717
168	0xbf68ee0f	-0.9098825
169	0xbf32b872	-0.6981269
170	0xbf0378dd	-0.513563
171	0xbf158f93	-0.584222
172	0xbf653ffb	-0.8955075
173	0xbf55b947	-0.83485836
174	0xbf3c4926	-0.73549116
175	0xbf3ff41d	-0.7498186
176	0xbf6c6bcc	-0.92351985
177	0xbee73945	-0.4516088
178	0xbef0a2ae	-0.46999115
179	0xbf95cc94	-1.1703057
180	0xbea9f47c	-0.3319434
181	0xbf35f9ee	-0.7108449
182	0xbf660fac	-0.89867663
183	0xbf1a36e7	-0.60240024
184	0xbe5331c9	-0.2062446
185	0xbe421ea4	-0.18957001
186	0xbe8556c6	-0.26042765
187	0xbec18dbf	-0.37803456
188	0xbf69200b	-0.9106452
189	0xbf1d1a61	-0.61368376
190	0xbf1feb5a	-0.62468493
191	0xbe9e537b	-0.30923066
192	0xbea2ec28	-0.31820798
193	0xbea827ad	-0.3284277
194	0xbf19afcd	-0.60033876
195	0xbeb060e1	-0.34448913
196	0xbed686c8	-0.41899705
197	0xbed2fc2d	-0.4120802
198	0xbeb31375	-0.34975782
199	0xbebda3bf	-0.3703899
200	0xbeecb2f6	-0.46230286
201	0xbf08391b	-0.53212136
202	0xbea5062d	-0.32231274
203	0xbebc4207	-0.36769125
204	0xbf066da4	-0.5251105
205	0xbe84ba5c	-0.2592343
206	0xbee8134a	-0.45327216
207	0xbe39e306	-0.18153009
208	0x3d5bfc69	0.053707514
209	0xbe31fe2b	-0.17382114
210	0xbec54bdf	-0.38534448
211	0xbf044001	-0.5166016
212	0xbf1bd382	-0.6086961
213	0xbf2c983e	-0.67419803
214	0xbea551d3	-0.3228899
215	0xbf1fdecd	-0.6244934
216	0xbe9cc3c2	-0.306181
217	0x3d28d106	0.041214965
218	0xbf07e69d	-0.5308626
219	0xbecd44ab	-0.40091452
220	0xbf03b7e0	-0.51452446
221	0xbf65c88c	-0.89759135
222	0xbee65d51	-0.4499307
223	0xbdd96c2b	-0.106163345
224	0xbec36873	-0.38165626
225	0xbee34d2e	-0.4439482
226	0xbf17482f	-0.5909452
227	0xbe436081	-0.19079782
228	0xbf1e7af2	-0.6190635
229	0xbd954a1d	-0.072895266
230	0xbeb7efbc	-0.3592509
231	0xbf427247	-0.75955623
232	0xbe7f6ecf	-0.24944614
233	0xbeca615d	-0.39527407
234	0xbe956738	-0.29180312
235	0xbea686aa	-0.32524616
236	0xbdb9d1e3	-0.09073236
237	0xbf01eb24	-0.5074942
238	0xbf05f12e	-0.52321136
239	0xbeaa6ebc	-0.3328761
240	0xbecde70a	-0.4021533
241	0xbf079d27	-0.5297417
242	0xbe4dc4fd	-0.20094676
243	0xbe8fce95	-0.28087297
244	0xbea82d71	-0.3284717
245	0xbef4f372	-0.47841984
246	0xbed58af8	-0.41707587
247	0xbea827e4	-0.32842934
248	0xbf11c0ec	-0.56935
249	0xbe1142e1	-0.14185669
250	0xbea206b0	-0.31645727
251	0xbf120c10	-0.57049656
252	0xbedbc488	-0.4292338
253	0xbde85c11	-0.11345685
254	0xbd5e691d	-0.054299463
255	0xbe9b20ab	-0.3029836

fc3.bias f4 [11]
0	0x3e4d4c7a	0.20048705
1	0xbe964e60	-0.2935667
2	0xbe92c35c	-0.28664672
3	0xbe6d14c4	-0.23152453
4	0xbe9c051b	-0.30472645
5	0xbd8c0f6f	-0.06838881
6	0xbee68ece	-0.45030826
7	0xbe882193	-0.26588115
8	0xbef66e70	-0.48131132
9	0xbf0864e9	-0.53278977
10	0x3f861443	1.0474933

fc4.weight f4 [11, 672]
0	0xbe2dfa9f	-0.16990136
1	0xbe219b98	-0.1578201
2	0xbf1ac81f	-0.6046161
3	0x3e8c3443	0.27383623
4	0xbf0f853a	-0.5606266
5	0x3e2ed244	0.17072397
6	0xbea6fe5c	-0.32615936
7	0x3d807618	0.062725246
8	0xbeb95134	-0.36194766
9	0xbf15282d	-0.5826443
10	0xbf82da52	-1.0222876
11	0xbf998b6b	-1.1995672
12	0xbc6c7dae	-0.014434261
13	0xbebbe960	-0.36701488
14	0xbd9c0f89	-0.076201506
15	0xbbabe196	-0.005245398
16	0xbf8c7099	-1.0971862
17	0xbfd7327c	-1.6812282
18	0xbf88b1f9	-1.0679313
19	0xbf232244	-0.6372416
20	0xbe980e93	-0.2969862
21	0xbf733d30	-0.9501524
22	0xbef9cb2e	-0.48787826
23	0xbebed89c	-0.37274635
24	0xbf5aa67e	-0.85410297
25	0xbf2ea0df	-0.6821422
26	0xbf30ef21	-0.6911488
27	0xbed56547	-0.4167883
28	0xbf6815f1	-0.9065848
29	0xbeb5bb97	-0.35494682
30	0xbf2c5692	-0.67319596
31	0xbf0364b7	-0.51325554
32	0xbdd2432d	-0.10266719
33	0x3f706f77	0.9392008
34	0xbeb3696e	-0.35041374
35	0xbee79bf0	-0.45236158
36	0xbf1c3d07	-0.6103062
37	0xbf4613ab	-0.7737376
38	0xbf9900f7	-1.195342
39	0xbf1c82c0	-0.6113701
40	0xbfa2c58a	-1.2716534
41	0xbef6c9bb	-0.48200783
42	0xbf60ddae	-0.87838256
43	0xbeba0ae8	-0.36336446
44	0xbee4614f	-0.4460549
45	0xbef030be	-0.46912187
46	0xbf433164	-0.7624724
47	0xbe7ec2f7	-0.2487906
48	0xbeeb773c	-0.45989406
49	0xbfda3010	-1.7045918
50	0xbfcb10dc	-1.586452
51	0xbf1f2304	-0.62162805
52	0xbf489493	-0.78351706
53	0xbfb7e401	-1.4366456
54	0xbf0cd87f	-0.55017847
55	0xbf91bbae	-1.13854
56	0xbf9782e0	-1.1836815
57	0xbe9bdded	-0.30442753
58	0xbf7d55e5	-0.9895919
59	0xbf46cab8	-0.77653074
60	0xbf88d038	-1.0688543
61	0xbf992033	-1.1962951
62	0xbf90c50f	-1.1310138
63	0xbf32a181	-0.69777685
64	0xbfad51ed	-1.3540627
65	0xbfb9f293	-1.4527153
66	0xbfae6f48	-1.362771
67	0xbf846387	-1.0342873
68	0xbfd8b60d	-1.6930557
69	0xbf8b7e17	-1.0897855
70	0xbf9e02f2	-1.2344649
71	0xbf2ec739	-0.6827274
72	0xbe34a55c	-0.17641205
73	0xbee9cc2f	-0.45663592
74	0xbf358217	-0.70901626
75	0x3ecdd136	0.40198678
76	0xbf83bd82	-1.0292208
77	0xbf605ab5	-0.8763841
78	0xbf528f8a	-0.82250273
79	0xbf020345	-0.5078624
80	0xbf6654cc	-0.8997314
81	0xbf448150	-0.76759815
82	0xbf54de66	-0.83151853
83	0xbedfb509	-0.43692806
84	0xbf3ee340	-0.74565506
85	0xbf25542e	-0.64581573
86	0xbf94b880	-1.1618805
87	0xbf92b688	-1.1461954
88	0xbd956c52	-0.07296051
89	0xbf30daf2	-0.69084084
90	0xbf26f11a	-0.6521164
91	0xbf337e1c	-0.701143
92	0xbe8aee21	-0.27134803
93	0xbec8abe7	-0.3919365
94	0xbf84f46c	-1.0387092
95	0xbedef86e	-0.43548912
96	0xbee93026	-0.45544547
97	0xbe8e537f	-0.27798077
98	0xbf7a2383	-0.97710437
99	0xbebf2106	-0.37329882
100	0xbecfb343	-0.40566453
101	0xbf19f060	-0.6013241
102	0xbf321a3b	-0.69571275
103	0xbf524761	-0.82140166
104	0xbdff1ceb	-0.124566875
105	0xbe88492c	-0.26618326
106	0xbf10adb3	-0.56515044
107	0xbcedf9ec	-0.029049836
108	0xbf77abb7	-0.9674639
109	0xbfe09b16	-1.7547328
110	0xbeddd44b	-0.4332603
111	0xbf64f742	-0.89439785
112	0xbf105a27	-0.5638756
113	0xbe88cee3	-0.26720342
114	0xbf54d777	-0.83141273
115	0xc031ce75	-2.7782261
116	0xbeff33fb	-0.49844345
117	0xbfb9f799	-1.4528686
118	0xbf63eb07	-0.890305
119	0xbe38301c	-0.17987102
120	0xbec673a6	-0.38760108
121	0xbf87d233	-1.0611023
122	0xc0837a98	-4.108715
123	0xc0119f34	-2.275342
124	0xbfa4a574	-1.2862992
125	0xbd555520	-0.052083135
126	0xbfc201b8	-1.5156775
127	0xbfb87acd	-1.4412476
128	0xbeff96a3	-0.49919614
129	0xbf1efb16	-0.62101877
130	0xbf8cee28	-1.101018
131	0xbf8991de	-1.074764
132	0xbf82a02f	-1.0205134
133	0xbfd21a77	-1.6414326
134	0xbf450042	-0.7695352
135	0xbf94ae7c	-1.1615748
136	0xbf6c841f	-0.923891
137	0xbf93c090	-1.154314
138	0xbfe6b922	-1.8025248
139	0xbfde5be2	-1.737179
140	0xbfd92fbf	-1.6967696
141	0xbf9e9dc6	-1.2391899
142	0xbf07adee	-0.5299977
143	0xbf957549	-1.1676418
144	0xbf45da6f	-0.7728643
145	0x3d9ed48d	0.077553846
146	0xbf5c66c4	-0.8609431
147	0xbfc9562a	-1.572942
148	0xc007317b	-2.112395
149	0xc02d3903	-2.7066047
150	0xbf953976	-1.1658161
151	0xbfb24fc7	-1.3930596
152	0xbf1f5283	-0.6223528
153	0xbff9dfb3	-1.9521393
154	0xbfd57e30	-1.6679134
155	0xbfc831ab	-1.5640157
156	0xbf6cc7ae	-0.9249219
157	0xbfb83a9e	-1.4392889
158	0xbf867a18	-1.050601
159	0xc0027b0d	-2.0387604
160	0xbff5349f	-1.9156684
161	0xc02d698f	-2.7095678
162	0xbf3840c8	-0.7197385
163	0xbf984277	-1.1895283
164	0xbfc713e6	-1.5552948
165	0xbf692774	-0.91075826
166	0xbf092621	-0.53573805
167	0xbf25f55a	-0.648275
168	0xc01e975c	-2.4779882
169	0xbf5a804e	-0.8535203
170	0xbef18f13	-0.4717947
171	0xbf5420cb	-0.8286254
172	0xbfb9c6e7	-1.4513825
173	0xbfc923b9	-1.5714027
174	0xbfa23c47	-1.2674645
175	0xbfac83b3	-1.3477691
176	0xbf1dfc61	-0.61713225
177	0xbf3ae422	-0.73004353
178	0xbf7e3c9b	-0.99311227
179	0xbfd6a8af	-1.6770228
180	0xbfb1dd8f	-1.3895739
181	0xbf9857b6	-1.1901767
182	0xbf4e72b8	-0.80643797
183	0xbf28bd7f	-0.6591415
184	0xbf1e914d	-0.6194046
185	0xbf41d493	-0.7571499
186	0xbf836d06	-1.0267646
187	0xbf83d9ab	-1.0300802
188	0xbf8ea7fd	-1.1145016
189	0xbf83a3f5	-1.0284411
190	0xbf65af36	-0.89720476
191	0xbf98802d	-1.1914116
192	0xbf846062	-1.0341914
193	0xbf8f1103	-1.1177067
194	0xbfb0031e	-1.3750951
195	0xbfc04b07	-1.5022897
196	0xbf974788	-1.1818705
197	0xbfb7bc57	-1.4354352
198	0xbefa66e5	-0.48906627
199	0xbf937814	-1.152102
200	0xbf5fd358	-0.8743186
201	0xbeca9254	-0.39564764
202	0xbf8915d4	-1.0709786
203	0xbf65b72a	-0.8973261
204	0xbf41ed04	-0.7575228
205	0xbe9bad93	-0.30405864
206	0xbea175eb	-0.31535277
207	0xbeb54161	-0.35401443
208	0xbd28131c	-0.04103385
209	0xbe902c71	-0.28158906
210	0xbfab333b	-1.3375009
211	0xbf18426e	-0.59476364
212	0xbf96057d	-1.1720425
213	0xbf9f7cac	-1.2459922
214	0xbec2e9bc	-0.3806895
215	0xbf2be129	-0.6714044
216	0xbf415cd2	-0.7553226
217	0xbf2f9c7d	-0.6859816
218	0xbf9e19bc	-1.2351604
219	0xbf03868e	-0.5137719
220	0xbf622380	-0.8833542
221	0xbfef2709	-1.8683788
222	0xbf883bf0	-1.0643291
223	0x3d871c50	0.06597197
224	0xbef1c6b9	-0.47221926
225	0xbf4a8856	-0.7911428
226	0xbf8b93de	-1.09045
227	0xbf0c771a	-0.54869235
228	0xbf9ce7dd	-1.2258259
229	0xbefce646	-0.49394435
230	0xbea7a740	-0.3274479
231	0xbf6b542a	-0.919253
232	0xbfa1a5cf	-1.2628726
233	0xbeee8617	-0.46586677
234	0xbf17dd48	-0.59322023
235	0xbf0fbccf	-0.56147474
236	0xbe1aac50	-0.15104795
237	0xbf2a6e8f	-0.6657495
238	0xbe2a6c6c	-0.16642922
239	0xbf7ac077	-0.9794993
240	0xbfb8ab7a	-1.442733
241	0xbf98834b	-1.1915067
242	0xbf6f343a	-0.93439066
243	0xbefbdd1c	-0.4919213
244	0xbfa70d99	-1.3051025
245	0xbf4e0efa	-0.804916
246	0xbf97f725	-1.1872298
247	0xbf8efc5f	-1.1170768
248	0xbf9ede93	-1.2411674
249	0xbf680e15	-0.9064649
250	0xbf1599c8	-0.58437777
251	0xbe87a4dd	-0.26492968
252	0xbf295486	-0.661446
253	0xbf19e1c6	-0.6011013
254	0xbf16b050	-0.5886278
255	0xbf878cbd	-1.0589825

fc4.bias f4 [11]
0	0xbf2ab9c8	-0.6668973
1	0xbf70cacb	-0.9405944
2	0xbf9ba822	-1.2160685
3	0xbf6a6bae	-0.91570556
4	0xbf496695	-0.7867215
5	0xbfaedcce	-1.3661134
6	0xbf8ba053	-1.0908302
7	0xbf5e3a87	-0.86808056
8	0xbf1acaf5	-0.6046594
9	0xbf924f7d	-1.1430508
10	0x403b08e4	2.9224176

fc5.weight f4 [11, 672]
0	0xbfe09eff	-1.7548522
1	0xbfda2932	-1.7043822
2	0xc0047d4c	-2.0701475
3	0xbff27d69	-1.8944522
4	0xbffaaaf2	-1.9583418
5	0xc027d8c7	-2.622606
6	0xbf95d45d	-1.1705433
7	0xc0987574	-4.7643375
8	0xc05601ca	-3.3438592
9	0xc0796d96	-3.8973136
10	0xc025ca72	-2.5904813
11	0xc045641a	-3.0842347
12	0xc0a7c424	-5.242693
13	0xbf5412f7	-0.8284144
14	0xc08d7f50	-4.421791
15	0xc03a2b4d	-2.9088929
16	0xc0546a45	-3.3189862
17	0xc00b7ced	-2.1794999
18	0xc054c727	-3.3246553
19	0xc09873f1	-4.764153
20	0xbf7cd11e	-0.9875659
21	0xbf499744	-0.7874644
22	0xbffd66fc	-1.9797053
23	0xbfd3b60f	-1.6539935
24	0xbfe1d4ae	-1.764303
25	0xc015e174	-2.3418856
26	0xc050a441	-3.2600253
27	0xbfa22cf2	-1.2669966
28	0xbe72467a	-0.23659697
29	0xbff1979c	-1.8874393
30	0xbea0a8bf	-0.31378743
31	0xbeb51afb	-0.35372147
32	0xbfac6efe	-1.3471372
33	0x3d3170bc	0.043320403
34	0xbfd991ec	-1.6997657
35	0xbf49e9e2	-0.788725
36	0xc03d78a9	-2.9604895
37	0xbf41d1cf	-0.7571077
38	0xbee5e849	-0.44903782
39	0xbfde13e7	-1.7349824
40	0xbf50beed	-0.8154133
41	0xc00d976c	-2.212367
42	0xbfc48c9e	-1.5355413
43	0xbed4c28c	-0.41554677
44	0xbfc4f19c	-1.5386233
45	0xbf5a8a47	-0.85367244
46	0xbfebf67f	-1.84346
47	0xbef431c1	-0.4769421
48	0xbf704769	-0.93858963
49	0xc0015c16	-2.0212455
50	0xbee1dd65	-0.44114223
51	0xc00b7ef9	-2.1796248
52	0xbebb0158	-0.36524463
53	0xbff59835	-1.9187075
54	0xbdbb82b2	-0.091557875
55	0xbf84eb11	-1.0384237
56	0xc003ba94	-2.0582628
57	0xbe9f6d59	-0.31138113
58	0xbfe9c9b1	-1.8264676
59	0xbfbbeb1a	-1.4681122
60	0xbffd6e55	-1.9799296
61	0xbfe7ef87	-1.8119973
62	0xbfb1d259	-1.3892318
63	0xbf20fa66	-0.6288208
64	0xbf9afe84	-1.2108922
65	0xbfdffabb	-1.7498392
66	0x3ef21734	0.47283328
67	0xbfe5c29c	-1.7950015
68	0xbff15ac7	-1.8855828
69	0xbf84493d	-1.033485
70	0x3c889cf8	0.016676411
71	0xbee4da0f	-0.44697616
72	0xbfef9369	-1.8716861
73	0x3eebecd6	0.4607913
74	0xc02906c0	-2.641037
75	0x3e1146bb	0.14187138
76	0xbfda7cb7	-1.706931
77	0xbede3190	-0.43397188
78	0xc0087aea	-2.132502
79	0xbfc9b081	-1.575699
80	0x3f219c85	0.63129455
81	0xc01f905d	-2.4931862
82	0x3df04a77	0.11732953
83	0xbfa8980f	-1.3171405
84	0xbfbd0e73	-1.4770035
85	0xc02aad7b	-2.6668384
86	0xbfc5b409	-1.5445567
87	0xbf83f03f	-1.0307692
88	0xbfbf9939	-1.4968635
89	0xc02eba8c	-2.730136
90	0xc007661a	-2.1156068
91	0xbfe6771d	-1.80051
92	0xc0486908	-3.1314106
93	0xbf6b7cd2	-0.91987336
94	0x3ddcc81e	0.10780357
95	0xc04cbb89	-3.1989462
96	0xbfc394b2	-1.5279753
97	0xbfaed366	-1.3658264
98	0xc08e7ad0	-4.4524918
99	0xc020643b	-2.5061176
100	0xbf257619	-0.6463333
101	0x3e63fc9b	0.2226433
102	0xc07df285	-3.9679272
103	0xc001a8a8	-2.025919
104	0xc00df8b7	-2.2183053
105	0xbfef15f2	-1.8678572
106	0xc00e5758	-2.224081
107	0xbfab4ba3	-1.3382457
108	0xbfad1d3c	-1.3524547
109	0xbfd06efb	-1.6283869
110	0xc003569b	-2.052161
111	0xc011540a	-2.2707543
112	0xbfde74c2	-1.7379382
113	0xbfed270e	-1.8527544
114	0xbfbe7cd7	-1.4881848
115	0xbf1a197b	-0.6019513
116	0xbf6ee064	-0.9331114
117	0xc0098aef	-2.1491048
118	0xbfa587fb	-1.2932123
119	0xbfd7aaf4	-1.6849046
120	0xbfde1746	-1.7350852
121	0xbfd397be	-1.6530683
122	0xbf0e2fa9	-0.55541474
123	0xbf69b437	-0.9129061
124	0xbff2dbf4	-1.8973374
125	0xbfd75c82	-1.6825106
126	0xc0220971	-2.5318263
127	0xbf7bac05	-0.98309356
128	0xbfb97547	-1.4488915
129	0xbfeba81a	-1.8410676
130	0xc0007e9c	-2.0077276
131	0xbfa35c14	-1.2762475
132	0xbfbb153b	-1.4615854
133	0xbfd6e8bf	-1.6789778
134	0xc01645d9	-2.3480132
135	0xbf6cb9ff	-0.9247131
136	0xc023401d	-2.5507882
137	0xbef899a6	-0.48554724
138	0xc01d2da6	-2.4559112
139	0xbfc0524d	-1.5025116
140	0xbf206d9d	-0.62667257
141	0x3ef03227	0.46913263
142	0xbe33d325	-0.17561014
143	0xbe98728d	-0.29774895
144	0xbf092e1c	-0.5358598
145	0xbf0ad789	-0.5423513
146	0xbfd64892	-1.6740897
147	0x3ee0a97b	0.43879303
148	0x3f0a7eac	0.54099536
149	0x3edefae3	0.43550786
150	0x3f7b9e39	0.98288304
151	0x3ee8ae77	0.45445606
152	0x3e23e67d	0.16005893
153	0xbe99f783	-0.3007165
154	0xbf8e468e	-1.1115282
155	0xbfd546e4	-1.6662259
156	0xbed18f90	-0.40929842
157	0xbe97bbba	-0.29635412
158	0x3e2e2c15	0.17009003
159	0xbf936ed6	-1.15182
160	0xbf808646	-1.0040977
161	0x3f61874c	0.8809707
162	0xbe227d5d	-0.15868135
163	0xbc203391	-0.009777919
164	0xbe3e7dee	-0.18602726
165	0xbd84719c	-0.06466982
166	0x3e84e9ad	0.2595953
167	0xbf06d927	-0.526751
168	0xbfed1264	-1.8521237
169	0xbfe6c889	-1.8029948
170	0xbfd0dfc0	-1.6318283
171	0xbf9fa363	-1.2471737
172	0xc01aec17	-2.4206598
173	0xbfd93393	-1.6968864
174	0xc005e255	-2.0919392
175	0xc00f81bd	-2.2422936
176	0xc00b7dd5	-2.1795552
177	0xbff6678c	-1.925035
178	0xbfd8ea7d	-1.694656
179	0xbfc68aeb	-1.5511144
180	0xc013277a	-2.2992845
181	0xbffa4ad0	-1.9554081
182	0xc003370e	-2.0502353
183	0xc0183e06	-2.3787856
184	0xc00773f2	-2.1164517
185	0xc013e8d3	-2.3110855
186	0xc02d74ad	-2.7102463
187	0xc01b146c	-2.4231215
188	0xbfe3b7dc	-1.7790484
189	0xbf9a9235	-1.2075869
190	0xbf83d0f9	-1.0298148
191	0xbeb113bd	-0.34585372
192	0xbf43e899	-0.7652679
193	0xbf70dcd0	-0.94086933
194	0xbf886959	-1.065715
195	0xbf804e20	-1.0023842
196	0xc01ab228	-2.4171238
197	0xbfaef761	-1.3669244
198	0xbfea763c	-1.8317332
199	0xbfe45482	-1.783829
200	0xc00fca6e	-2.2467303
201	0xc00a90a0	-2.1650772
202	0xbf8dcf93	-1.1078972
203	0xbec46389	-0.3835719
204	0x3ea54a6c	0.32283342
205	0xbf5735e9	-0.84066635
206	0xbefb8daf	-0.49131534
207	0xbe7dfcc9	-0.24803461
208	0x3d730a3e	0.05933594
209	0xbfa71523	-1.3053325
210	0xc030c7e8	-2.7622013
211	0xc021e3f3	-2.529538
212	0xc003b968	-2.0581913
213	0xbfdbf0ca	-1.7182858
214	0xbfea56f1	-1.8307782
215	0xc01ea6b9	-2.478926
216	0xc02b05b7	-2.6722238
217	0xc037c7a9	-2.8715613
218	0xc03823c6	-2.8771834
219	0xbfd63357	-1.6734418
220	0xbfa9d5cb	-1.326837
221	0xbfcc7fae	-1.5976465
222	0xc01c6659	-2.4437468
223	0xbff166e4	-1.8859525
224	0xc03b224d	-2.9239686
225	0xc04116ad	-3.017009
226	0xbfea0237	-1.8281926
227	0xbfd140cc	-1.63479
228	0xbfe711bb	-1.8052286
229	0xc02838ef	-2.628475
230	0xc00e422b	-2.2227886
231	0xbfdf0d63	-1.742596
232	0xbf42030c	-0.757859
233	0xbfadb8a3	-1.3571972
234	0xbec743eb	-0.38919005
235	0xbfa9a867	-1.3254517
236	0x3e1f430d	0.15552922
237	0xbfa54459	-1.2911483
238	0xc011568f	-2.270908
239	0xbfc66c78	-1.5501852
240	0xc00e74e9	-2.2258856
241	0xbffaa67d	-1.9582058
242	0xbe7162cd	-0.23572846
243	0xbffb58a0	-1.9636421
244	0xbfaaca2e	-1.334295
245	0xc02a920a	-2.6651635
246	0xbf863c27	-1.0487107
247	0xc03f9405	-2.9934094
248	0xc0380e01	-2.8758547
249	0xbff56a44	-1.9173055
250	0xc050d984	-3.263276
251	0xbfbcd6b1	-1.4753019
252	0xc05ae66b	-3.4203136
253	0xc020a8af	-2.5102956
254	0xc0305193	-2.754979
255	0xbfdb4ab3	-1.7132171

fc5.bias f4 [11]
0	0xc074ecc7	-3.8269517
1	0xc03e4cbf	-2.9734342
2	0xc0cca6e6	-6.3953733
3	0xc00dcc62	-2.2155995
4	0xc0cd66a3	-6.418779
5	0xc08d1bf0	-4.4096603
6	0xc0cc5264	-6.3850574
7	0xc0513fca	-3.2695184
8	0xc0cd1028	-6.408222
9	0xc087a687	-4.239078
10	0x3fd08847	1.6291589
