code/model.pt (torch, 203135 bytes, 16 tensors)

cnn.0.weight f4 [16, 3, 3, 3]
-0.2781158 -0.10321165 -0.3354904 -0.16860756 -0.03417612 0.11588336 0.14763133 0.3714674
0.2741655 -0.18965708 -0.24226539 -0.21091425 -0.18095043 -0.0698109 -0.02624022 0.17778483
0.30273035 0.38159692 -0.3341472 -0.25187057 -0.10129162 0.13885628 -0.027607303 0.13767186
0.06814184 0.14717348 0.32373998 -0.0356083 -0.08915227 -0.020264981 0.0062046363 0.21820448
-0.07490967 -0.06827734 -0.07925084 -0.12561679 -0.029616509 0.161242 0.10999111 0.08960603
0.0081194015 -0.06577141 -0.047606315 -0.19350691 -0.1213693 -0.029678123 0.06490362 0.05916188
-0.0643832 -0.026996328 0.11525303 0.16541296 0.07537336 0.040510606 0.36022976 -0.14883122
-0.1488748 0.056542166 -0.107193395 -0.17212567 0.2766744 0.067733034 -0.26796353 0.25677794
0.014890059 -0.28378382 0.18930475 0.02327902 -0.022945385 0.37493217 -0.1798328 -0.2760536
0.20159249 0.08742463 -0.012358885 0.26928616 0.029115288 -0.23221266 0.121298626 -0.14136598
-0.3067563 0.4506302 0.2759413 -0.19992907 0.1560251 0.008561447 -0.08400587 -0.13761044
-0.063275255 -0.3453148 0.34869447 0.24928519 0.16030458 0.17742606 -0.1346177 -0.15285042
0.013934834 -0.09895415 -0.3764691 0.10023159 0.3072817 0.1731647 0.0022984543 0.024524294
-0.15373449 -0.05650749 -0.2206359 -0.2825474 -0.23349123 -0.18428105 -0.0041384613 0.17281072
-0.13472393 0.48223472 0.210904 -0.353951 -0.009974747 -0.1924893 -0.14728996 0.17220272
0.1748213 0.03850965 0.25631598 0.22562738 -0.3203182 -0.02079521 -0.33367568 -0.26054397
0.10853908 -0.1045984 -0.009391204 0.39891547 -0.030778555 -0.14188834 0.25772372 0.014393276
0.043290615 -0.007734778 0.07482496 0.16846749 0.20528387 0.14556997 0.2175266 0.015409434
-0.19160508 -0.09894935 0.09268794 -0.029316107 -0.10614921 -0.17156908 -0.22628047 -0.18554924
-0.056896858 0.10495933 0.12944546 -0.17621619 0.12214358 -0.12026942 -0.014935419 -0.08219047
-0.011782216 -0.00067744195 -0.0608246 -0.06429686 0.30809 0.030540965 -0.13933408 0.22062935
-0.31554115 -0.2390203 0.15506516 -0.014802818 0.2568247 0.4110221 -0.20395632 0.038239803
0.12461766 -0.29783 -0.114278026 -0.17524584 0.123892486 -0.020468274 0.33249706 0.08960987
-0.0058793304 0.112320915 -0.1567504 -0.27752048 -0.23369706 0.3476833 0.32327336 0.3298581
-0.122170925 0.0016104779 -0.17489867 -0.28059986 -0.26048356 -0.1895789 0.16458602 0.24067895
0.31672233 0.12539753 -0.12518202 -0.115413465 -0.35979533 -0.05944851 -0.34172103 0.34057674
0.18260428 0.20344378 -0.01425644 -0.06077666 0.0034870785 -0.23306109 -0.15883169 -0.20119247
-0.38322666 -0.19027981 0.24477795 -0.25105447 -0.008711958 0.35408026 -0.05602324 0.06879774
0.13617846 -0.19388162 -0.2526442 0.03190861 -0.20509332 -0.040357377 0.16686277 -0.008245504
0.07013371 0.4637971 -0.07989406 -0.21963505 0.12446874 -0.19584139 -0.090879045 0.16109894
-0.027955007 0.18750443 0.16150673 0.0058098277 0.09936937 -0.18761535 0.1424087 -0.11041666
0.036991358 -0.07170144 -0.096882306 0.009562709 0.06888891 -0.12974513 -0.16574416 -0.17463003
00000000: 3265 8ebe a160 d3bd 66c5 abbe 76a7 2cbe
00000010: 42fc 0bbd 4154 ed3d ab2c 173e fa30 be3e
00000020: 6c5f 8c3e 7735 42be 6b14 78be e8f9 57be
00000030: 124b 39be 04f9 8ebd bbf5 d6bc 3a0d 363e
00000040: 79ff 9a3e ac60 c33e 5815 abbe 2ef5 80be
00000050: fb71 cfbd 5730 0e3e b628 e2bc daf9 0c3e
00000060: f38d 8b3d a5b4 163e 3fc1 a53e 02da 11bd
00000070: 7795 b6bd bf02 a6bc 4350 cb3b ff70 5f3e
00000080: 3e6a 99bd fdd4 8bbd 444e a2bd b0a1 00be
00000090: 529e f2bc 9f1c 253e 0543 e13d 5e83 b73d
000000a0: 3d07 053c 29b3 86bd d7fe 42bd ad26 46be
000000b0: 7890 f8bd 891f f3bc 30ec 843d ba53 723d
000000c0: 57db 83bd 6727 ddbc c809 ec3d 0462 293e
000000d0: 595d 9a3d 73ee 253d 0970 b83e 3667 18be
000000e0: a372 18be c298 673d 3688 dbbd b641 30be
000000f0: 44a8 8d3e 9eb7 8a3d 8432 89be 6678 833e
00000100: 6ff5 733c 1d4c 91be 1bd9 413e a5b3 be3c
00000110: f6f7 bbbc 1cf7 bf3e 1726 38be e656 8dbe
00000120: 436e 4e3e af0b b33d ec7c 4abc e0df 893e
00000130: 2f83 ee3c 28c9 6dbe 6a6b f83d 3ec2 10be
00000140: 290f 9dbe 00b9 e63e 2e48 8d3e 35ba 4cbe
00000150: 0bc5 1f3e 5045 0c3c 450b acbd c0e9 0cbe
00000160: 7596 81bd 1acd b0be 1588 b23e 9e44 7f3e
00000170: e226 243e 2daf 353e 39d9 09be d284 1cbe
00000180: ee4e 643c 79a8 cabd 8fc0 c0be 3846 cd3d
00000190: 0754 9d3e 1652 313e aaa1 163b 2ce7 c83c
000001a0: 936c 1dbe 6674 67bd 61ee 61be 0eaa 90be
000001b0: 5318 6fbe 2cb4 3cbe ee9b 87bb 4bf5 303e
000001c0: 12f5 09be 78e7 f63e 38f7 573e 1139 b5be
000001d0: 1f6d 23bc ea1b 45be 2ed3 16be e955 303e
000001e0: 5b04 333e 4bbc 1d3d d93b 833e dd0a 673e
000001f0: bf00 a4be b75a aabc 8ad7 aabe 0566 85be
00000200: bd49 de3d b037 d6bd 91dd 19bc a63e cc3e
00000210: 4f23 fcbc 2d4b 11be 5df4 833e c6d1 6b3c
00000220: 8051 313d 0574 fdbb d43d 993d be82 2c3e
00000230: ef35 523e 4b10 153e 4bbf 5e3e da77 7c3c
00000240: 1f34 44be f5a5 cabd 2dd3 bd3d 5528 f0bc
00000250: c264 d9bd ceaf 2fbe 11b6 67be 9f00 3ebe
00000260: ae0c 69bd ebf4 d63d 5a8d 043e 0472 34be
00000270: 6a26 fa3d d04f f6bd b0b3 74bc 7a53 a8bd
00000280: 320a 41bc 5c96 31ba 3723 79bd 12ae 83bd
00000290: f9bd 9d3e 0c31 fa3c 98ad 0ebe a9ec 613e
000002a0: 9c8e a1be bdc1 74be 67c9 1e3e 8587 72bc
000002b0: 877e 833e 7d71 d23e edd9 50be 57a1 1c3d
000002c0: 8b37 ff3d 2c7d 98be 990a eabd a573 33be
000002d0: 58bb fd3d 15ad a7bc 0e3d aa3e 6185 b73d
000002e0: 66a7 c0bb 8208 e63d 2d83 20be 2a17 8ebe
000002f0: 484e 6fbe 8c03 b23e 1684 a53e 29e3 a83e
00000300: c034 fabd ac16 d33a a318 33be c9aa 8fbe
00000310: 1a5e 85be f920 42be 3d89 283e 8b74 763e
00000320: 6e29 a23e 3668 003e b72f 00be e55d ecbd
00000330: 1837 b8be 4880 73bd 0ff6 aebe 1360 ae3e
00000340: 9efc 3a3e 9153 503e d893 69bc f2f0 78bd
00000350: 7887 643b 91a7 6ebe c6a4 22be 6605 4ebe
00000360: 4936 c4be b6d8 42be 12a7 7a3e 368a 80be
00000370: 9abc 0ebc 024a b53e a078 65bd d4e5 8c3d
00000380: 5e72 0b3e e788 46be 955a 81be 9ab2 023d
00000390: fc03 52be c74d 25bd 13de 2a3e 2718 07bc
000003a0: 43a2 8f3d d076 ed3e 7f9f a3bd 03e8 60be
000003b0: 77e9 fe3d a58a 48be cb1e babd 1ff7 243e
000003c0: e601 e5bc 2901 403e 0562 253e 5e60 be3b
000003d0: 2b82 cb3d 3d1e 40be 96d3 113e 2122 e2bd
000003e0: 4084 173d 34d8 92bd 3b6a c6bd e9ac 1c3c
000003f0: a115 8d3d e8db 04be d6b8 29be 37d2 32be

cnn.0.bias f4 [16]
-0.09022471 -0.33751273 -0.0784743 -0.0030639342 -0.4353584 -0.53830534 0.035144858 -0.11184739
-0.12818451 -0.6543661 -0.13937083 -0.6348277 -0.012095435 0.20030627 -0.54047227 -0.17014578
00000000: bcc7 b8bd 78ce acbe 22b7 a0bd 49cc 48bb
00000010: 4ce7 debe 61ce 09bf 0ef4 0f3d 3f10 e5bd
00000020: cd42 03be 8984 27bf 3ab7 0ebe 1184 22bf
00000030: ee2b 46bc 161d 4d3e 645c 0abf b23a 2ebe

cnn.3.weight f4 [32, 16, 3, 3]
-0.020108944 0.004333758 0.14934304 0.07222231 0.087810755 0.061748218 -0.077581055 0.09988969
0.09212279 0.038854454 -0.08899871 -0.075285584 -0.119500235 -0.037464075 -0.038189903 -0.07680306
0.066095844 0.01891967 -0.19255912 -0.31496334 -0.12108859 -0.29592475 -0.13844103 -0.054241564
0.086235866 -0.19979545 -0.0859198 -0.10441857 -0.07244769 0.17697184 -0.07529698 0.19219473
0.014278717 0.05936466 -0.028293677 0.10672133 -0.121419 0.15944266 0.04620683 -0.123387896
0.11285154 -0.03724915 -0.28730485 -0.074637175 0.005376285 -0.011495557 0.12670892 0.051344223
-0.12873535 -0.052332472 0.101774216 0.04088949 -0.09271342 0.02489203 0.07566997 0.054643188
0.056735642 0.12583707 0.060179364 0.031813126 0.14590432 0.02458896 -0.09242408 0.060408544
-0.12655517 -0.10852575 0.029635163 -0.10792207 -0.03072616 -0.032535497 -0.13905583 0.07611141
-0.10025697 -0.40032306 0.10128392 -0.07928526 -0.2001226 0.013371299 -0.10074253 0.010414111
0.07734542 0.023096794 0.14931844 0.10923749 0.0069687255 0.07266586 0.030859647 -0.029894982
0.112644196 -0.098176174 -0.28328004 -0.012399848 -0.078511395 -0.010281116 -0.15981983 -0.21519639
0.12617876 -0.040499885 -0.062716685 -0.037354924 -0.013277981 -0.17510352 -0.17600341 -0.107584946
-0.06430461 -0.26728496 -0.16025734 -0.10931155 -0.070265785 -0.14261927 0.026478238 -0.03848241
-0.13451162 -0.012577336 0.109358765 -0.052554686 0.10915371 0.092430435 0.051548712 -0.012915436
0.12207638 0.024872463 0.020281307 0.039169796 -0.08716176 -0.016034475 0.17690033 0.14886826
0.009918867 -0.2761686 -0.08461413 -0.041153494 -0.17345814 -0.11728429 -0.33103412 -0.20596583
-0.27787653 -0.291468 0.0005722524 -0.22176105 -0.11902782 -0.0084063625 -0.46950817 -0.30204868
-0.70641786 -0.3531138 -0.631876 -0.37190104 -0.29900798 -0.39686233 -0.09611869 -0.14575182
-0.24715392 0.16284399 -0.071066014 -0.15424633 0.16513129 0.07422904 -0.071091786 0.18662283
0.1335389 -0.06856612 0.40532497 0.19164756 0.3043378 0.28995165 0.2821059 0.31831938
0.2075941 0.11205005 0.23535568 0.09851357 -0.13561982 0.13026913 0.14685822 -0.067829736
0.051794812 0.09430332 -0.048781082 0.13402534 -0.18726695 -0.3219412 -0.07064464 -0.046707783
-0.16831633 0.15378383 -0.2152811 -0.4792384 -0.27183756 0.16003941 0.19923207 -0.0967531
0.15668714 0.20294788 -0.29770496 0.22707078 0.11913278 -0.031637754 0.07314165 0.28779334
0.063133575 0.050532416 0.19874594 0.08663985 0.07904992 0.15810217 0.046744976 -0.6390496
-0.5411321 -0.49903977 -0.74694973 -0.46895915 -0.551108 -0.24642596 -0.16105472 -0.2148787
0.2050832 0.16781189 0.15733497 0.18586008 0.12516499 0.2237596 -0.022205634 0.05963161
0.13947901 0.03725433 -0.12705797 -0.25204316 0.12953582 0.010997295 0.016885195 0.19503362
0.044664625 -0.23567076 -0.036712095 0.103862315 -0.03371139 -0.103535675 -0.008552605 -0.13815548
-0.052621443 0.15483624 -0.013605318 -0.4527107 0.0020127932 -0.2344046 -0.3974311 -0.2561661
-0.36960477 -0.38355815 -0.31263712 -0.45321968 -0.47083512 -0.26888403 -0.29807574 -0.40289915
00000000: 83bb a4bc 3202 8e3b 62ed 183e 4ae9 933d
00000010: 20d6 b33d b3eb 7c3d d1e2 9ebd f792 cc3d
00000020: e0aa bc3d d925 1f3d f544 b6bd 542f 9abd
00000030: 8abc f4bd ee73 19bd 046d 1cbd ec4a 9dbd
00000040: 425d 873d 6cfd 9a3c 382e 45be e042 a1be
00000050: 4bfd f7bd 7383 97be 7cc3 0dbe 672c 5ebd
00000060: 6e9c b03d 2e97 4cbe b8f6 afbd 67d9 d5bd
00000070: 745f 94bd 1b38 353e 4e35 9abd b2ce 443e
00000080: 48f1 693c 5c28 733d 24c8 e7bc b690 da3d
00000090: 86aa f8bd f044 233e 5f43 3d3d cbb2 fcbd
000000a0: b51e e73d 9192 18bd 9f19 93be 60db 98bd
000000b0: 8c2b b03b dc57 3cbc fcbf 013e 524e 523d
000000c0: 33d3 03be 935a 56bd 006f d03d bd7b 273d
000000d0: 89e0 bdbd 5fea cb3c dbf8 9a3d 89d1 5f3d
000000e0: a263 683d 6fdb 003e a37e 763d 7b4e 023d
000000f0: f167 153e c96e c93c d648 bdbd f36e 773d
00000100: ae97 01be c042 debd 71c5 f23c 3f06 ddbd
00000110: 6eb5 fbbc f143 05bd a764 0ebe 4de0 9b3d
00000120: 8753 cdbd 25f7 ccbe f26d cf3d 4f60 a2bd
00000130: f0ec 4cbe 4b13 5b3c 1952 cebd f39f 2a3c
00000140: 4767 9e3d 7d35 bd3c efe6 183e e8b7 df3d
00000150: e859 e43b d7d1 943d 5fcd fc3c 52e6 f4bc
00000160: 00b2 e63d 9710 c9bd 150a 91be bb28 4bbc
00000170: 95ca a0bd 2072 28bc cfa7 23be 715c 5cbe
00000180: 0135 013e 35e3 25bd 9b71 80bd 7a01 19bd
00000190: e48b 59bc 564e 33be 3d3a 34be 7f55 dcbd
000001a0: 23b2 83bd 93d9 88be 801a 24be bcde dfbd
000001b0: 82e7 8fbd c90a 12be e4e8 d83c bb9f 1dbd
000001c0: 6abd 09be 2c11 4ebc 7df7 df3d 9543 57bd
000001d0: fb8b df3d 2b4c bd3d be24 533d 449b 53bc
000001e0: 2e03 fa3d 56c1 cb3c fc24 a63c 8270 203d
000001f0: dd81 b2bd bb5a 83bc 5c25 353e ec70 183e
00000200: be82 223c f965 8dbe 2c4a adbd 9190 28bd
00000210: 039f 31be bf32 f0bd 4e7d a9be b5e8 52be
00000220: d545 8ebe 4b3b 95be 3503 163a 5415 63be
00000230: dcc4 f3bd d7ba 09bc 6063 f0be 20a6 9abe
00000240: cdd7 34bf 55cb b4be a0c2 21bf d069 bebe
00000250: 9317 99be 8a31 cbbe e0d9 c4bd f73f 15be
00000260: eb15 7dbe 93c0 263e 0f8b 91bd c0f2 1dbe
00000270: 2d18 293e 6505 983d 9298 91bd 0e1a 3f3e
00000280: 6cbe 083e 656c 8cbd c186 cf3e 423f 443e
00000290: 2ad2 9b3e 8b74 943e 2f70 903e c2fa a23e
000002a0: 8c93 543e 7f7a e53d 1401 713e 7cc1 c93d
000002b0: ecdf 0abe 4565 053e 0062 163e 51ea 8abd
000002c0: cc26 543d 1922 c13d acce 47bd f03d 093e
000002d0: e8c2 3fbe 7ad5 a4be 23ae 90bd a950 3fbd
000002e0: 1e5b 2cbe 8279 1d3e a672 5cbe bc5e f5be
000002f0: 4b2e 8bbe 5fe1 233e 7e03 4c3e 7d26 c6bd
00000300: 9872 203e 92d1 4f3e c96c 98be 3e85 683e
00000310: e3fb f33d 9796 01bd 4acb 953d a659 933e
00000320: 2d4c 813d 14fb 4e3d 0e84 4b3e 3c70 b13d
00000330: ede4 a13d 89e5 213e a977 3f3d c198 23bf
00000340: a287 0abf 2482 ffbe 1938 3fbf 6a1b f0be
00000350: 6a15 0dbf 1657 7cbe 87eb 24be 2909 5cbe
00000360: 5501 523e e1d6 2b3e 6b1c 213e 1b52 3e3e
00000370: 402b 003e 3d21 653e 97e8 b5bc 4640 743d
00000380: 96d3 0e3e ff97 183d 7c1b 02be cd0b 81be
00000390: 0aa5 043e 002e 343c d252 8a3c e5b6 473e
000003a0: 41f2 363d ad53 71be 6c5f 16bd c4b5 d43d
000003b0: f414 0abd 830a d4bd 3a20 0cbc a178 0dbe
000003c0: 9589 57bd 648d 1e3e d7e8 5ebc b2c9 e7be
000003d0: 11e9 033b c207 70be 177c cbbe 3428 83be
000003e0: d63c bdbe bc61 c4be f911 a0be 690c e8be
000003f0: 4d11 f1be 2bab 89be 629d 98be cc48 cebe

cnn.3.bias f4 [32]
0.4272998 0.10727302 0.21651222 0.005005384 0.10375743 0.08847566 -0.14535023 -0.1113854
0.31741914 -0.05010794 0.26173773 0.0901289 0.059568897 -0.15770137 -0.0014023271 0.25873291
-0.0058752843 0.075588435 0.073924646 -0.08863453 -0.09256996 -0.042865433 -0.0043512667 -0.111627966
0.097215414 -0.07856865 -0.016734894 -0.11908569 0.12080042 -0.03412894 0.004929764 -0.07867734
00000000: 0ac7 da3e f5b1 db3d 61b5 5d3e 3404 a43b
00000010: c77e d43d ba32 b53d b1d6 14be 071e e4bd
00000020: c384 a23e fc3d 4dbd 7d02 863e 8095 b83d
00000030: 84fe 733d 787c 21be 4ace b7ba a478 843e
00000040: 7585 c0bb 1cce 9a3d ce65 973d 0586 b5bd
00000050: 5295 bdbd aa93 2fbd 1295 8ebb 349d e4bd
00000060: e018 c73d 9ae8 a0bd 9e17 89bc 33e3 f3bd
00000070: 3666 f73d caca 0bbd dc89 a13b 9621 a1bd

fc1.weight f4 [11, 672]
-0.09429063 -0.023949832 -0.14830634 0.10769285 0.06290538 -0.18230228 0.004915248 0.025534952
0.13104518 -0.1749891 -0.075581774 0.17083754 -0.16203278 0.034769956 -0.008254817 0.015487883
0.01042245 0.13518718 -0.050190788 -0.2667703 -0.04203352 0.025095593 0.009559919 -0.1654739
-0.22394243 -0.071812905 0.27942055 -0.23574212 0.19263549 -0.076625615 -0.10720628 0.009876116
-0.06007611 0.1380116 -0.07437531 0.09240502 -0.09192056 -0.20622247 0.28696963 -0.015130685
0.20407842 -0.2815166 -0.0041305525 0.0816993 0.11223495 0.16594471 0.15563495 0.15131709
0.026722519 0.13788131 0.30268633 0.18732652 -0.04170392 -0.12338592 -0.054339178 0.024942381
0.07685967 0.08347613 0.22287615 -0.028703507 -0.14975312 -0.12109587 0.14943781 -0.08400246
-0.022900244 0.16328053 -0.0665621 -0.16470833 -0.4427389 -0.10583519 -0.027971715 -0.09975635
0.11899646 0.03199607 0.0677008 -0.14492618 -0.14070554 0.048076395 0.12584503 0.24534541
-0.14277977 0.06631062 -0.09147519 -0.13273999 -0.20576894 -0.109352164 0.11210819 -0.17802799
0.027517749 -0.21602303 -0.12849322 0.18819314 0.03726675 -0.09271251 -0.33589968 0.18065032
0.1597832 0.16169904 0.0040527484 -0.03577285 -0.19507585 -0.3092432 -0.0009427026 0.12167468
0.19245136 -0.1551114 -0.07675796 -0.054761577 0.14339624 0.17367852 -0.21554334 -0.08301102
-0.016869502 0.11366824 0.104510374 -0.045600012 0.17399026 -0.22226846 0.02408991 0.082892686
-0.080255404 -0.019180015 0.20364 -0.13569114 -0.41666913 -0.04731324 0.0006398661 0.07496014
-0.12087459 -0.4825799 -0.04828744 -0.14314345 0.09812337 -0.18524098 -0.066961125 -0.15742637
-0.20916991 -1.1286689 0.041468192 -0.120641 0.13263752 -0.17659459 -0.6315974 -0.035583932
-0.6101631 0.16014326 -0.26361388 -0.033868458 -0.33173653 -0.14517565 -0.22026359 -0.07031921
0.20077485 -0.3385111 0.15041053 -0.09794624 0.15320441 0.21845037 -0.25477767 0.1777277
-0.4126797 -0.08365853 0.049124263 -0.68495756 -0.20842765 -0.081183486 0.05668974 -0.30626544
-0.323328 -0.40460846 -0.32579333 -0.17455494 0.08128191 -0.3548111 0.1121618 -0.089644246
-0.074458554 -0.17268975 -0.6055922 0.04146244 -0.76674384 0.05818192 -0.14519493 -0.27496764
-0.4820847 -0.59989065 -0.14829084 -0.65242887 0.03381109 0.08235058 0.061376836 0.24741894
-0.3201296 -0.18171725 0.14606941 0.12777904 -0.39762446 -0.106015764 0.30821225 -0.017507527
0.21233709 0.2969009 -0.15162826 -0.049119737 0.15922569 0.13643762 -0.10978841 0.024874898
0.21873763 0.19950674 0.0066856504 0.026165338 -0.09711639 0.042039897 0.27131903 0.21207802
0.14304163 0.27938882 0.2965109 0.006689153 0.15242523 -0.17586005 -0.014869089 0.08108999
0.30866507 0.14009291 -0.2845679 -0.32933486 -0.2621622 -0.092241585 0.22319639 0.06820231
0.13173229 -0.17735645 -0.092772946 -0.091223195 -0.012750086 0.05934973 -0.40207735 0.07951387
0.020422177 0.18364163 -0.5285001 -0.5787046 -0.13389799 -0.36538672 0.09765515 0.16096927
-0.35521427 0.2169989 -0.27927706 0.016006753 -0.17284139 0.22908433 0.19196649 -0.030404463
00000000: 721b c1bd 7032 c4bc 9edd 17be 128e dc3d
00000010: 89d4 803d 73ad 3abe 1710 a13b ad2e d13c
00000020: b530 063e 5830 33be 9eca 9abd 09f0 2e3e
00000030: eceb 25be f16a 0e3d 363f 07bc e4c0 7d3c
00000040: ecc2 2a3c 826e 0a3e db94 4dbd 1e96 88be
00000050: 572b 2cbd 4695 cd3c 35a1 1c3c fd71 29be
00000060: 2a51 65be a512 93bd 3610 8f3e 6266 71be
00000070: 3d42 453e e4ed 9cbd f78e dbbd 6fcf 213c
00000080: 5e12 76bd ea52 0d3e 1552 98bd d83e bd3d
00000090: d940 bcbd fc2b 53be afed 923e b1e6 77bc
000000a0: eff9 503e f222 90be 9659 87bb f651 a73d
000000b0: 70db e53d 69ed 293e c55e 1f3e def2 1a3e
000000c0: 2fe9 da3c c230 0d3e b4f9 9a3e 86d2 3f3e
000000d0: bbd1 2abd c2b1 fcbd c292 5ebd f753 cc3c
000000e0: 9a68 9d3d 89f5 aa3d a539 643e 9e23 ebbc
000000f0: e258 19be 1d01 f8bd 3a06 193e 7b09 acbd
00000100: 4b99 bbbc 0333 273e b651 88bd 4da9 28be
00000110: acae e2be 1fc0 d8bd f024 e5bc 0f4d ccbd
00000120: 6bb4 f33d 500e 033d b8a6 8a3d 8767 14be
00000130: 1d15 10be c1eb 443d 85dd 003e d43b 7b3e
00000140: dc34 12be ddcd 873d 5857 bbbd feec 07be
00000150: 18b5 52be 07f4 dfbd fb98 e53d f84c 36be
00000160: e76c e13c 2435 5dbe ba93 03be b4b5 403e
00000170: 05a5 183d 0ee0 bdbd 0bfb abbe 66fc 383e
00000180: 359e 233e 6f94 253e ebcc 843b 8d86 12bd
00000190: f7c1 47be 2055 9ebe b31f 77ba 9330 f93d
000001a0: f811 453e 86d5 1ebe 4733 9dbd ad4d 60bd
000001b0: 77d6 123e c8d8 313e 65b7 5cbe af01 aabd
000001c0: e931 8abc e5ca e83d 8909 d63d 14c7 3abd
000001d0: 812a 323e 589a 63be 3458 c53c a4c3 a93d
000001e0: f25c a4bd 681f 9dbc 0187 503e 9ef2 0abe
000001f0: a855 d5be 87cb 41bd b0bc 273a b484 993d
00000200: 198d f7bd b614 f7be 0dc9 45bd 3294 12be
00000210: e8f4 c83d d0af 3dbe ea22 89bd 6134 21be
00000220: a330 56be 3978 90bf 8dda 293d a112 f7bd
00000230: 21d2 073e 36d5 34be 5eb0 21bf 75c0 11bd
00000240: a633 1cbf 98fc 233e 66f8 86be a7b9 0abd
00000250: 5fd9 a9be eda8 14be c78c 61be 8503 90bd
00000260: ec97 4d3e 5451 adbe 3805 1a3e 0a98 c8bd
00000270: 9ee1 1c3e 74b1 5f3e 3872 82be 40fe 353e
00000280: c14a d3be 2a55 abbd 8636 493d 6159 2fbf
00000290: 0f6e 55be 8743 a6bd 8033 683d d3ce 9cbe
000002a0: 3f8b a5be d728 cfbe 62ce a6be 88be 32be
000002b0: 2177 a63d cda9 b5be 16b5 e53d 6797 b7bd
000002c0: ba7d 98bd 95d5 30be 1708 1bbf 85d4 293d
000002d0: 5349 44bf 2a50 6e3d fbad 14be 8fc8 8cbe
000002e0: ced3 f6be 6f92 19bf 8ed9 17be 9405 27bf
000002f0: 7f7d 0a3d 6ca7 a83d 4766 7b3d 645b 7d3e
00000300: 07e8 a3be 1614 3abe 3893 153e 82d8 023e
00000310: 6f95 cbbe cb1e d9bd ffcd 9d3e f26b 8fbc
00000320: e56e 593e 6503 983e 7044 1bbe c731 49bd
00000330: 0f0c 233e 4eb6 0b3e bfd8 e0bd 71c6 cb3c
00000340: c2fc 5f3e 7f4b 4c3e 4d13 db3b b158 d63c
00000350: f5e4 c6bd 0732 2c3d 54ea 8a3e fb2a 593e
00000360: 8179 123e 0d0c 8f3e 47d0 973e af30 db3b
00000370: 5c15 1c3e a814 34be 7b9d 73bc 8212 a63d
00000380: 5909 9e3e 8474 0f3e e2b2 91be 949e a8be
00000390: 203a 86be 28e9 bcbd 988d 643e a7ad 8b3d
000003a0: d4e4 063e ee9c 35be beff bdbd 3ad3 babd
000003b0: bde5 50bc b418 733d 15dd cdbe 2bd8 a23d
000003c0: 694c a73c 8d0c 3c3e c84b 07bf fc25 14bf
000003d0: 8e1c 09be f813 bbbe 6cff c73d 21d5 243e
000003e0: a5de b5be f634 5e3e 67fd 8ebe 9820 833c
000003f0: 55fd 30be 1595 6a3e dd92 443e c812 f9bc

fc1.bias f4 [11]
-0.0033834807 0.3269288 0.1063073 0.059411094 0.013394181 -0.05370779 -0.18511553 -0.233478
-0.24897464 -0.17134233 -0.6424171
00000000: 63bd 5dbb 3663 a73e a4b7 d93d 0c59 733d
00000010: 4473 5b3c b3fc 5bbd ed8e 3dbe db14 6fbe
00000020: 35f3 7ebe 5d74 2fbe 7275 24bf

fc2.weight f4 [11, 672]
0.0014822793 0.050869357 0.004192078 0.20880449 0.10031079 -0.0711739 -0.014349061 0.040756874
0.03377612 0.0075728893 0.15668978 -0.48968342 -0.09840654 0.040326525 -0.06019629 -0.04289655
-0.2507361 -0.050498925 0.14367744 -0.19822629 -0.054622944 -0.118444175 -0.0014469961 -0.119205415
-0.10378006 -0.25775746 -0.023538068 -0.05728563 0.016872017 -0.098186366 -0.07556485 0.28326237
0.43269157 -0.028426507 -0.07728654 0.0631523 -0.048473556 -0.03635072 0.35419506 0.036792405
-0.12206785 -0.057751395 0.006593085 -0.01876668 -0.06807107 0.06966843 0.33955675 0.0008683052
-0.016980879 0.15836073 0.034368753 -0.15641612 -0.4958925 0.086575806 0.004646075 0.11295498
-0.022964343 0.011541704 -0.10734561 0.23787215 -0.070210576 -0.16039002 0.081396595 -0.028974831
0.048603788 -0.029537166 0.2314911 0.3482365 -0.15751655 0.13119099 -0.008198928 -0.10597417
-0.20861651 -0.12206757 -0.15970752 0.04751966 -0.016693817 0.018325351 -0.11592492 -0.085656375
0.079391755 0.08455661 0.04976913 -0.11199913 0.020332148 -0.045247756 0.0047760047 -0.02707262
-0.15728624 0.08419943 -0.112606734 -0.033862546 -0.04468125 -0.013961011 -0.40464976 0.054365743
0.06844587 0.032335304 -0.02187609 0.07728966 0.043984022 -0.11748782 0.108817786 -0.13077636
0.0030049437 -0.105968185 -0.08134569 -0.098797366 0.11003428 0.12687275 0.15491523 -0.064531595
0.090720855 -0.0032528988 -0.067044094 -0.7661949 -0.1690596 0.0019598564 -0.09926579 -0.11936501
-0.14079846 0.06274309 0.44250757 0.1367927 -0.056856588 0.09015444 -0.014750329 -0.005981959
-0.0047755977 -0.07993867 0.14881325 -0.06530637 0.09537313 -0.21557151 0.048999887 0.009417605
-0.114317894 -0.7922208 0.06848861 -0.19797227 -0.072692685 0.1063531 -0.10067319 0.0024126917
0.3078355 -0.11709208 -0.0067416327 -0.045249313 -0.12218575 0.08824995 0.24359968 -0.31288883
0.036590558 -0.03349924 -0.05913957 0.2913244 0.23022215 0.26614714 -0.092289425 0.036906578
0.02961873 -0.12026658 -0.07356174 0.096776135 -0.39145514 0.12438465 -0.18982923 0.12592924
-0.030100502 -0.05839063 0.017976318 0.0830526 0.21076317 -0.16880764 -0.14186348 -0.035602234
0.009599608 -0.18773468 -0.13297968 -0.3724609 -0.19776659 0.03535496 -0.09153344 0.05701039
0.05395036 0.45844316 -0.2079238 -0.031632416 -0.09228526 -0.07053834 0.028064327 -0.059249576
0.028420858 0.18220448 -0.0902457 0.013265807 0.06651204 -0.08106731 -0.12891905 -0.055668246
-0.30212122 -0.044479277 -0.26002267 -0.033916306 -0.017463913 -0.04670643 0.0917515 0.23317024
0.059133884 0.08116651 0.0723423 -0.160122 -0.024755003 -0.09733048 -0.07111122 0.11032121
-0.18918318 0.052495286 0.10765722 0.11049479 -0.15250239 -0.2523483 -0.22542879 0.094944365
-0.046679854 0.051572714 -0.1458691 -0.66745377 -0.046733126 0.02264868 0.15142213 0.14027236
-0.009420364 0.04249152 0.023903543 -0.060728054 -0.014875668 0.036108743 -0.043705754 -0.04673033
-0.25739715 0.10760231 -0.23925154 -0.13159777 -0.0826337 0.024428653 0.11115414 0.0066444045
-0.018056586 0.021912191 0.12088306 -0.056441955 -0.095845476 0.048536494 0.14322974 0.11099572
00000000: 0a49 c23a 635c 503d b35d 893b d8d0 553e
00000010: be6f cd3d 9fc3 91bd 5318 6bbc aef0 263d
00000020: d458 0a3d 0026 f83b 4973 203e c9b7 fabe
00000030: 5e89 c9bd 6d2d 253d 6390 76bd 4bb4 2fbd
00000040: 7b60 80be f6d7 4ebd 2e20 133e d5fb 4abe
00000050: 4fbc 5fbd dc92 f2bd 22a9 bdba f821 f4bd
00000060: a48a d4bd c9f8 83be e8d2 c0bc 56a4 6abd
00000070: 2f37 8a3c ef15 c9bd bec1 9abd c407 913e
00000080: c089 dd3e b5de e8bc 6848 9ebd fe55 813d
00000090: 358c 46bd 7ee4 14bd 0e59 b53e a2b3 163d
000000a0: b5fe f9bd ba8c 6cbd ce0a d83b 95bc 99bc
000000b0: d868 8bbd 52ae 8e3d 62da ad3e fa9e 633a
000000c0: 7c1b 8bbc 5129 223e 40c6 0c3d 8c2b 20be
000000d0: 9fe5 fdbe a84e b13d 1a3e 983b f154 e73d
000000e0: b81f bcbc 6a19 3d3c 04d8 dbbd c294 733e
000000f0: 90ca 8fbd 483d 24be 42b3 a63d a05c edbc
00000100: c414 473d edf7 f1bc 010c 6d3e 0e4c b23e
00000110: 054c 21be ee56 063e cc54 06bc fc08 d9bd
00000120: 919f 55be 90fe f9bd 5e8a 23be faa3 423d
00000130: 79c1 88bc 0c1f 963c 0b6a edbd 9c6c afbd
00000140: 2598 a23d 042c ad3d b7da 4b3d cd5f e5bd
00000150: 9b8f a63c b655 39bd 0880 9c3b 66c7 ddbc
00000160: a50f 21be c070 ac3d 5c9e e6bd 74b3 0abd
00000170: b003 37bd b9bc 64bc 412e cfbe 9dae 5e3d
00000180: 592d 8c3d 0672 043d 7c35 b3bc 0b4a 9e3d
00000190: 9728 343d 749d f0bd dcdb de3d 3dea 05be
000001a0: 97ee 443b d905 d9bd 9298 a6bd 4656 cabd
000001b0: a759 e13d eeea 013e 19a2 1e3e 2429 84bd
000001c0: dbcb b93d 962e 55bb 6a4e 89bd 5925 44bf
000001d0: f61d 2dbe ef70 003b dd4b cbbd a475 f4bd
000001e0: 792d 10be 737f 803d 5a90 e23e 6313 0c3e
000001f0: 74e2 68bd e4a2 b83d 5dab 71bc 4f04 c4bb
00000200: 9e7c 9cbb e3b6 a3bd 8062 183e 59bf 85bd
00000210: fd52 c33d c7be 5cbe 1bb4 483d 4c4c 1a3c
00000220: 801f eabd fbce 4abf c243 8c3d 3eb9 4abe
00000230: e7df 94bd a7cf d93d bf2d cebd 401e 1e3b
00000240: 9d9c 9d3e f9cd efbd eae8 dcbb 5857 39bd
00000250: 863c fabd 64bc b43d 3272 793e f732 a0be
00000260: fbdf 153d 8036 09bd 553c 72bd 7928 953e
00000270: 5bbf 6b3e 7044 883e 3d02 bdbd 5a2b 173d
00000280: fba2 f23c 534e f6bd 8aa7 96bd 9132 c63d
00000290: cf6c c8be 61bd fe3d 9862 42be 98f3 003e
000002a0: 5495 f6bc 032b 6fbd 1243 933c 7b17 aa3d
000002b0: 4dd2 573e e9db 2cbe a944 11be a6d3 11bd
000002c0: ad47 1d3c 853d 40be d32b 08be 32b3 bebe
000002d0: 5383 4abe 5dd0 103d e275 bbbd ba83 693d
000002e0: 0dfb 5c3d 10b9 ea3e fae9 54be fe90 01bd
000002f0: 0e00 bdbd 6876 90bd 29e7 e53c afaf 72bd
00000300: dcd2 e83c d093 3a3e bdd2 b8bd d458 593c
00000310: 7737 883d 9e06 a6bd 5b03 04be 6304 64bd
00000320: a2af 9abe e72f 36bd b121 85be d3eb 0abd
00000330: 7b10 8fbc 3e4f 3fbd 36e8 bb3d 2ec4 6e3e
00000340: 5f36 723d a13a a63d 3328 943d 06f7 23be
00000350: 01cb cabc 3455 c7bd c2a2 91bd 16f0 e13d
00000360: 3cb9 41be 4c05 573d 637b dc3d 184b e23d
00000370: 9629 1cbe cc33 81be ced6 66be 3172 c23d
00000380: 6033 3fbd e93d 533d b65e 15be 40de 2abf
00000390: 3c6b 3fbd b989 b93c 670e 1b3e 8fa3 0f3e
000003a0: df57 1abc 970b 2e3d 5dd1 c33c fbbd 78bd
000003b0: 13b9 73bc c3e6 133d ce04 33bd 4d68 3fbd
000003c0: 8fc9 83be 9a5e dc3d 5bfe 74be 91c1 06be
000003d0: db3b a9bd 991e c83c c8a4 e33d 4eb9 d93b
000003e0: 68eb 93bc 3281 b33c 8a91 f73d ae2f 67bd
000003f0: a24a c4bd 34ce 463d d1aa 123e b951 e33d

fc2.bias f4 [11]
-0.002845768 0.08970793 -0.025755636 -0.03914232 -0.033302195 -0.011100151 -0.10099743 0.02772516
-0.13148527 0.0018530859 0.05191375
00000000: 1080 3abb cbb8 b73d 7cfd d2bc b353 20bd
00000010: e267 08bd 68dd 35bc bed7 cebd e01f e33c
00000020: 13a4 06be 3fe3 f23a 83a3 543d

fc3.weight f4 [11, 672]
0.013193536 0.0018216961 -0.04586418 0.009290767 0.18617459 0.11634179 -0.06580188 -0.07843972
0.044155337 -0.13535914 -0.13677843 0.03189745 -0.17205477 0.026237424 -0.09694505 -0.1332593
-0.19699307 -0.24309239 0.04886377 0.085581586 -0.05096789 -0.118939154 -0.006845433 -0.21126239
0.024730282 -0.2283834 -0.15181288 0.023691626 -0.07783732 -0.18733877 0.036549833 -0.124707595
0.48348117 0.3551984 0.046460148 -0.008917458 -0.014676565 0.053042345 -0.08488361 0.30803812
-0.017207384 -0.2221396 0.055564977 0.08041548 0.03384521 -0.028231455 0.16035308 0.08876961
-0.09809309 -0.07484531 -0.1551066 -0.04266197 -0.39320782 -0.3022944 0.008725522 0.06740526
-0.05517845 -0.15918854 -0.057731472 0.015097604 -0.0016736935 -0.3244452 -0.09879394 -0.07065302
-0.31476012 0.021737136 0.09080193 0.3004696 -0.24185017 -0.11729562 0.02210041 0.045153126
0.018851561 -0.19265766 -0.040726293 -0.080683805 0.0039293193 -0.03258189 -0.061044827 0.03153073
-0.11362511 0.0611058 0.33107477 -0.0644304 0.10567381 -0.01998405 -0.13328302 0.04885647
0.0846706 -0.06526504 -0.07589288 -0.021822238 -0.23990275 -0.03761707 -0.09361731 -0.44862974
0.026945801 0.06433033 -0.03176659 -0.04622632 -0.1078077 -0.10518659 -0.0617345 -0.04097858
0.058820255 0.14942753 0.009065886 -0.027658211 0.07797572 0.008240561 -0.17182916 -0.20033719
0.024366032 -0.04323671 -0.09853307 -0.24811292 -0.24202251 -0.14841741 -0.016513493 0.010854844
-0.04238368 -0.1371413 -0.101451196 0.35938033 0.024230646 0.024744254 -0.12889004 0.020947644
0.09042758 -0.014266197 -0.2667024 -0.101035886 -0.12826698 0.059495702 0.014436625 -0.032664835
-0.11985344 -0.45888153 -0.14415771 0.1778058 -0.22789647 -0.004268106 -0.046845164 -0.18081968
0.10444013 -0.05492429 -0.09423304 -0.14989546 -0.05024624 -0.048530895 -0.04164566 0.2149767
-0.19172175 -0.13455631 0.01208452 -0.036568116 -0.06182762 0.05775002 0.3264779 0.099756785
-0.009524977 0.014827402 -0.13679932 0.006892512 0.10613305 -0.22592986 -0.11914717 -0.017513767
-0.058402535 0.0055965595 0.0032303713 0.1500904 0.23884052 0.20387943 -0.18871556 -0.073328726
0.14813419 -0.3240516 -0.24721102 -0.3065059 -0.0038239243 0.01775569 0.09330903 0.15833567
-0.14172553 -0.5250162 -0.3455684 0.065859996 0.121993594 0.013175275 -0.00888477 -0.0624369
-0.044318683 0.10036979 -0.041946895 0.16877422 -0.059148468 0.0369951 -0.011253303 0.011302126
-0.055969186 -0.35838553 -0.0020976118 0.17215373 0.03694784 0.118752845 -0.07113958 -0.13252391
0.121394046 0.11896174 0.021885572 -0.007756155 0.11792173 0.020813359 0.14796871 0.2363094
-0.06583034 0.014627718 -0.123896405 -0.07489391 -0.034981217 -0.28991142 -0.4699657 -0.017512405
-0.11180469 -0.0011296936 -0.10422849 -0.18155295 -0.3748851 -0.032171264 0.004684758 0.034347616
-0.10374918 0.05894868 -0.0931793 -0.1357542 0.0051846635 0.052017175 -0.08225047 -0.037547313
-0.13797218 -0.14395192 -0.052812643 -0.018599598 -0.17521726 -0.08877191 0.009110437 0.19013813
0.02549432 -0.07142778 0.04010414 -0.050176106 -0.11381197 -0.031274226 -0.18932812 -0.23943914
00000000: b329 583c fac5 ee3a 14dc 3bbd 4d38 183c
00000010: 8da4 3e3e 9b44 ee3d 23c3 86bd 01a5 a0bd
00000020: 3adc 343d 969b 0abe a50f 0cbe e7a6 023d
00000030: 202f 30be deef d63c 208b c6bd 2075 08be
00000040: 8db8 49be 36ed 78be 6025 483d 6645 af3d
00000050: b5c3 50bd 5f96 f3bd a74f e0bb 2b55 58be
00000060: 2997 ca3c 57dd 69be d674 1bbe f114 c23c
00000070: 2c69 9fbd bcd5 3fbe 47b5 153d b266 ffbd
00000080: d88a f73e 91dc b53e ff4c 3e3d 881a 12bc
00000090: fa75 70bc ee42 593d 75d7 adbd 2cb7 9d3e
000000a0: 80f6 8cbc 9078 63be 1a98 633d dfb0 a43d
000000b0: 46a1 0a3d a745 e7bc 9933 243e d7cc b53d
000000c0: 08e5 c8bd 7f48 99bd 44d4 1ebe 51be 2ebd
000000d0: 8952 c9be 55c6 9abe 7ef5 0e3c c50b 8a3d
000000e0: cc02 62bd 5202 23be d677 6cbd f15b 773c
000000f0: d65f dbba ae1d a6be 7a54 cabd 88b2 90bd
00000100: 3d28 a1be 1412 b23c 5df6 b93d 27d7 993e
00000110: 92a7 77be b038 f0bd eb0b b53c 7cf2 383d
00000120: 976e 9a3c 0d48 45be 9dd0 26bd 8d3d a5bd
00000130: 85c1 803b 9674 05bd 240a 7abd 5e26 013d
00000140: 48b4 e8bd 134a 7a3d a282 a93e 16f4 83bd
00000150: 836b d83d 97b5 a3bc 587b 08be b91d 483d
00000160: c867 ad3d ada9 85bd ba6d 9bbd 8dc4 b2bc
00000170: 11a9 75be 5b14 1abd 6fba bfbd ccb2 e5be
00000180: 71bd dc3c 9fbf 833d af1d 02bd cf57 3dbd
00000190: 49ca dcbd 116c d7bd 51dd 7cbd 28d9 27bd
000001a0: 82ed 703d 8803 193e 1589 143c 7993 e2bc
000001b0: bcb1 9f3d 6b03 073c fcf3 2fbe 3125 4dbe
000001c0: 469b c73c fa18 31bd b5cb c9bd 5011 7ebe
000001d0: c0d4 77be bcfa 17be 4e47 87bc 84d8 313c
000001e0: 829a 2dbd c56e 0cbe a5c5 cfbd b300 b83e
000001f0: 597f c63c 76b4 ca3c c0fb 03be 659a ab3c
00000200: 1832 b93d c4bc 69bc 388d 88be e7eb cebd
00000210: 6b58 03be c4b1 733d 9887 6c3c 90cb 05bd
00000220: b875 f5bd 85f2 eabe 149e 13be b912 363e
00000230: b15d 69be 78db 8bbb b7e0 3fbd cb28 39be
00000240: b5e4 d53d 4bf8 60bd 41fd c0bd 327e 19be
00000250: 00cf 4dbd 55c8 46bd a494 2abd da22 5c3e
00000260: b552 44be 21c9 09be 27fe 453c 73c8 15bd
00000270: f53e 7dbd 498b 6c3d 1c28 a73e 494d cc3d
00000280: a60e 1cbc a2ee 723c 1f15 0cbe 95da e13b
00000290: 495c d93d 285a 67be 6e03 f4bd 0879 8fbc
000002a0: 7f37 6fbd 5863 b73b a3b4 533b 4cb1 193e
000002b0: 9c92 743e c5c5 503e a73e 41be 5f2d 96bd
000002c0: 7db0 173e 17ea a5be e324 7dbe 57ee 9cbe
000002d0: ce9a 7abb 6174 913c ce18 bf3d bf22 223e
000002e0: 7f20 11be 7667 06bf 57ee b0be 9be1 863d
000002f0: c7d7 f93d 1cdd 573c 6d91 11bc d6bd 7fbd
00000300: 8287 35bd ad8e cd3d 82d0 2bbd 26d3 2c3e
00000310: aa45 72bd 2d88 173d c65f 38bc 8d2c 393c
00000320: f23f 65bd 4f7e b7be 1678 09bb 1149 303e
00000330: 9e56 173d b134 f33d a1b1 91bd 59b4 07be
00000340: 719d f83d 36a2 f33d 5f49 b33c 5827 febb
00000350: f380 f13d c780 aa3c 1c85 173e 17fb 713e
00000360: 0fd2 86bd 19a9 6f3c 66bd fdbd fa61 99bd
00000370: 7748 0fbd 456f 94be 589f f0be 2d76 8fbc
00000380: dbf9 e4bd 3a12 94ba bf75 d5bd 04e9 39be
00000390: f1f0 bfbe 04c6 03bd 9982 993b 16b0 0c3d
000003a0: 737a d4bd 2c74 713d cad4 bebd 2603 0bbe
000003b0: 1ce4 a93b f60f 553d ef72 a8bd 36cb 19bd
000003c0: 9448 0dbe 2268 13be 1252 58bd 2f5e 98bc
000003d0: 276c 33be 0cce b5bd f143 153c 92b3 423e
000003e0: 77d9 d03c ba48 92bd 3d44 243d 7685 4dbd
000003f0: 4016 e9bd 6719 00bd 3bdf 41be 892f 75be

fc3.bias f4 [11]
-0.0024667268 -0.0927388 -0.09795226 -0.16171099 -0.12324383 -0.1084547 -0.20492598 -0.14637487
-0.17485754 -0.15479493 0.5257471
00000000: cfa8 21bb d7ed bdbd 329b c8bd 9197 25be
00000010: 4367 fcbd 7f1d debd 1ed8 51be 4be3 15be
00000020: db0d 33be 9082 1ebe 5d97 063f

fc4.weight f4 [11, 672]
-0.057632122 -0.03806781 0.0727609 0.06694359 0.09678398 0.022433313 -0.10664676 0.10426649
-0.026037488 0.046576325 -0.25345236 -0.22732173 -0.08633688 -0.2452056 -0.056349132 -0.11130474
-0.31233102 -0.55114454 -0.236009 -0.12372871 -0.15206425 -0.32677743 -0.1301738 -0.09803811
-0.28921294 -0.2210841 -0.28720036 -0.11135893 -0.37419638 -0.10247186 -0.15214421 -0.017442843
0.22024201 0.5027679 0.06153948 -0.17235613 -0.11595011 -0.12162546 -0.11715752 0.048721332
0.042775482 -0.23543762 -0.23793334 0.15909575 0.099154554 0.01896489 -0.0877991 0.34912965
-0.041738134 -0.08136697 -0.05027794 -0.09193136 -0.08990684 -0.44018123 -0.052405454 -0.044888437
-0.0664957 -0.10507917 -0.3891963 -0.7326718 -0.1440546 -0.5084856 -0.09042243 -0.22593933
-0.15659335 -0.32100266 -0.22077692 -0.17950295 -0.16144639 -0.3854905 -0.07137409 -0.23497212
0.13024852 -0.27594084 -0.0017622046 0.12843655 0.008359035 -0.11034221 0.015793344 -0.11959011
-0.017708298 -0.07688262 0.15458843 0.29613313 -0.06609081 0.14362101 0.040024657 -0.04044078
-0.08552085 -0.13483103 -0.014174373 -0.18180123 -0.13196442 0.066727534 0.00195925 0.021916116
-0.2766024 0.07138246 -0.07897939 -0.06512814 0.00033006544 -0.23558536 -0.23679055 -0.2407569
-0.19407152 -0.045234524 -0.0523667 -0.030506859 -0.058482878 -0.27763844 0.03505941 -0.04830839
-0.06783268 -0.0035474016 -0.019673146 -0.25734282 -0.24578707 -0.3875916 0.08055502 0.06572014
0.13667342 -0.20607364 -0.2532912 0.001981229 0.30431893 -0.07941051 -0.15947379 -0.257691
-0.3268055 -0.30888048 -0.30544102 -0.16389072 -0.19203788 -0.13162595 -0.19864392 -0.5468037
-0.17255338 -0.46463454 -0.75641704 -0.13213745 -0.17606202 -0.25135872 -0.42675078 -0.2999724
-0.30267486 0.30616224 0.03475646 -0.11307977 0.1608376 -0.12796617 -0.19348083 -0.0417621
-0.21608672 -0.15874395 -0.30081224 -0.42442793 0.07628001 -0.1804788 -0.08940702 -0.25996986
-0.1959093 -0.14424123 0.21658078 -0.28998077 -0.025197644 -0.26947802 0.15721138 -0.309568
-0.016914228 -0.19247553 -0.36096293 -0.023249691 -0.05954023 -0.024216164 -0.026800394 0.10387861
-0.3614379 -0.08831903 -1.6656224 -0.15779567 -0.22635376 -0.16909996 0.04117242 -0.13655771
-0.114011824 -0.5758918 -0.110449955 -0.37839034 -0.2358026 -0.07460044 0.02157895 -0.099820875
-0.06645081 -0.018591497 0.15438187 -0.53959614 -0.109051324 -0.32358888 -0.1399785 -0.1734018
-0.17968242 -0.53227615 -0.28889373 -0.034026407 -0.10874425 -0.10256491 0.009705532 0.038418084
0.15765412 0.116317 -0.041597776 -0.01600872 -0.020935526 0.12857956 -0.20756115 0.08060752
-0.06449708 0.0114616025 -0.15063897 0.07309694 -0.18494166 -0.12933584 -0.5453295 0.024508523
-0.02016632 0.076970376 -0.39409208 -0.16203944 -0.6801811 -0.21853791 0.06299947 -0.123784184
-0.22159712 -0.0075631314 -0.363066 -0.3006723 -0.12535994 -0.069266886 -0.0827265 -0.2545728
-0.014890499 -0.45787296 0.04361157 -0.32424098 -0.2228221 0.15466577 0.22514494 -0.01959385
0.1285369 -0.18811908 0.04269741 0.13216718 -0.06657093 0.05369884 0.05613632 -0.048261534
00000000: a90f 6cbd feec 1bbd ab03 953d b919 893d
00000010: ae36 c63d 11c6 b73c 9e69 dabd ab89 d53d
00000020: 924c d5bc d1c6 3e3d 82c4 81be 07c7 68be
00000030: 64d1 b0bd 2d17 7bbe 59ce 66bd bdf3 e3bd
00000040: dae9 9fbe cf17 0dbf 58ac 71be 7a65 fdbd
00000050: bbb6 1bbe 5f4f a7be 484c 05be 34c8 c8bd
00000060: b813 94be df63 62be ed0b 93be 2710 e4bd
00000070: ab96 bfbe c4dc d1bd b1cb 1bbe 4be4 8ebc
00000080: 1f87 613e 66b5 003f d210 7c3d 207e 30be
00000090: 4077 edbd c516 f9bd 48f0 efbd 0590 473d
000000a0: 5835 2f3d 8f16 71be cca4 73be ffe9 223e
000000b0: 8b11 cb3d 425c 9b3c 04d0 b3bd 1fc1 b23e
000000c0: 9bf5 2abd baa3 a6bd 3ef0 4dbd 8246 bcbd
000000d0: 1421 b8bd 6f5f e1be 1aa7 56bd f0dc 37bd
000000e0: e62e 88bd bf33 d7bd bd44 c7be 6190 3bbf
000000f0: 0d83 13be 1d2c 02bf 652f b9bd a45c 67be
00000100: 025a 20be 765a a4be 5813 62be 9fcf 37be
00000110: 3452 25be 035f c5be 942c 92bd 889c 70be
00000120: de5f 053e 1e48 8dbe c6f9 e6ba df84 033e
00000130: 55f4 083c 19fb e1bd 0b61 813c a9eb f4bd
00000140: fe10 91bc a374 9dbd 6e4c 1e3e c39e 973e
00000150: 9e5a 87bd 6311 133e e5f0 233d 3ba5 25bd
00000160: 8e25 afbd 2511 0abe a13b 68bc 1a2a 3abe
00000170: ae21 07be 72a8 883d c366 003b 6d89 b33c
00000180: d49e 8dbe f830 923d f2bf a1bd e761 85bd
00000190: a20c ad39 4a3d 71be 3979 72be fa88 76be
000001a0: afba 46be d647 39bd 777e 56bd 85e9 f9bc
000001b0: be8b 6fbd a026 8ebe 759a 0f3d 05df 45bd
000001c0: dceb 8abd 867b 68bb 9429 a1bc 70c2 83be
000001d0: 9baf 7bbe 6872 c6be 08fa a43d 4898 863d
000001e0: 1ef4 0b3e f804 53be 62af 81be 82d7 013b
000001f0: b1cf 9b3e faa1 a2bd 194d 23be 13f0 83be
00000200: 0d53 a7be 9525 9ebe c462 9cbe f8d2 27be
00000210: 94a5 44be f4c8 06be 5069 4bbe 54fb 0bbf
00000220: d5b1 30be 94e4 edbe 8ca4 41bf 0a4f 07be
00000230: 9a49 34be 17b2 80be 147f dabe fb95 99be
00000240: 33f8 9abe 4cc1 9c3e ca5c 0e3d 5e96 e7bd
00000250: 9db2 243e 9009 03be d71f 46be bc0e 2bbd
00000260: d645 5dbe c68d 22be 1004 9abe 9e4e d9be
00000270: b238 9c3d 6fcf 38be 071b b7bd c51a 85be
00000280: 739c 48be f9b3 13be 5ac7 5d3e 5c78 94be
00000290: 4a6b cebc 06f9 89be 05fc 203e b27f 9ebe
000002a0: b58f 8abc 4e18 45be 22d0 b8be 2376 bebc
000002b0: 75e0 73bd fa60 c6bc 808c dbbc 4fbe d43d
000002c0: 630e b9be 9ce0 b4bd 1d33 d5bf 3095 21be
000002d0: 48c9 67be 8a28 2dbe 69a4 283d c9d5 0bbe
000002e0: 087f e9bd a56d 13bf 9633 e2bd 61bc c1be
000002f0: 3d76 71be 1ec8 98bd 57c6 b03c e36e ccbd
00000300: 5d17 88bd 324d 98bc 4816 1e3e f922 0abf
00000310: 4d56 dfbd 71ad a5be 8656 0fbe 3e90 31be
00000320: abfe 37be 4043 08bf e1e9 93be 465f 0bbd
00000330: 4eb5 debd 8d0d d2bd f403 1f3c 485c 1d3d
00000340: 1570 213e 9b37 ee3d 6e62 2abd b824 83bc
00000350: fb80 abbc 5caa 033e e98a 54be 8e15 a53d
00000360: 0c17 84bd 72c9 3b3c 1a41 1abe d9b3 953d
00000370: 5961 3dbe 9d70 04be b79a 0bbf 19c6 c83c
00000380: d733 a5bc a5a2 9d3d 70c6 c9be abed 25be
00000390: 5920 2ebf 67c8 5fbe de05 813d 9082 fdbd
000003a0: 5bea 62be 25d4 f7bb c9e3 b9be b8f1 99be
000003b0: 5b5e 00be ccdb 8dbd 836c a9bd 5e57 82be
000003c0: 48f7 73bc 536e eabe 0ca2 323d ea02 a6be
000003d0: 7a2b 64be b460 1e3e 658c 663e 4883 a0bc
000003e0: 2d9f 033e 4aa2 40be 7be3 2e3d d556 073e
000003f0: 5756 88bd 51f3 5b3d 33ef 653d e3ad 45bd

fc4.bias f4 [11]
-0.2021043 -0.21702492 -0.2517352 -0.2150658 -0.16474973 -0.31838116 -0.18136287 -0.138945
-0.14403272 -0.24184941 0.6314304
00000000: 6ef4 4ebe c83b 5ebe 70e3 80be 363a 5cbe
00000010: 27b4 28be db02 a3be 30b7 39be 9947 0ebe
00000020: 507d 13be 5fa7 77be 6ca5 213f

fc5.weight f4 [11, 672]
-0.064902514 0.1085911 -0.010011355 -0.02319109 -0.19142784 -0.11742711 0.06964988 -0.9585686
-0.60710645 -1.275101 -0.7074927 -0.7079284 -1.325827 0.069322236 -1.151277 -0.044294666
-1.007551 -0.549596 -0.74727196 -1.281416 0.077030055 0.03884357 -0.726503 -0.25405222
-0.23347218 -0.22429551 -0.30404893 -0.21214168 0.07102782 0.036298558 0.093592495 0.06872418
-0.003542244 0.13857722 -0.28272247 -0.0041879043 -0.35757113 -0.025328906 0.034695286 -0.053381182
0.09763808 -0.33047754 -0.4303507 -0.13205348 -0.37481546 -0.33077154 -0.052117564 -0.43149355
-0.142101 -0.5184066 -0.81871784 -0.29846495 -0.25597918 0.0059542917 -0.7830649 -0.019702336
-0.8064107 -0.24110353 -0.5293852 -0.52162945 -0.00668853 -0.77546906 -0.20574857 0.024596319
-0.0618175 -0.006692518 0.1481176 -0.19666743 -0.13026497 0.06943791 -0.05574749 -0.16684137
0.011557383 0.09175466 -0.30602157 -0.14504473 0.014637164 0.024338981 -0.03445983 0.04825219
0.016709272 0.053618226 0.038537744 -0.061731927 -1.0107257 -0.6137356 -0.50009614 -0.2333813
-0.79412293 -1.2215365 -0.46802923 -0.58012986 -1.6735432 -0.65264404 -0.08292715 -1.8493793
-1.0150919 -0.40959156 -1.3561474 -1.3047155 -0.2678489 -0.11631752 -1.4482292 -1.4493672
-0.3468408 -0.692294 -0.45627964 -0.57212913 -0.4929852 -0.635598 -0.62341845 -0.60778433
-0.5333846 -0.83445925 -0.7210761 -0.50777936 -0.25749654 -0.74777216 -0.6142502 -0.4785118
-0.6057198 -0.3981146 -0.68073064 -0.5804254 -0.4002784 -0.6686382 -0.041330177 0.11706215
0.021168573 0.11685492 0.08952157 -0.032758698 0.06082674 -0.5609186 -1.0021603 -0.3094285
-0.37555677 -0.5717508 -0.6756994 0.08044117 -0.07788986 0.057276405 0.09933146 -0.003042447
-0.20259438 -0.18560301 0.045560263 -0.13593714 -0.43069378 0.049619954 0.07301629 -0.07935783
-0.2733427 -0.09055504 -0.70162845 -0.12815985 -0.18058152 -0.1599971 -0.50673825 -0.015075953
-0.20541328 -0.7173333 -0.7045257 -0.016463589 -0.18730725 -0.037827574 -0.023058178 -0.1878266
-0.4233582 -0.5098283 -0.30161107 -0.31456575 -0.29475904 -0.50121206 -0.6845188 -0.5121197
-0.60395193 -0.39898235 -0.0743102 -0.1171083 -0.5862 -0.6464554 -0.61227256 -0.64201486
-0.37789443 -0.15746784 -0.21747084 -0.6273823 -0.8234663 0.034145318 6.6339235e-05 0.009691531
0.019852368 -0.02220081 0.011193432 -0.0329124 -0.3206148 -0.2690455 -1.0861397 -0.5701847
-0.49601752 -0.5791344 -0.17361471 -0.03805465 0.09201712 -0.2829642 -0.036287304 0.07486256
0.1288981 -0.4124321 -0.82093716 -0.9275983 -0.86945367 -0.60667795 -0.7831663 -0.8397978
-1.0338265 -1.0847584 -0.8026176 -0.9079968 -0.59460974 -0.45075524 -0.9502498 -1.0493854
-0.99249446 -1.0637956 -0.632266 -0.53085744 -0.7228067 -0.83152723 -1.0905061 -0.019758932
-0.08655238 0.028564531 0.053228684 0.049382158 0.0633727 0.016481172 -0.23845473 -0.59686303
-0.4178658 -1.0284969 -0.81642854 -1.2967421 -0.04944254 -0.3424563 -0.031973187 -0.8283906
-1.0470892 -0.32116044 -0.60641813 -0.019831823 -0.4000935 -0.45982283 -0.40722075 -0.82324445
00000000: 9ceb 84bd 0365 de3d ab06 24bc 3efb bdbc
00000010: a905 44be a07d f0bd 99a4 8e3d c064 75bf
00000020: 546b 1bbf 8236 a3bf 3e1e 35bf cc3a 35bf
00000030: b3b4 a9bf d1f8 8d3d 0b5d 93bf 536e 35bd
00000040: 6ef7 80bf 53b2 0cbf 374d 3fbf 7105 a4bf
00000050: efc1 9d3d 6f1a 1f3d 1afc 39bf 2213 82be
00000060: 5513 6fbe b9ad 65be 4dac 9bbe ab3b 59be
00000070: 0977 913d ccad 143d 6cad bf3d 43bf 8c3d
00000080: fe24 68bb 30e7 0d3e 00c1 90be b03a 89bb
00000090: 9013 b7be 917e cfbc a51c 0e3d 3aa6 5abd
000000a0: 79f6 c73d 5a34 a9be ed56 dcbe 0739 07be
000000b0: d0e7 bfbe e35a a9be 3a79 55bd b9ec dcbe
000000c0: ed82 11be 4cb6 04bf 7e97 51bf 66d0 98be
000000d0: b40f 83be 381c c33b f176 48bf cb66 a1bc
000000e0: ee70 4ebf d8e3 76be ca85 07bf 8289 05bf
000000f0: 752b dbbb 2485 46bf c1af 52be 387e c93c
00000100: 5934 7dbd e94c dbbb 24ac 173e 3063 49be
00000110: 2e64 05be 7735 8e3d 7b57 64bd 77d8 2abe
00000120: 2e5b 3d3c dee9 bb3d dcae 9cbe 9b86 14be
00000130: b7d0 6f3c 8b62 c73c c025 0dbd 17a4 453d
00000140: e2e1 883c c99e 5b3d c1d9 1d3d 9eda 7cbd
00000150: 765f 81bf c71d 1dbf 4d06 00bf 82fb 6ebe
00000160: a44b 4bbf 4f5b 9cbf 87a1 efbe 6483 14bf
00000170: aa36 d6bf ae13 27bf b6d5 a9bd 76b8 ecbf
00000180: 88ee 81bf fcb5 d1be 3d96 adbf eb00 a7bf
00000190: 7e23 89be e137 eebd 935f b9bf dd84 b9bf
000001a0: 1e95 b1be 2e3a 31bf 7c9d e9be 0e77 12bf
000001b0: 8e68 fcbe 8db6 22bf 5a98 1fbf c197 1bbf
000001c0: e58b 08bf 1f9f 55bf 7198 38bf d4fd 01bf
000001d0: 96d6 83be ff6d 3fbf 803f 1dbf 80ff f4be
000001e0: 7410 1bbf add5 cbbe 5d44 2ebf c296 14bf
000001f0: 4af1 ccbe e02b 2bbf d549 29bd 48be ef3d
00000200: b769 ad3c a251 ef3d 1657 b73d fc2d 06bd
00000210: 7625 793d 5d98 0fbf ca46 80bf 6a6d 9ebe
00000220: fa48 c0be 435e 12bf a3fa 2cbf 57be a43d
00000230: b884 9fbd aa9a 6a3d 4b6e cb3d ca63 47bb
00000240: e774 4fbe b70e 3ebe 669d 3a3d 1b33 0bbe
00000250: e583 dcbe 4b3e 4b3d 9189 953d 5c86 a2bd
00000260: 93f3 8bbe ec74 b9bd ec9d 33bf 563c 03be
00000270: 5dea 38be 48d6 23be 99b9 01bf 2101 77bc
00000280: dc57 52be 28a3 37bf cc5b 34bf a6de 86bc
00000290: 79cd 3fbe 16f1 1abd 81e4 bcbc 9e55 40be
000002a0: 68c2 d8be 1c84 02bf c46c 9abe c30e a1be
000002b0: a8ea 96be 6f4f 00bf a03c 2fbf 471a 03bf
000002c0: 989c 1abf 6a47 ccbe f22f 98bd 7ad6 efbd
000002d0: 3411 16bf 1a7e 25bf e5bd 1cbf 165b 24bf
000002e0: 617b c1be 403f 21be adb0 5ebe 209c 20bf
000002f0: b0ce 52bf f6db 0b3d 9b1f 8b38 3ac9 1e3c
00000300: 6fa1 a23c 79de b5bc a864 373c 27cf 06bd
00000310: a027 a4be 55c0 89be a006 8bbf a0f7 11bf
00000320: 02f6 fdbe 2742 14bf 0ec8 31be 31df 1bbd
00000330: 7973 bc3d afe0 90be ffa1 14bd 8b51 993d
00000340: ddfd 033e 4d2a d3be f028 52bf 1577 6dbf
00000350: 8494 5ebf 3f4f 1bbf 967d 48bf fdfc 56bf
00000360: 6d54 84bf 5dd9 8abf 5978 4dbf 7a72 68bf
00000370: 5838 18bf 64c9 e6be 9243 73bf 4352 86bf
00000380: 1e14 7ebf 742a 88bf 2fdc 21bf 46e6 07bf
00000390: dc09 39bf f8de 54bf b495 8bbf 7cdd a1bc
000003a0: 6042 b1bd 2a00 ea3c 5206 5a3d f244 4a3d
000003b0: 8cc9 813d 8603 873c 7a2d 74be 04cc 18bf
000003c0: 82f2 d5be c9a5 83bf 7601 51bf a5fb a5bf
000003d0: 4384 4abd 6f56 afbe 51f6 02bd 6811 54bf
000003e0: 0507 86bf 246f a4be 383e 1bbf 5976 a2bc
000003f0: 0ed9 ccbe e66d ebbe 3d7f d0be 26c0 52bf

fc5.bias f4 [11]
-0.16935284 -0.086725585 -0.71385056 -0.075339966 -0.6913784 -0.24425562 -0.6604318 -0.22564006
-0.69135535 -0.28425968 -0.048851192
00000000: d56a 2dbe 2f9d b1bd e9be 36bf d74b 9abd
00000010: 2dfe 30bf 251e 7abe 0f12 29bf 300e 67be
00000020: aafc 30bf 7c8a 91be 3018 48bd
