code/model.pt (torch, 142939 bytes, 12 tensors)

cnn.0.weight f4 [16, 3, 3, 3]
0	0x3e9062fe	0.28200525
1	0x3e9df7f3	0.30853233
2	0x3e68cf56	0.22735342
3	0xbe5c9f63	-0.21545176
4	0x3ddfe80b	0.109329306
5	0x3daefdfe	0.08544539
6	0xbc92e3ac	-0.017930828
7	0xbeacf3c2	-0.33779722
8	0xbeb78afa	-0.35848218
9	0x3e819b60	0.25313854
10	0x3eddf510	0.4335103
11	0x3df5f44d	0.12009487
12	0x3e0b2b81	0.13590814
13	0xbdef01cb	-0.11670264
14	0xbc0ec213	-0.008713263
15	0xbe4e4960	-0.20145178
16	0xbe6d0fe2	-0.2315059
17	0xbe664d60	-0.22490454
18	0x3daf6575	0.08564273
19	0x3e9a148e	0.30093807
20	0x3ee166dc	0.44023788
21	0xbe7c22a8	-0.24622595
22	0x3b5218d4	0.0032058256
23	0x3e6617f8	0.22470081
24	0xbed532d4	-0.4164034
25	0xbf1017df	-0.56286424
26	0xbd810428	-0.06299621
27	0x3e0f0c5f	0.13969563
28	0xbe3cc813	-0.18435697
29	0xbe5ff709	-0.2187158
30	0x3e53e1bf	0.20691584
31	0x3e073ac5	0.13206013
32	0xbe1609ef	-0.14652227
33	0x3e42abca	0.19010845
34	0x3d00d7da	0.031455852
35	0xbdf741bd	-0.120730855
36	0xbd8c4678	-0.06849378
37	0xbe80842c	-0.2510084
38	0xbe1604cc	-0.14650267
39	0x3ec3f288	0.38270974
40	0x3e3126fe	0.1730003
41	0xbe59d447	-0.21272384
42	0x3d9d687e	0.07685946
43	0x3e144d60	0.14482641
44	0x3d333ad4	0.043757275
45	0xbd7c5732	-0.061606593
46	0xbe492787	-0.19643985
47	0xbe9d98f3	-0.30780753
48	0x3eebd61e	0.46061796
49	0x3c10de8b	0.008842121
50	0xbe7f5b83	-0.24937253
51	0x3e10e8f3	0.14151363
52	0x3e6ed784	0.233244
53	0xbe6d2481	-0.23158456
54	0x3e571a42	0.2100611
55	0xbe844691	-0.25835088
56	0xbd9a6e86	-0.07540612
57	0x3e433514	0.19063216
58	0x3d0e47cc	0.03473644
59	0xbce7bd05	-0.028288374
60	0x3d6ab519	0.057301614
61	0xbb70e8dd	-0.003675989
62	0x3eae062a	0.33989078
63	0x3d810b47	0.06300979
64	0xbe96389c	-0.29340065
65	0xbdb68be2	-0.08913399
66	0xbd892371	-0.06696213
67	0x3d0d03ad	0.034427334
68	0xbbd48bf2	-0.0064864093
69	0xbe9dea47	-0.30842802
70	0xbe710d15	-0.23540147
71	0x3e7f8f70	0.24957061
72	0x3ea42021	0.32055762
73	0xbe007148	-0.12543213
74	0xbbb3621f	-0.0054743434
75	0x3d88cd5c	0.06679794
76	0xbe6df696	-0.23238596
77	0x3ddfcce8	0.10927755
78	0xbe01d545	-0.12679012
79	0xbcec3f18	-0.02883868
80	0x3de691fc	0.11258313
81	0xbeb7a3b1	-0.35867074
82	0xbda5670c	-0.08076295
83	0x3e95c232	0.29249722
84	0x3caebbbc	0.021329753
85	0xbd9373f2	-0.07199849
86	0x3ddd844d	0.1081625
87	0x3e3983b8	0.18116653
88	0xbd986f62	-0.074431196
89	0xbd9b86c9	-0.075940676
90	0x3d8c4c21	0.06850458
91	0xbccf13e8	-0.025278047
92	0x3ea3f522	0.3202296
93	0xbb691cd3	-0.003557016
94	0x3b976779	0.004620489
95	0x3dfc5c29	0.12322266
96	0x3e98a365	0.2981216
97	0x3e048a0f	0.1294329
98	0xbe450c55	-0.19242986
99	0xbc4283e2	-0.011872264
100	0xbd3f7954	-0.046746567
101	0x3e1ae016	0.15124545
102	0xbce2db10	-0.027692348
103	0x3ce8dceb	0.028425654
104	0xbe5cb975	-0.21555121
105	0x3e935e33	0.28782806
106	0xbe8fb1f4	-0.28065455
107	0xbea7b782	-0.32757193
108	0x3f0c8e83	0.54904956
109	0x3e4714a0	0.19441462
110	0x3e2a7e84	0.16649824
111	0x3e1b0a0c	0.15140551
112	0xbddc3447	-0.107521586
113	0xbcf2290b	-0.029560586
114	0xbe51b3d5	-0.20478757
115	0xbe9795b2	-0.29606396
116	0xbed8b782	-0.42327505
117	0x3eaf84b1	0.34280923
118	0x3e9b8e9d	0.30382243
119	0x3ee098de	0.43866628
120	0x3e0ab76e	0.13546535
121	0x3c54edc0	0.012996137
122	0xbdac8865	-0.08424453
123	0xbea8f5a6	-0.32999915
124	0xbe8413cf	-0.25796363
125	0xbefc6fb3	-0.4930397
126	0x3e89afa9	0.2689183
127	0x3e46879a	0.19387665
128	0x3cf6d571	0.030131074
129	0xbccfc48e	-0.02536228
130	0x3dd62411	0.10456098
131	0xbe379862	-0.17929223
132	0xbe1de2c9	-0.15418543
133	0xbe0c5b3e	-0.13706681
134	0xbe4391db	-0.19098608
135	0x3ec2c55b	0.38041195
136	0xbcf7e712	-0.03026155
137	0xbe945fda	-0.2897938
138	0x3dd975b0	0.1061815
139	0x3da75809	0.08171088
140	0xbe41fbcb	-0.18943708
141	0x3e225b3e	0.15855119
142	0xbd218774	-0.03943582
143	0xbe870e24	-0.26377976
144	0x3ec40486	0.382847
145	0x3b675161	0.0035296308
146	0xbdc91d3a	-0.09820028
147	0x3e7a19a3	0.24423842
148	0x3d459292	0.048235483
149	0xbe80c777	-0.2515218
150	0x3e1e430a	0.15455261
151	0xbdbfb0c4	-0.09359887
152	0xbeaa1cdd	-0.33225146
153	0x3daefe9a	0.08544655
154	0x3c84f95d	0.016232187
155	0xbd974180	-0.0738554
156	0x3e321f77	0.17394815
157	0x3df209a9	0.11818249
158	0xbe41a68a	-0.18911186
159	0x3d275c6e	0.040859632
160	0xbda8332a	-0.08212884
161	0xbddd866d	-0.10816655
162	0xbe9de9b0	-0.30842352
163	0xbdfa784e	-0.122299775
164	0x3e2cbc8d	0.16868801
165	0xbd8f1263	-0.06985929
166	0x3c7e34e2	0.015515538
167	0xbd16436a	-0.036685385
168	0xbe82cada	-0.25545388
169	0x3e775e28	0.24157012
170	0x3eb50e55	0.35362497
171	0xbe974d55	-0.29551187
172	0xbdd2523e	-0.10269593
173	0xbd5e7119	-0.054307077
174	0xbe58a9d6	-0.21158537
175	0xbd6d5574	-0.057942823
176	0x3e93fea9	0.28905228
177	0xbe93853b	-0.28812584
178	0x3e594369	0.21217121
179	0x3eee56a8	0.46550488
180	0xbe93e9c3	-0.28889284
181	0xbe3ff942	-0.18747428
182	0xbc884c57	-0.016637964
183	0x3e1faa67	0.15592347
184	0xbe0bd16e	-0.1365411
185	0x3dff3783	0.1246176
186	0x3e086df8	0.133232
187	0xbcc37cc8	-0.023863211
188	0x3e8dedfb	0.27720627
189	0xbe063900	-0.13107681
190	0xbe2c05da	-0.16799107
191	0xbeb36097	-0.3503463
192	0x3e86bcec	0.2631601
193	0xbdc56ffb	-0.09640499
194	0xbe26275e	-0.16225955
195	0x3eee7322	0.46572214
196	0x3e892779	0.26787928
197	0xbd97f641	-0.07420016
198	0xbe3e3588	-0.18575108
199	0xbedf47f4	-0.43609583
200	0xbe9debae	-0.30843872
201	0x3e70d414	0.23518401
202	0x3d60af93	0.05485494
203	0xbe6ee9fc	-0.23331445
204	0x3ed64313	0.4184805
205	0x3ec5cdd0	0.38633585
206	0x3db45af4	0.088064104
207	0xbd8a01cb	-0.06738623
208	0xbe8f1c79	-0.2795141
209	0xbeb0d1d7	-0.34535095
210	0x3e01a01a	0.1265873
211	0x3daa905c	0.083283156
212	0xbcdb86d1	-0.026797684
213	0x3e556d33	0.20842437
214	0x3e0cfa21	0.13767292
215	0x3dc67db2	0.09691943
216	0xbeb4bcf5	-0.35300413
217	0xbe92a041	-0.2863789
218	0xbc7420ef	-0.01490043
219	0x3db7f076	0.08981411
220	0x3d8ed7b4	0.06974736
221	0xbdc93d8a	-0.09826191
222	0x3ecaa5d7	0.3957965
223	0x3e1d1351	0.153394
224	0x3d45d6e0	0.048300624
225	0xbedff852	-0.4374414
226	0xbddff7c6	-0.10935931
227	0xbdae1f85	-0.085021056
228	0xbd446469	-0.04794732
229	0xbde0a438	-0.10968822
230	0xbda2bbcd	-0.079459764
231	0x3ed312bb	0.41225228
232	0x3ec733a4	0.38906586
233	0x3e9ad1c2	0.30238158
234	0xbed933b3	-0.42422256
235	0xbe322365	-0.17396314
236	0xbe8116a6	-0.25212592
237	0xbd529ccc	-0.051419064
238	0xbde81c76	-0.113335535
239	0x3d0b2b3f	0.03397679
240	0x3ebb002c	0.3652357
241	0x3de3e05d	0.11126778
242	0x3e26304e	0.16229364
243	0xbe9f243b	-0.3108233
244	0xbe8eaa97	-0.27864525
245	0xbe8debd3	-0.27718982
246	0xbda8e836	-0.08247416
247	0x3df069b5	0.11738912
248	0xbe21172c	-0.15731496
249	0x3e815fef	0.25268504
250	0x3e205e4a	0.15660968
251	0x3f01da50	0.50723743
252	0xbeb13ff8	-0.34619117
253	0xbe976bd3	-0.2957445
254	0xbe9af91e	-0.30268186
255	0xbdba534e	-0.0909792

cnn.0.bias f4 [16]
0	0xbf194890	-0.59876347
1	0xbf27cdb0	-0.6554823
2	0xbc68b093	-0.014202255
3	0x3de239c8	0.11046177
4	0xbd481966	-0.048852347
5	0xbbbf66a1	-0.0058410917
6	0xbe2f3999	-0.17111816
7	0xbd7fe108	-0.062470466
8	0xbee43132	-0.44568783
9	0xbe0f54ff	-0.13997267
10	0xbb4a1c03	-0.003083945
11	0x3d6e6cc2	0.05820919
12	0xbf2d59ca	-0.6771513
13	0xbf45c45e	-0.7725276
14	0xbde92ba3	-0.11385276
15	0xbf44fadd	-0.76945287

cnn.3.weight f4 [32, 16, 3, 3]
0	0xbc675b06	-0.014120823
1	0xbe3bd951	-0.18344618
2	0xbe7068f0	-0.2347753
3	0xbece13af	-0.40249392
4	0xbe985972	-0.2975574
5	0xbec42f02	-0.38317114
6	0xbe3a1fa2	-0.1817613
7	0xbdac368d	-0.08408842
8	0xbc44d1fa	-0.012012953
9	0xbbb33660	-0.0054691285
10	0xbde03c8c	-0.109490484
11	0xbe4100cf	-0.18847965
12	0xbd238ab9	-0.039927218
13	0xbdd889a5	-0.105731286
14	0x3cc8980f	0.02448657
15	0xbe8bb472	-0.27286106
16	0x3cf11305	0.029428015
17	0x3dc29aba	0.09502168
18	0x3db4daee	0.0883082
19	0xbdd85c69	-0.10564501
20	0xbe113f56	-0.14184317
21	0xbd877afa	-0.06615253
22	0xbe309b14	-0.17246658
23	0xbcc4d174	-0.024025656
24	0xbe54bc09	-0.20774855
25	0xbdef227e	-0.11676501
26	0x3dfcaf78	0.123381555
27	0xbdd32a1c	-0.10310766
28	0x3c5dd338	0.013539128
29	0xbe3477f2	-0.1762388
30	0xbb1cc048	-0.002391832
31	0x3eaf7866	0.34271544
32	0xbe1151f5	-0.1419142
33	0xbe832b05	-0.2561876
34	0xbdf25505	-0.118326224
35	0xbd52d904	-0.051476493
36	0x3e36a614	0.17836791
37	0x3e8b1269	0.27162483
38	0xbc7bcb3a	-0.015368277
39	0x3e737ce3	0.23778109
40	0x3e53a715	0.20669205
41	0x3d08f6cb	0.033438485
42	0x3efee2eb	0.497825
43	0x3e586dee	0.21135685
44	0xbdfaaf44	-0.122404605
45	0xbd913783	-0.07090666
46	0xbee78082	-0.4521523
47	0xbe116c07	-0.14201365
48	0xbe933792	-0.28753334
49	0xbe54dfb8	-0.20788467
50	0x3d981ed1	0.07427753
51	0xbf48244a	-0.7818037
52	0xbdfdc824	-0.123916894
53	0x3da0d135	0.07852403
54	0x3d5c9149	0.053849492
55	0xbea79aeb	-0.3273538
56	0xbe243be4	-0.16038471
57	0xbe2d7161	-0.16937782
58	0xbe03462b	-0.12819736
59	0xbd7e7bda	-0.062129833
60	0xbef87fab	-0.48534903
61	0xbdbb3e27	-0.09142714
62	0x3da3e36e	0.08002363
63	0xbd87c126	-0.06628637
64	0xbe255a20	-0.16147661
65	0x3d5de0bf	0.054169413
66	0x3e0195db	0.12654822
67	0x3d8358d0	0.06413424
68	0x3d1241c6	0.035707258
69	0xbd98f4e7	-0.074685864
70	0xbd8943d7	-0.067023925
71	0xbd90220c	-0.07037744
72	0xbea98cb1	-0.33115152
73	0xbd481707	-0.048850086
74	0xbd0f55b0	-0.034993827
75	0x3d3ec046	0.046570085
76	0x3d43a908	0.047768623
77	0xbcaa73e6	-0.020807218
78	0x3e1e4808	0.15457165
79	0xbe1e42b0	-0.15455127
80	0xbd175a26	-0.036951207
81	0x3e258235	0.16162951
82	0x3eaab138	0.33338332
83	0x3e0f2acd	0.13981171
84	0x3cf85665	0.030314634
85	0x3e2df70e	0.16988775
86	0x3c739c71	0.0148688415
87	0x3ea83fe5	0.32861248
88	0x3dbec578	0.09315008
89	0xbd78c33e	-0.060733072
90	0x3c0fa45e	0.008767216
91	0xbedcdce2	-0.4313727
92	0xbe138f3a	-0.14410105
93	0xbd82201d	-0.06353781
94	0x3e367392	0.17817524
95	0x3e813add	0.25240222
96	0xbef9b2eb	-0.48769316
97	0x3ca9adf0	0.020712823
98	0x3e0f7e0d	0.14012928
99	0x3e326f80	0.17425346
100	0x3df62b81	0.120200165
101	0x3db9fd31	0.090814956
102	0x3d6d01c7	0.057863023
103	0x3d8d9d5f	0.06914782
104	0xbd4a78a1	-0.049431447
105	0x3ea7f79c	0.32806098
106	0x3e3ea233	0.18616562
107	0xbe3064d8	-0.17225969
108	0xbd898ed3	-0.06716695
109	0xbdd85570	-0.10563171
110	0xbe344cd2	-0.1760743
111	0xbdce5b1e	-0.10075973
112	0xbd34e989	-0.04416803
113	0x3d4bf185	0.049790878
114	0xbe0a5b64	-0.13511425
115	0xbdcd6e0d	-0.10030756
116	0xbda889cb	-0.08229407
117	0xbf121023	-0.5705587
118	0x3d52f164	0.05149974
119	0x3dc73b4d	0.097281076
120	0xbe401111	-0.1875651
121	0xbdfc3a66	-0.12315826
122	0xbdeffafa	-0.11717792
123	0x3e0564da	0.13026753
124	0x3d5d3521	0.054005746
125	0x3e32a50b	0.17445771
126	0xbe04beaf	-0.12963365
127	0x3e82a127	0.25513574
128	0x3e522d2a	0.20525041
129	0x3e7556a5	0.23958834
130	0x3e2b057d	0.16701312
131	0x3da62c0a	0.081138685
132	0x3da9cb34	0.08290711
133	0xbd470602	-0.048589714
134	0xbd8bc749	-0.0682512
135	0xbed80cbd	-0.4219722
136	0xbea4fe19	-0.3222511
137	0xbedba0ef	-0.4289622
138	0xbde1fd71	-0.11034668
139	0xbea40a5b	-0.3203915
140	0xbe8de636	-0.277147
141	0xbc1d1def	-0.009589656
142	0x3d33f550	0.04393512
143	0xbe3c94b4	-0.184161
144	0x3ccf7724	0.025325365
145	0xbd895fc8	-0.06707722
146	0x3d355e3a	0.044279315
147	0xbd9f513b	-0.07779165
148	0x3d231101	0.039811138
149	0x3bf4556f	0.0074564735
150	0xbd93fc43	-0.072258495
151	0xbc4c9273	-0.012486088
152	0xbd66aa05	-0.056314487
153	0x3da92cdc	0.08260509
154	0x3ca5e5dd	0.020251209
155	0xbadb3d4e	-0.0016726644
156	0xbd5240b3	-0.051331233
157	0xbc7e9cc8	-0.015540309
158	0xbcd9f824	-0.02660758
159	0xbcf03f00	-0.029326916
160	0xbcccd910	-0.025005847
161	0x3cb39e79	0.021926152
162	0xbdda7e33	-0.10668602
163	0xbdc13514	-0.09433952
164	0xbd833389	-0.06406314
165	0x3d6c26a9	0.057654057
166	0x3ba483fd	0.005020617
167	0xbd8fdd91	-0.07024682
168	0xbdf076e9	-0.1174143
169	0xbdce7940	-0.1008172
170	0x3c02135e	0.007939188
171	0x3c8ebca9	0.017423945
172	0xbdb8c88e	-0.09022628
173	0xbda8b2e3	-0.08237245
174	0x3cf0812e	0.029358473
175	0xbcce64d6	-0.025194567
176	0xbd1bec9c	-0.038067445
177	0xbd2d1419	-0.042255495
178	0xbd716a78	-0.058939427
179	0xbdc11dbd	-0.094295
180	0xbdc5870c	-0.09644899
181	0x3cd3056f	0.025759427
182	0xbdafd54a	-0.085856035
183	0xbd926f17	-0.07150095
184	0xbd8747d6	-0.066054985
185	0x3ba176aa	0.004927476
186	0xbdc189bf	-0.09450101
187	0x3ca7af15	0.020469228
188	0xbd6721ac	-0.056428596
189	0x3d26f940	0.040765047
190	0xbcce4a91	-0.02518204
191	0xbcab38d9	-0.02090113
192	0xbc1dad89	-0.009623894
193	0x3b4290af	0.002968829
194	0xbdc7ce47	-0.09756141
195	0xbddb05c7	-0.10694461
196	0x3d3a39ca	0.04546527
197	0xbd6dfb2a	-0.058100857
198	0xbcf87d58	-0.030333206
199	0x3c0600e4	0.008178923
200	0xbddbc49d	-0.107308604
201	0xbd85291c	-0.065019816
202	0x3dafa88b	0.08577069
203	0xbaf3c0b0	-0.0018596854
204	0xbcc39803	-0.023876196
205	0xbd87a75a	-0.06623717
206	0xbdad4da2	-0.08462073
207	0xbdaec5da	-0.08533831
208	0x3d1e12ff	0.038592335
209	0xba0ef429	-0.0005453253
210	0xbe41b5b3	-0.18916969
211	0xbdb42bad	-0.08797393
212	0xbccf390b	-0.025295755
213	0xbe046d58	-0.12932336
214	0xbdfce665	-0.12348632
215	0xbe0f4459	-0.13990916
216	0x3d8d2d36	0.06893389
217	0x3ba9f436	0.005186583
218	0xbd28bc34	-0.04119511
219	0xbd8010eb	-0.06253227
220	0xbd69553e	-0.05696606
221	0xbd253073	-0.040329408
222	0xbd5bec04	-0.05369188
223	0x3dccac91	0.09993852
224	0xbd63057d	-0.055425156
225	0xbd69588b	-0.056969207
226	0xbd5d017d	-0.053956497
227	0xbd39fadf	-0.045405265
228	0xbdb5bf96	-0.08874433
229	0xbbe420f2	-0.006961935
230	0x3d06680c	0.03281407
231	0x3c996f9d	0.01872998
232	0x3933436a	0.00017095884
233	0x3d132319	0.035922144
234	0xbc28389e	-0.010267405
235	0x3d01f6a8	0.03172937
236	0x3c641ae0	0.013922423
237	0xbd040092	-0.032227106
238	0xbc4bb5ed	-0.012433511
239	0xbd7a2fe1	-0.061080817
240	0xbdea9b1c	-0.11455366
241	0x3d4163ba	0.047214247
242	0xbddb02d4	-0.10693899
243	0xbd5307ac	-0.05152099
244	0xbd8f6cf7	-0.07003205
245	0xbe14abea	-0.14518705
246	0x3bf865ee	0.0075805103
247	0xbc2bd069	-0.010486701
248	0xbdda8075	-0.106690325
249	0xbc49d921	-0.012319834
250	0xbc4f8e6b	-0.012668232
251	0xbcbbb03e	-0.022911187
252	0xbd4904c6	-0.049076818
253	0xbd841fdd	-0.0645139
254	0x3d49eabf	0.049296137
255	0xbda4f76f	-0.08055007

cnn.3.bias f4 [32]
0	0x3d5d43d2	0.054019757
1	0xbc64244e	-0.013924671
2	0xbd069e52	-0.03286583
3	0x3ebb5de6	0.36595076
4	0x3d38c357	0.045108166
5	0xbbda6b58	-0.0066656284
6	0xbdffedc0	-0.12496519
7	0x3e9a7a13	0.3017126
8	0xbd3ed6fd	-0.046591748
9	0xbe3cc02f	-0.18432687
10	0x3d02a143	0.031892072
11	0xbde7e6e7	-0.11323338
12	0xbd5f9e26	-0.05459418
13	0xbcd72f40	-0.026267648
14	0x3c66b698	0.01408162
15	0x3d9cadaa	0.07650311
16	0x3dc56e2c	0.09640154
17	0xbdbfe8b0	-0.093705535
18	0xbd881ce9	-0.06646139
19	0xbde91840	-0.113815784
20	0xbdc45531	-0.095865615
21	0xbe768ba3	-0.24076705
22	0xbe0dc37a	-0.138441
23	0x3d8a0e39	0.06740994
24	0x3cb6fb97	0.022336764
25	0xbe346c36	-0.17619404
26	0xbd66c0cb	-0.056336205
27	0xbe3ec6ca	-0.1863052
28	0xbcbcc463	-0.023042863
29	0xbe877924	-0.2645961
30	0xbe168747	-0.14700042
31	0x3dc36d01	0.09542275

fc1.weight f4 [11, 672]
0	0x3d60c7fe	0.054878227
1	0x3d9256c1	0.07145453
2	0x3dfb230d	0.12262545
3	0xbea20cee	-0.3165049
4	0xbe6f481e	-0.23367354
5	0x3cc72118	0.024307773
6	0x3e971006	0.29504412
7	0xbe4de058	-0.20105112
8	0xbd144de6	-0.036207102
9	0x3f380b67	0.718924
10	0x3e94ab2e	0.2903685
11	0xbf820f6e	-1.0160959
12	0x3d979e21	0.074032076
13	0xbdec582c	-0.11540255
14	0xbeef92f5	-0.46791807
15	0x3d754864	0.05988349
16	0xbe908836	-0.2822892
17	0xbda60d5a	-0.08108015
18	0xbe3fdcc6	-0.18736562
19	0xbdd6117e	-0.10452555
20	0x3cbc9bc8	0.023023501
21	0xbdce888d	-0.10084639
22	0xbd87f153	-0.06637826
23	0xbd20c0ed	-0.03924649
24	0xbd8f0fb2	-0.069854155
25	0xbc99a9ca	-0.01875772
26	0x3ca781e6	0.020447683
27	0xbd1faf77	-0.038985696
28	0xbe0075ca	-0.12544933
29	0xbe35d988	-0.17758763
30	0xbdc20850	-0.09474242
31	0xbd577dc2	-0.052610166
32	0x3ca9ab67	0.020711614
33	0xbd2579bd	-0.0403993
34	0xbc90a403	-0.017656332
35	0xbddfcf37	-0.10928195
36	0xbe3de205	-0.18543251
37	0xbdbe26d3	-0.09284749
38	0xbd5e787d	-0.054314125
39	0x3be9c268	0.0071337707
40	0x3ca4ae98	0.020102784
41	0xbd6938db	-0.056938987
42	0xc0242244	-2.5645914
43	0xc01bbc58	-2.4333706
44	0xc010a33c	-2.259963
45	0xbfe16ee2	-1.7611964
46	0xc00d7065	-2.209985
47	0xbf8ebe92	-1.1151907
48	0xc00133b5	-2.018781
49	0xc03908e3	-2.8911674
50	0xc01d4fbd	-2.4579918
51	0xc053feaf	-3.3124197
52	0xbfda3ba3	-1.704945
53	0xbfcceca8	-1.6009722
54	0xbfec78ad	-1.8474327
55	0xbfc1fb83	-1.515488
56	0xbf84737e	-1.0347745
57	0xc00b5282	-2.1769109
58	0xc06a8ef0	-3.6649742
59	0xc0329a2b	-2.7906597
60	0xbfcfe7dc	-1.6242633
61	0xbfb4e240	-1.4131546
62	0xbf8bdb53	-1.0926307
63	0xbcf06a77	-0.029347641
64	0x3ee767b7	0.45196316
65	0xbe9b075f	-0.3027906
66	0x3d013900	0.0315485
67	0x3f22b4b3	0.63556975
68	0xbd55b3c3	-0.052173387
69	0x3eb42894	0.3518721
70	0x3e24b20a	0.16083542
71	0x3eb3e3ab	0.35134634
72	0xbf8a2d00	-1.0794983
73	0xbf8e69fa	-1.1126091
74	0xbef5143c	-0.47867
75	0xbdd9e155	-0.10638682
76	0x3ee7a8a2	0.45245844
77	0xbd832cd2	-0.06405033
78	0xbdb0756e	-0.08616148
79	0xbf0778c7	-0.52918667
80	0xbe9589ed	-0.29206792
81	0x3ddc0174	0.10742465
82	0xbebd547b	-0.36978516
83	0x3ed8ff18	0.4238212
84	0xbdcd2503	-0.10016825
85	0xbdfbd5c2	-0.122966304
86	0x3e82ccac	0.25546777
87	0xbfda4cbf	-1.7054671
88	0xbe9620da	-0.2932194
89	0xbf827623	-1.0192302
90	0xbfa6f5cb	-1.304376
91	0x3f21236c	0.62944674
92	0xbe58c70a	-0.21169677
93	0xbf0247aa	-0.508906
94	0xbf984602	-1.1896365
95	0x3d4dc353	0.050235104
96	0xbf12dd40	-0.5736885
97	0x3eedaeef	0.46422526
98	0x3eb68a4f	0.35652396
99	0x3d16a964	0.036782637
100	0xbea891ef	-0.32923838
101	0x3e819d0a	0.25315124
102	0xbfa4a075	-1.2861468
103	0x3d9075ac	0.07053694
104	0xbec01161	-0.3751326
105	0xbda29abf	-0.07939672
106	0xbd122f46	-0.035689615
107	0xbe79a60b	-0.24379747
108	0xbd2e6ece	-0.04258614
109	0xbe70a548	-0.2350055
110	0x3ea4154d	0.320475
111	0xbf01ee64	-0.5075438
112	0x3e98d1cd	0.29847565
113	0xbeb48244	-0.35255635
114	0xbe70e3d8	-0.23524415
115	0xbf63e41a	-0.8901993
116	0xbda57b18	-0.08080119
117	0xbefb9e97	-0.49144432
118	0xbef89729	-0.48552826
119	0x3e9d86e1	0.30766967
120	0xbf0b923b	-0.54520005
121	0x3f0f90dc	0.5608041
122	0xbf2e6471	-0.6812201
123	0xbe2e5bae	-0.1702716
124	0x3e96b7c0	0.29437065
125	0x3ec4de79	0.38450983
126	0x3b268419	0.0025408326
127	0xbd175c11	-0.036953036
128	0xbd01333d	-0.031543005
129	0xbd08539b	-0.033282857
130	0xbbaa7de4	-0.0052029956
131	0xbd8c3104	-0.068452865
132	0xbd83a9d8	-0.064288795
133	0xbd0431da	-0.032274105
134	0xbd193208	-0.03740123
135	0xbd717d1a	-0.058957197
136	0xbc7411be	-0.014896808
137	0xbd91ac84	-0.07112983
138	0x3ba7ba7e	0.005118667
139	0x3bd8f501	0.0066210036
140	0xbd5476ba	-0.05187104
141	0xbc70fba0	-0.01470843
142	0xbd97a33f	-0.074041836
143	0xbd48c916	-0.049019895
144	0xbd269a8c	-0.04067473
145	0xbd203d1f	-0.03912079
146	0x3b7ac3f2	0.0038263765
147	0xbe1afa7d	-0.15134616
148	0x3d286e6a	0.041120924
149	0xbdececbd	-0.11568592
150	0x3e70b4a2	0.23506406
151	0x3cbcda87	0.02305342
152	0xbca2f30f	-0.01989129
153	0xbeb6faf1	-0.35738328
154	0xbe2d5dc0	-0.16930294
155	0x3e786717	0.24258076
156	0xbf256eef	-0.64622396
157	0xbf030fae	-0.511958
158	0x3e734178	0.23755443
159	0xbe6a8003	-0.22900395
160	0xbda8199f	-0.08208012
161	0x3bd62560	0.006535217
162	0x3dd931e9	0.10605223
163	0xbd68ce24	-0.056837216
164	0xbf389ca4	-0.72114015
165	0x3eb4cb4c	0.35311353
166	0xbef3047e	-0.47464365
167	0x3e03c228	0.12867033
168	0xbdcc116d	-0.09964261
169	0xbd31a743	-0.043372404
170	0xbdf7ca42	-0.120991245
171	0xbdcada5c	-0.0990493
172	0xbd868672	-0.06568612
173	0xbd2954bd	-0.04134058
174	0xbd07fcd5	-0.033200104
175	0xbd561f52	-0.052275963
176	0xbd9abd10	-0.07555592
177	0xbd56e154	-0.052460983
178	0xbd80bbf3	-0.062858485
179	0xbcc3c5b0	-0.023897976
180	0xbdcbb004	-0.09945682
181	0xbc025e1e	-0.00795701
182	0xbd4acd2f	-0.049512085
183	0xbdc7cf70	-0.097563624
184	0xbd1871fc	-0.03721808
185	0xbcf95530	-0.030436128
186	0x3b167bc4	0.0022961954
187	0xbdc63625	-0.09678296
188	0xbd1dfec3	-0.038573038
189	0xbccb1bc8	-0.02479352
190	0xbdbd437a	-0.09241386
191	0x3edad700	0.42742157
192	0xbf17cccd	-0.59296876
193	0x3e121907	0.1426736
194	0xbea9ab57	-0.33138534
195	0xbf8a9db0	-1.0829372
196	0xbec07454	-0.3758875
197	0x3df180b2	0.11792125
198	0x3d3f1f42	0.04666067
199	0xbe0d5cc8	-0.13804924
200	0xbda17bcf	-0.07884943
201	0xbdf5b8bf	-0.11998128
202	0xbfa4e714	-1.288302
203	0xbdf24efe	-0.11831473
204	0x3e098b9a	0.1343216
205	0xbfe0e807	-1.7570809
206	0xbef4fbeb	-0.47848448
207	0xbefda0db	-0.49536785
208	0xbe10459a	-0.14089051
209	0xbf9cbf13	-1.2245811
210	0xbdd5baad	-0.10435996
211	0x3efaa654	0.48955023
212	0xbf400208	-0.750031
213	0xbf075132	-0.5285827
214	0x3e47f4a3	0.19526915
215	0x3e83aaca	0.2571624
216	0xbf6cabcd	-0.9244965
217	0x3ea9300e	0.33044475
218	0x3ea74c36	0.32675332
219	0x3e5314ba	0.20613375
220	0xbf03f687	-0.51548046
221	0x3e8441e2	0.25831515
222	0x3de5195c	0.111864775
223	0xbf164b9d	-0.58709127
224	0xbe7382fc	-0.23780435
225	0x3eb6372b	0.35588965
226	0x3e6e3376	0.23261818
227	0x3f0f3102	0.55934155
228	0x3e3ed024	0.18634087
229	0x3e8e4cf2	0.2779308
230	0xbe507804	-0.20358282
231	0x3e82e493	0.25565013
232	0xbeaa69dc	-0.3328389
233	0xbee56aa2	-0.44807917
234	0xbd8e0071	-0.06933678
235	0xbef8c08e	-0.48584408
236	0x3e87b002	0.2650147
237	0x3e0c5be5	0.1370693
238	0xbe456f5b	-0.1928076
239	0x3e07796a	0.1322991
240	0xbd848b62	-0.06471898
241	0xbdbc0323	-0.09180286
242	0x3e37d61b	0.17952769
243	0x3dbcbe97	0.0921604
244	0xbe32b4b1	-0.17451741
245	0x3e865cd1	0.26242688
246	0xbebe4f12	-0.371697
247	0x3dee87f4	0.11647025
248	0xbf208146	-0.62697256
249	0xbe123aa8	-0.14280188
250	0x3edaf09a	0.4276169
251	0xbe3f0303	-0.18653493
252	0xbd163175	-0.03666826
253	0x3e25ffcb	0.16210859
254	0xbedc8f3c	-0.4307803
255	0x3e0f6863	0.14004664

fc1.bias f4 [11]
0	0xbd865341	-0.06558848
1	0x3f0ac4fa	0.5420681
2	0x3eb2bc08	0.3490908
3	0x3e0561f8	0.13025653
4	0x3e07cc87	0.13261615
5	0xbe6ecdfc	-0.23320764
6	0xbf0314b9	-0.51203495
7	0xbe7cc4b8	-0.24684417
8	0xbef82464	-0.48465264
9	0xbed9f9b6	-0.42573327
10	0xbfaaebdb	-1.3353227

fc2.weight f4 [11, 672]
0	0x3d9cd320	0.076574564
1	0xbe13ba70	-0.14426589
2	0xbd20af7a	-0.039229847
3	0xbd26572e	-0.040610485
4	0xbde5048c	-0.11182508
5	0xbd40544a	-0.046955384
6	0xbc6a17da	-0.014287913
7	0x3d7b39f7	0.061334576
8	0xbdf263c8	-0.11835438
9	0xbe2defd1	-0.16986014
10	0x3e5afc71	0.21385361
11	0xbe4d0774	-0.20022374
12	0x3e0756cf	0.13216709
13	0xbd82f3d6	-0.06394164
14	0x3d525813	0.051353525
15	0xbd089c8a	-0.033352412
16	0xbdec5444	-0.1153951
17	0x3d7d80bd	0.061890353
18	0xbcc57680	-0.024104357
19	0xbb4d80b6	-0.0031357235
20	0xbe58a0f7	-0.21155153
21	0xbcf729a5	-0.030171225
22	0xbd828b4a	-0.063742235
23	0xbd0e9075	-0.034805734
24	0xbb2d7971	-0.002647009
25	0x3ce5bea3	0.028045004
26	0xbd23b835	-0.039970595
27	0xbd402539	-0.0469105
28	0xbd024695	-0.031805594
29	0x3bf030b7	0.007330026
30	0xbc495a8c	-0.012289654
31	0xbcb285c0	-0.021792293
32	0xbab91088	-0.0014119307
33	0xbd807e05	-0.06274036
34	0xbcd4286d	-0.025898183
35	0xbcc64d7a	-0.024206866
36	0xbd19cadc	-0.037546977
37	0xbbb7e623	-0.005612151
38	0xbc337e1e	-0.010955362
39	0xbd9040ea	-0.070436314
40	0x3a22345f	0.00061876135
41	0xbd22b2eb	-0.03972141
42	0xbed12ad1	-0.4085298
43	0xbf58efaf	-0.8474073
44	0xbee4769c	-0.44621742
45	0xbf80c60d	-1.006044
46	0xbf990d37	-1.1957158
47	0xbe828995	-0.25495592
48	0xbee8367a	-0.45354062
49	0xbf12dac9	-0.5736509
50	0xbe80eebf	-0.2518215
51	0xbea708c5	-0.32623878
52	0xbf0fb33d	-0.5613287
53	0xbf2625e7	-0.64901584
54	0xbfcddce2	-1.6083033
55	0xbec33bce	-0.38131565
56	0xbf136d4e	-0.5758866
57	0xbead1791	-0.33807042
58	0xbf10f6a6	-0.56626356
59	0xbffb6df2	-1.9642928
60	0xbf373122	-0.71559346
61	0xbfa205f0	-1.2658062
62	0xbf54dfc2	-0.8315393
63	0xbe281788	-0.16415226
64	0xbdc3bba8	-0.09557277
65	0x3e11cc3e	0.14238068
66	0x3e8e2b7b	0.27767548
67	0x3e66c287	0.22535144
68	0xbc77ddc1	-0.015128554
69	0xbdf52e1c	-0.11971685
70	0xbd98d6d3	-0.074628495
71	0x3d692e42	0.05692888
72	0x3dcb267d	0.099194504
73	0xbd232e85	-0.039839286
74	0xbe73d40b	-0.23811357
75	0xbedb88f3	-0.4287792
76	0xbdb5938b	-0.08866032
77	0x3d1a4fe4	0.037673846
78	0x3e38e177	0.18054758
79	0xbd657c14	-0.056026533
80	0x3d1bacb8	0.038006514
81	0x3e97060f	0.2949681
82	0x3e146c7a	0.14494506
83	0xbdedd7c7	-0.11613422
84	0xbdd31a50	-0.10307753
85	0xbe46328d	-0.19355221
86	0xbe03ccc4	-0.1287108
87	0xbf1da59b	-0.6158082
88	0xbd664a6e	-0.056223325
89	0xbba6828a	-0.0050814794
90	0xbd5de4c2	-0.05417324
91	0xbe3993c7	-0.18122779
92	0xbd702646	-0.05863025
93	0xbdcd9c5c	-0.10039589
94	0xbf197e33	-0.5995819
95	0xbdab7063	-0.083710454
96	0x3d285ce0	0.041104198
97	0xbd375b60	-0.044764876
98	0xbe1f7de2	-0.15575364
99	0xbda789d5	-0.08180586
100	0xbaebdbdf	-0.0017994604
101	0xbe88fbef	-0.2675471
102	0xbed03ee4	-0.40672982
103	0xbeabcb9d	-0.33553782
104	0x3c966a16	0.018361133
105	0xbdeb8fbf	-0.11502027
106	0xbd6e2a3e	-0.058145754
107	0x3c637b62	0.013884397
108	0xbb02f306	-0.001998128
109	0xbe74499b	-0.23856203
110	0xbdc251f6	-0.09488289
111	0x3cf9a028	0.030471876
112	0x3d28549c	0.041096315
113	0xbe07948e	-0.13240263
114	0xbdb12f90	-0.0865165
115	0xbeb174d7	-0.34659454
116	0xbe9dc27e	-0.30812448
117	0xbac23ac2	-0.0014818537
118	0x3d9aa5ec	0.07551178
119	0xbd095a31	-0.03353328
120	0x3da17da3	0.078852914
121	0xbc21eb50	-0.009882763
122	0xbe817d1c	-0.25290763
123	0xbdfeaade	-0.12434934
124	0xbb25cf7c	-0.0025300672
125	0xbde1fd45	-0.110346355
126	0xbcc3c229	-0.023896294
127	0x3c5dd935	0.013540556
128	0x3a49da3c	0.0007700061
129	0x3d0f4ddc	0.03498636
130	0x3ccc101f	0.02491003
131	0x3c1960c3	0.009361449
132	0xb990362f	-0.0002750619
133	0x3d65dace	0.05611687
134	0xbc8f0833	-0.017459964
135	0xbd4c7555	-0.049916584
136	0xbd4f7125	-0.050645012
137	0x3b473bf7	0.0030400732
138	0x3bfb09e6	0.007661092
139	0x3bcd70ef	0.0062695662
140	0x3d830da8	0.06399089
141	0x3bcdd3a0	0.006281331
142	0x3d17a525	0.03702273
143	0xbb96cfc3	-0.004602404
144	0xbbe9ba1a	-0.0071327807
145	0xbc8344b4	-0.016023971
146	0x3cb2ea58	0.02184026
147	0xbc54dcd5	-0.012992104
148	0x3ac0c2a4	0.0014706445
149	0x3e2d2ea3	0.16912322
150	0x3e6d92a3	0.23200469
151	0x3e053914	0.13010055
152	0xbda40936	-0.08009569
153	0xbbd71aff	-0.0065644975
154	0x3dfc5289	0.1232043
155	0xbcd1e9f5	-0.025624255
156	0xbd96dcd0	-0.073663354
157	0xbe553fa9	-0.20825066
158	0xbf440689	-0.7657247
159	0xbec20551	-0.3789468
160	0x3c0d48b6	0.008623293
161	0xbc397222	-0.011318715
162	0x3db932ed	0.090429164
163	0xbe8dde58	-0.27708697
164	0xbeb88b8f	-0.36043975
165	0xbe3f61dd	-0.18689676
166	0x3e2d697e	0.16934773
167	0xbe1e31e5	-0.15448721
168	0x3c8e9fc3	0.017410165
169	0xbd00619f	-0.0313431
170	0xbc55c72d	-0.0130479755
171	0x3ce142b7	0.027497632
172	0xbd068dee	-0.0328502
173	0xbd9c69a5	-0.076373376
174	0xbc5154e9	-0.012776592
175	0xbcebdd9c	-0.028792195
176	0xbd6827a5	-0.056678433
177	0x3cdf8a07	0.027287496
178	0x3ca28a2b	0.019841274
179	0xbd2e6de8	-0.042585284
180	0xbd044ef6	-0.032301866
181	0xbc8ef4c1	-0.017450692
182	0x3b7fa268	0.0039006714
183	0xbca16be4	-0.019704767
184	0x3ca59874	0.020214297
185	0x3bdd268f	0.0067489813
186	0xbcf8262a	-0.030291636
187	0x3818c1e9	3.6420217e-05
188	0xbd759baa	-0.059962906
189	0xbc5a8e46	-0.013339585
190	0xbe322be6	-0.17399558
191	0x3e393db0	0.18089938
192	0x3dab0aad	0.083516456
193	0xbf0ff08c	-0.5622642
194	0xbcab6f46	-0.020927083
195	0xbdd3a7c3	-0.103347324
196	0x3c94d8f8	0.018169865
197	0x3debed36	0.11519854
198	0x3ea86ddd	0.3289632
199	0x3e55c3c6	0.20875463
200	0xbe9b0446	-0.30276698
201	0xbddd802f	-0.10815465
202	0xbebee176	-0.37281388
203	0xbd9eac55	-0.077477135
204	0x3d980dfc	0.07424542
205	0x3cadaa30	0.021199316
206	0xbf1d724d	-0.61502534
207	0xbe262fba	-0.16229144
208	0xbe054014	-0.13012725
209	0x3d486188	0.048921138
210	0xbe95d445	-0.2926351
211	0xbc0c3dd0	-0.008559659
212	0xbe8f7895	-0.28021684
213	0x3d348ffe	0.044082634
214	0x3e13f558	0.1444906
215	0x3e6bf4b9	0.23042573
216	0xbe3f793e	-0.18698594
217	0xbe185444	-0.14875895
218	0xbde11156	-0.10989635
219	0xbd947fdf	-0.07250952
220	0xbf546df0	-0.8298025
221	0xbebd6109	-0.36988094
222	0xbd84e608	-0.064891875
223	0xbde44f90	-0.11147988
224	0x3df0d82a	0.1175998
225	0xbd635e42	-0.055509813
226	0xbb3a1475	-0.002839354
227	0x3f26b12a	0.6511408
228	0x3dc626ed	0.09675393
229	0xbe1aefb0	-0.15130496
230	0x3df0a359	0.11749906
231	0xbb2a04bd	-0.0025942766
232	0xbd666a30	-0.056253612
233	0xbc4d211a	-0.012520099
234	0x3c15adb7	0.009135655
235	0x3e7fcc00	0.24980164
236	0xbe6d047c	-0.23146242
237	0xbc9fdba2	-0.019513909
238	0xbe1ef172	-0.15521792
239	0x3d4217f0	0.04738611
240	0x3d3fc713	0.04682071
241	0x3e4740d1	0.19458319
242	0x3dd78772	0.10523881
243	0x3b08d88c	0.0020881025
244	0xbdbe2afe	-0.09285544
245	0xbdb6f435	-0.089332975
246	0x3d2cc950	0.042184174
247	0x3db046a1	0.086072214
248	0xbe1b1d6d	-0.15147944
249	0x3e244ede	0.1604571
250	0x3e41f46c	0.18940896
251	0x3d87dffe	0.0663452
252	0xbd418aa1	-0.047251347
253	0xbd995b91	-0.07488168
254	0xbe39cd10	-0.18144631
255	0xbe3bbf29	-0.1833464

fc2.bias f4 [11]
0	0xbd1e4d22	-0.03864778
1	0xbcc49e36	-0.024001222
2	0x3d2cd381	0.042193893
3	0xbc91054c	-0.017702721
4	0x3e3914b4	0.18074304
5	0xbdd21187	-0.10257249
6	0xbd8e800f	-0.06958019
7	0x3d9861c9	0.07440526
8	0xbe269b2e	-0.16270134
9	0xbdf9dfb0	-0.12200868
10	0x3e0c2564	0.13686138

fc3.weight f4 [11, 672]
0	0xbe172935	-0.14761813
1	0x3d6bf503	0.05760671
2	0x3cd3fd4e	0.025877621
3	0xbd6f40b1	-0.058411304
4	0xbeadbb4d	-0.33931962
5	0x3d19a7b0	0.037513435
6	0xbcde6d24	-0.027151652
7	0xbe4d6913	-0.20059614
8	0xbdc507f2	-0.09620656
9	0xbe346c7e	-0.17619511
10	0x3d054c24	0.032543316
11	0xbe45ac35	-0.19303973
12	0xbd93c7aa	-0.07215817
13	0xbe416a33	-0.18888168
14	0xbd88e57d	-0.066843964
15	0x3d6aaac5	0.057291765
16	0x3e58e2db	0.21180288
17	0xbdf5ff12	-0.120115414
18	0xbd55e518	-0.052220434
19	0xbcd56b68	-0.026052192
20	0xbda77ba0	-0.081778765
21	0xbd2c3d6a	-0.042050757
22	0x3ccadc68	0.024763301
23	0x3d0d09cd	0.034433175
24	0x3cccb599	0.024988936
25	0xbc9f4519	-0.019442128
26	0xbd4f43ec	-0.050601885
27	0xbd3575dc	-0.044301853
28	0xbb7ae65b	-0.0038284275
29	0xbc667715	-0.014066477
30	0x3b8f81a6	0.004379469
31	0x3d2f3474	0.042774633
32	0x3cb6bde7	0.02230735
33	0xbca6008f	-0.020263938
34	0xbc85f5c6	-0.016352545
35	0x3b161391	0.0022899846
36	0xbccb5fce	-0.024825957
37	0xbd3d392c	-0.0461971
38	0xbd2dd438	-0.042438716
39	0x3be2f3b9	0.0069260267
40	0xbcef0dc7	-0.029181374
41	0xbd145507	-0.0362139
42	0xbf1b2c07	-0.60614055
43	0xbf04dde3	-0.5190107
44	0xbf05469d	-0.5206087
45	0xbfbd3b1e	-1.4783666
46	0xbec45979	-0.38349512
47	0xbe5ca94b	-0.21548955
48	0xbf3ed507	-0.74543804
49	0xbf364e48	-0.712132
50	0xbf3c1058	-0.7346244
51	0xbf1806d9	-0.5938545
52	0xbe7cc2ca	-0.24683681
53	0xbf447066	-0.76734006
54	0x3b1379fb	0.0022503126
55	0xbf180280	-0.59378815
56	0xbf081a43	-0.5316507
57	0xbd896d39	-0.06710286
58	0xbeab7a00	-0.33491516
59	0xbf3e791e	-0.7440356
60	0x3cc3a95b	0.023884466
61	0xbf27fb43	-0.6561777
62	0xbe86c7ec	-0.26324403
63	0xbd14ccbd	-0.036328066
64	0x3e35a6c3	0.17739396
65	0xbe03022a	-0.12793794
66	0x3de1f4ea	0.11033042
67	0xbdb449af	-0.088031165
68	0x3eb2a6ee	0.34892982
69	0xbe59a4be	-0.2125425
70	0xbcb522e3	-0.022111362
71	0x3cd8378e	0.026393678
72	0xbe575d4d	-0.21031685
73	0xbf399d0d	-0.72505265
74	0xbe37fa7f	-0.1796665
75	0xbe821118	-0.25403666
76	0xbcc5545f	-0.024088083
77	0xbdfef442	-0.12448932
78	0x3e09395c	0.13400787
79	0xbe6dc297	-0.23218761
80	0xbf51f5c3	-0.8201563
81	0x3e96db71	0.29464296
82	0x3db413c5	0.08792833
83	0xbd9ffa64	-0.0781143
84	0xbe4cdc32	-0.20005873
85	0xbe743620	-0.23848772
86	0xbded284b	-0.11579951
87	0xbde83ce8	-0.11339742
88	0x3dbc546a	0.09195788
89	0x3be24d16	0.006906162
90	0xbd8358a8	-0.06413394
91	0xbefeb931	-0.49750665
92	0xbee00195	-0.43751207
93	0xbe5a8929	-0.21341385
94	0xbe01d6d7	-0.12679611
95	0xbf3e06a2	-0.7422887
96	0xbe566c13	-0.20939665
97	0xbc9b61bf	-0.018967507
98	0xbda5e947	-0.08101135
99	0xbda3a81d	-0.079910494
100	0xbd3b08b2	-0.04566259
101	0xbd35a867	-0.044350054
102	0xbe4af986	-0.19821748
103	0xbe8df602	-0.27726752
104	0xbecae7d8	-0.39630008
105	0xbdaac2b5	-0.08337919
106	0x3c4abaa8	0.012373604
107	0xbd44df80	-0.04806471
108	0x3dc937fc	0.09825131
109	0xbd3d9324	-0.046282902
110	0xbdac5473	-0.08414545
111	0xbdb81fd3	-0.08990445
112	0xbdbf7f04	-0.09350398
113	0xbd9da4e3	-0.07697465
114	0x3c49a19e	0.012306599
115	0xbdd00a58	-0.10158223
116	0xbf77a909	-0.967423
117	0xbe923ebb	-0.28563485
118	0xbe2858cf	-0.16440128
119	0xbd758d7b	-0.05994938
120	0xbe052e71	-0.13005997
121	0xbddbe0e5	-0.107362546
122	0xbdc4e8d7	-0.09614723
123	0xbed72bae	-0.42025512
124	0xbe7e7c9f	-0.24852227
125	0x3e785770	0.24252105
126	0x3c71414a	0.014725039
127	0xbd15512e	-0.036454372
128	0xbd233d25	-0.039853234
129	0x3c20d88b	0.009817253
130	0xbd1dc3d5	-0.038516838
131	0xbbb0d1b6	-0.0053960932
132	0xbd2b93ec	-0.041889116
133	0xbd7afc61	-0.061275844
134	0xbd5313e9	-0.05153266
135	0x3bb160c7	0.005413148
136	0xbb373ee5	-0.0027961072
137	0xbcc8c0ef	-0.02450606
138	0xbd008ef6	-0.03138634
139	0xbd1362ac	-0.035982773
140	0xbca27c06	-0.01983453
141	0xbc05f9f6	-0.008177271
142	0x3c2fed69	0.010737755
143	0xbd0b93a5	-0.03407635
144	0xbd2c3801	-0.042045597
145	0xbd1a007b	-0.037598114
146	0xbce2eaa3	-0.027699774
147	0x3da3ad11	0.07991994
148	0x3be16415	0.006878386
149	0xbe6f98a8	-0.23398077
150	0x3e557bd8	0.20848024
151	0x3e0d0544	0.1377154
152	0x3c93e09e	0.018051442
153	0xbe074e76	-0.13213524
154	0xbe445f7a	-0.19177046
155	0x3dcdc657	0.10047596
156	0xbde53137	-0.111910276
157	0xbebcefce	-0.36901706
158	0xbee8ffaf	-0.4550757
159	0x3c581358	0.013188206
160	0xbdb7e3d5	-0.089790024
161	0xbe833231	-0.2562423
162	0xbd9d2297	-0.07672613
163	0xbd1a8afd	-0.037730206
164	0xbed7dc69	-0.42160347
165	0xbe2c7a87	-0.16843615
166	0xbcdcf9e2	-0.026974622
167	0x3ca64bde	0.020299848
168	0x3cafe9a1	0.021473708
169	0x3a56346d	0.0008171264
170	0xbd15f767	-0.036612894
171	0xbd693d35	-0.056943137
172	0x3d408ff1	0.047012273
173	0x3c386c30	0.011256263
174	0xbc08c216	-0.008347055
175	0xbbe9868b	-0.0071266345
176	0xbcfdb535	-0.030970195
177	0x3b2776c0	0.0025552958
178	0x399a5736	0.00029438146
179	0xbcdbd0c1	-0.02683294
180	0x3c261fc7	0.010139412
181	0xbbe798f8	-0.007067796
182	0x3cd23fd1	0.025665196
183	0xbcf760e8	-0.030197576
184	0xbd8062fe	-0.06268881
185	0xbcb65a5c	-0.022259884
186	0x3bc5d334	0.0060371403
187	0x3b8d2bbd	0.0043081925
188	0x3b6e2824	0.0036339844
189	0xbebb0b5d	-0.36532107
190	0xbe2cf029	-0.16888489
191	0x3d27df05	0.040984172
192	0xbd18fc40	-0.03734994
193	0x3dea6d63	0.11446645
194	0xbec1dc32	-0.37863308
195	0xbe7fd9f0	-0.2498548
196	0xbedb96bf	-0.42888448
197	0xbdb98d33	-0.09060135
198	0xbd3db107	-0.046311405
199	0xbde4ddde	-0.1117513
200	0xbd027c8a	-0.03185705
201	0xbb0ce9a0	-0.0021501556
202	0xbd2d964a	-0.042379655
203	0xbe611b48	-0.21983063
204	0xbe78e45c	-0.24305862
205	0xbdb3c124	-0.08777073
206	0x3dff2af5	0.12459365
207	0xbeab3f2a	-0.33446628
208	0xbe5fdb62	-0.21861032
209	0x3c5308ff	0.012880563
210	0xbea9f101	-0.33191684
211	0xbf01c26b	-0.50687283
212	0x3d5ad8b0	0.053429306
213	0x3da632a6	0.08115129
214	0xbd4e38e4	-0.050347224
215	0xbe33fcc8	-0.17576897
216	0x3e0b2bfa	0.13590994
217	0xbdb4b12e	-0.08822857
218	0x3ea4bae1	0.32173827
219	0xbdf5a4ab	-0.119942985
220	0xbea9736e	-0.33095878
221	0xbf676a0c	-0.9039619
222	0xbed0754a	-0.40714484
223	0x3d097efe	0.033568375
224	0xbed4a4ed	-0.41532078
225	0x3dde4191	0.108523495
226	0xbe5bf130	-0.21478724
227	0xbdfe9139	-0.12430043
228	0x3f38b932	0.72157586
229	0x3c996423	0.018724507
230	0xbd2e84ba	-0.042607047
231	0xbea851c5	-0.32874885
232	0xbd8976aa	-0.067120865
233	0xbe39100e	-0.1807253
234	0xbda7c58e	-0.081919774
235	0x3e1a3ddf	0.15062664
236	0xbe9376db	-0.28801617
237	0xbe1a73db	-0.15083258
238	0xbd5038bd	-0.05083536
239	0xbe2c918f	-0.16852401
240	0xbd4a09d5	-0.049325783
241	0xbda23547	-0.07920318
242	0x3e245ac3	0.16050248
243	0x3e7958c7	0.24350272
244	0x3d0cc835	0.03437062
245	0xbd9329da	-0.07185717
246	0xbe07c201	-0.132576
247	0x3c8be17e	0.017075296
248	0xbdd14337	-0.10217898
249	0xbe8ad398	-0.27114558
250	0x3e6f3abf	0.23362254
251	0x3cc6ad6d	0.024252618
252	0xbb9e23d8	-0.0048260503
253	0xbd3c5798	-0.045981973
254	0xbebe5410	-0.3717351
255	0xbd2c4131	-0.04205436

fc3.bias f4 [11]
0	0xbe130932	-0.14358976
1	0xbe6bee28	-0.23040068
2	0xbe8b536d	-0.27212086
3	0xbeabdb66	-0.33565825
4	0xbe158e10	-0.14604974
5	0xbe16a541	-0.14711477
6	0xbeb37d34	-0.3505646
7	0xbbe0e0ea	-0.0068627493
8	0xbe6c343d	-0.23066802
9	0xbe58721d	-0.21137281
10	0x3f565184	0.8371813

fc4.weight f4 [11, 672]
0	0x3c8341cd	0.016022587
1	0xbef3179f	-0.4747896
2	0xbc226e47	-0.0099139875
3	0xbe665fe2	-0.22497514
4	0xbe331cfb	-0.17491524
5	0xbe9c67d9	-0.3054798
6	0xbecec6f9	-0.4038618
7	0xbdad37fd	-0.084579445
8	0xbf1fd92c	-0.62440753
9	0xbf14b323	-0.5808584
10	0xbebb3996	-0.36567372
11	0x3b602bcf	0.00342058
12	0xbe67ba06	-0.22629556
13	0xbda1dddd	-0.07903645
14	0xbe372e30	-0.17888713
15	0xbf08b8b9	-0.53406864
16	0xbebefc30	-0.3730178
17	0xbe23c588	-0.15993321
18	0xbe1916b5	-0.14950068
19	0x3e80b53a	0.25138265
20	0x3e1327b1	0.1437061
21	0x3c2b959a	0.0104726795
22	0x3c5b91c4	0.013401452
23	0x3be2c155	0.0069200196
24	0xbd189440	-0.037250757
25	0xbd65d808	-0.056114227
26	0xbd5bebdc	-0.05369173
27	0xbd7c74f7	-0.061634984
28	0xbd14a3ba	-0.036288954
29	0xbda93314	-0.082616955
30	0xbd1d0714	-0.03833683
31	0xbd31b912	-0.043389387
32	0x3bbfd5f1	0.005854361
33	0xbd086bf3	-0.033306073
34	0xbe14e15f	-0.14539097
35	0xbd7a9dee	-0.06118577
36	0xbb582d8f	-0.003298614
37	0xbd8cd283	-0.068760894
38	0xbdb7876b	-0.08961376
39	0xbc08c7fb	-0.00834846
40	0xbc1af1e4	-0.009457085
41	0xbd6487c4	-0.05579354
42	0xbf31048b	-0.6914756
43	0xbf24815e	-0.642599
44	0xbf8869b6	-1.065726
45	0xbf99bc05	-1.2010504
46	0xbfb24057	-1.3925885
47	0xbf7bc68b	-0.9834983
48	0xbf9866aa	-1.190633
49	0xbf38c627	-0.72177356
50	0xbf81d9aa	-1.0144551
51	0xbfa6d7ac	-1.3034568
52	0xbf6ff0b2	-0.93726647
53	0xbf884d18	-1.0648527
54	0xbeac8546	-0.3369543
55	0xbe8caaef	-0.27474162
56	0xbf919482	-1.1373446
57	0xbfea1851	-1.8288671
58	0xbee86b37	-0.45394298
59	0xbfd5e7d1	-1.671137
60	0xbf465f89	-0.77489525
61	0xbfb716dd	-1.4303852
62	0xbfbf78c0	-1.4958725
63	0xbd20cc3e	-0.03925728
64	0xbddf7c59	-0.10912389
65	0xbdced2c0	-0.10098791
66	0x3e1351b9	0.14386643
67	0xbf663b11	-0.8993388
68	0x3dfa8b08	0.12233549
69	0x3eaeed55	0.34165445
70	0xbde2de16	-0.11077516
71	0xbecc2d0e	-0.39878124
72	0xbf306966	-0.68910825
73	0xbf21fb78	-0.63274336
74	0xbede7123	-0.4344569
75	0xbc96288b	-0.01832988
76	0xbcd61659	-0.026133703
77	0xbdbbad0c	-0.091638654
78	0xbdca66b2	-0.09882869
79	0xbeab98c4	-0.33514988
80	0xbfddbac5	-1.7322623
81	0xbf6b144c	-0.91827846
82	0xbf2005bc	-0.6250875
83	0xbe066a28	-0.13126433
84	0xbf2f872e	-0.6856564
85	0x3e1cd8c3	0.15317063
86	0xbd91a1ad	-0.07110915
87	0xbd1286d2	-0.035773106
88	0xbe8a804f	-0.27051017
89	0xbf5ff8ac	-0.8748882
90	0xbe299ee8	-0.16564524
91	0xbe8cdaef	-0.27510783
92	0xbdfe4a63	-0.12416532
93	0xbe0c3462	-0.13691857
94	0xbf1c2070	-0.60986996
95	0xbf028a23	-0.5099203
96	0xbe8d7119	-0.2762535
97	0xbf16eaea	-0.589522
98	0xbe8dbad2	-0.27681595
99	0x3dc0ddfb	0.094173394
100	0xbebc05d1	-0.36723188
101	0xbe9b9825	-0.30389515
102	0xbeeef947	-0.4667456
103	0xbec283b2	-0.379911
104	0xbf066a83	-0.52506274
105	0x3db67183	0.089083694
106	0x3d9e9221	0.077427156
107	0xbc810fe5	-0.01575465
108	0xbc620525	-0.013795172
109	0xbdb50242	-0.08838321
110	0xbf53636d	-0.82573587
111	0xbeabf8cb	-0.3358825
112	0xbe6c4ce5	-0.23076208
113	0x3e7e0e69	0.24810185
114	0xbde23c2d	-0.11046634
115	0x3df7887f	0.120865814
116	0xbd386461	-0.045017604
117	0xbf7b6c51	-0.9821215
118	0xbdc1aa33	-0.09456291
119	0xbe585c1b	-0.21128885
120	0xbc965f6a	-0.018356044
121	0xbf015f90	-0.5053644
122	0xbe9ca336	-0.3059327
123	0xbe60c03d	-0.21948333
124	0xbeba1a5b	-0.36348233
125	0xbec148e6	-0.3775093
126	0xbd1605fa	-0.036626793
127	0xbc5aad55	-0.01334699
128	0xbc87dad8	-0.016583845
129	0x3ae25975	0.0017269092
130	0xbd259d7d	-0.040433396
131	0x3c5f00c7	0.013611025
132	0xbcc34038	-0.023834333
133	0xbcfecd9f	-0.031103907
134	0xbbe14a30	-0.006875299
135	0xbd335283	-0.04377986
136	0xbc6e151b	-0.014531399
137	0xbad52c53	-0.001626382
138	0xbcaf7969	-0.021420198
139	0x3cd9c43b	0.026582828
140	0xbd0849f8	-0.033273667
141	0xbcfb2336	-0.030656438
142	0xbd304487	-0.043034103
143	0xbc65d528	-0.014027871
144	0xbd4934c9	-0.049122605
145	0xbd2ec399	-0.042667005
146	0xbd10fdd2	-0.035398312
147	0xbe15aaf8	-0.14616
148	0x3e9b4207	0.30323812
149	0xbe9c25e0	-0.30497646
150	0x3dd8b8bb	0.105821095
151	0xbe724605	-0.23659523
152	0x3e2e783e	0.17038056
153	0xbd811222	-0.06302287
154	0x3e4a07a9	0.19729485
155	0xbbe1dab5	-0.006892527
156	0x3e05c205	0.13062294
157	0xbf3e6d35	-0.74385387
158	0xbf93556c	-1.1510444
159	0xbec1ef67	-0.37877962
160	0xbede4d43	-0.4341832
161	0x3da851cf	0.08218729
162	0x3d42a8cf	0.04752427
163	0xbe6415fa	-0.22274008
164	0xbee87575	-0.45402113
165	0xbd2d01f1	-0.04223818
166	0x3cc70223	0.024293011
167	0x3e2f65ef	0.17128728
168	0xbcb381d2	-0.02191249
169	0xbbf0dd90	-0.007350631
170	0xbc4f3af8	-0.012648337
171	0x3c9f95d3	0.019480621
172	0xbcbb933f	-0.02289736
173	0xbd475497	-0.048664656
174	0xbcf02dd0	-0.02931872
175	0xbcdcd808	-0.02695848
176	0xbd49e5b9	-0.049291346
177	0xbd62532c	-0.0552551
178	0xbb9ffc46	-0.0048823683
179	0xbcbf169c	-0.02332621
180	0xbc9b7568	-0.018976882
181	0xbdd440e3	-0.10363939
182	0xbb7bccb3	-0.003842157
183	0xbbe5be15	-0.007011185
184	0xbcb8b12f	-0.022545425
185	0xbcf4db58	-0.029889748
186	0xbca178ea	-0.019710977
187	0xbc99ccd8	-0.018774435
188	0xbd40b2b5	-0.04704543
189	0x3dca5049	0.098785944
190	0x3e1583aa	0.14601007
191	0xbe03e147	-0.12878905
192	0xbde75c7a	-0.112969354
193	0x3df89395	0.12137524
194	0xbe7821a2	-0.2423158
195	0xbe9f04df	-0.31058404
196	0xbee7b494	-0.45254958
197	0xbf061f2f	-0.5239133
198	0x3dcb2dda	0.09920855
199	0xbe136832	-0.14395216
200	0xbe74cde8	-0.23906672
201	0xbe899825	-0.2687389
202	0xbe536350	-0.20643353
203	0xbf347610	-0.7049265
204	0x3dd09c3b	0.101860486
205	0xbe94eab0	-0.29085302
206	0x3e54d22d	0.207833
207	0xbc694a9f	-0.014238982
208	0xbf288197	-0.6582274
209	0xbe57e3ce	-0.21082994
210	0xbe135585	-0.14388092
211	0xbc4c9755	-0.012487252
212	0xbd9e66da	-0.07734461
213	0xbeb3d8b9	-0.35126284
214	0xbf410d82	-0.75411236
215	0xbe604a72	-0.21903399
216	0xbe832736	-0.25615853
217	0xbf56a541	-0.8384591
218	0xbd016a66	-0.03159561
219	0x3deaf230	0.11471975
220	0xbe5dd700	-0.21664047
221	0xbebb1cb3	-0.36545333
222	0xbf5c8e0c	-0.86154246
223	0xbe90434e	-0.2817635
224	0xbf115fc5	-0.5678676
225	0xbc6b47a1	-0.014360339
226	0x3d8c9d8b	0.068659864
227	0xbc80adfa	-0.015707958
228	0xbbc6fc40	-0.006072551
229	0x3e91e909	0.28498104
230	0x3e50c898	0.2038902
231	0xbf5b0169	-0.85549027
232	0x3c40bb05	0.011763339
233	0x3e567741	0.2094393
234	0xbede4c7b	-0.43417725
235	0xbe6fc9ae	-0.23416778
236	0x3e43f1f4	0.19135267
237	0xbece948d	-0.4034771
238	0x3903e11d	0.00012576995
239	0xbf1c6a3f	-0.6109962
240	0xbbbe94dc	-0.0058160853
241	0xbe0776ab	-0.13228862
242	0x3d6f042f	0.0583536
243	0x3db6b53b	0.08921286
244	0xbcce02ea	-0.025147874
245	0xbec2a044	-0.38012898
246	0x3c18906b	0.009311776
247	0xbe5a397f	-0.21310996
248	0x3dbed8b0	0.093186736
249	0xbe8118c3	-0.25214204
250	0xbe88554c	-0.26627576
251	0xbeac0e4b	-0.33604655
252	0xbe615d04	-0.22008139
253	0xbeb8735d	-0.36025515
254	0xbed78a31	-0.4209762
255	0xbf33e963	-0.70277995

fc4.bias f4 [11]
0	0xbf01f9f5	-0.5077203
1	0xbecf901c	-0.40539634
2	0xbf147ece	-0.5800599
3	0xbeaffd79	-0.34373072
4	0xbe583873	-0.21115284
5	0xbf029221	-0.51004225
6	0xbe95f203	-0.29286203
7	0xbe49a546	-0.19691953
8	0xbe9d3c8e	-0.30710262
9	0xbf083c95	-0.5321744
10	0x3f98f252	1.194895
