code/model.pt (torch, 142939 bytes, 12 tensors)

cnn.0.weight f4 [16, 3, 3, 3]
-0.05461614 0.07049028 -0.18733126 -0.18098496 -0.07805319 0.04686372 0.018611506 0.2260214
0.051645458 -0.032607213 -0.11969699 -0.09434395 -0.25700995 -0.16721626 -0.1203527 -0.0016514813
0.11352311 0.14672582 -0.14847337 -0.08570517 0.06402437 0.14463009 -0.022910949 0.14664827
0.01438582 0.09599096 0.23336338 -0.20971456 -0.15772752 -0.07360568 -0.14269239 0.116583854
-0.16895619 -0.18340936 -0.20258279 -0.25604883 -0.17260674 0.10499165 0.049211316 -0.011554187
-0.0710323 -0.16576387 -0.1044098 -0.28660753 -0.24988197 0.06813884 0.2869448 0.3048982
0.033740036 0.14248507 0.2920271 0.28301018 0.2059471 0.15441814 0.27894208 -0.11039717
-0.081428446 -0.010498135 -0.112837546 -0.18639126 0.21476954 0.088957116 -0.2138618 0.18399677
0.061639883 -0.20408289 0.12055229 0.015926857 -0.029522894 0.28855643 -0.18326357 -0.22854777
0.19089283 0.14337616 0.031826258 0.27455345 0.03794257 -0.2753573 0.11912454 -0.12614328
-0.3008984 0.31840354 0.25523993 -0.15218295 0.083598524 -0.024009397 -0.05926868 -0.16815408
-0.048840925 -0.23959991 0.24388929 0.22771856 0.19096819 0.14135408 -0.16548319 -0.14349909
0.031035366 -0.07423571 -0.27341062 0.07360693 0.32081208 0.19349645 0.0068350527 -0.006761767
-0.19005616 -0.033380415 -0.23350216 -0.25707522 -0.05221917 0.01222144 -0.090275854 0.048596688
-0.15682107 0.12972546 0.04705829 -0.22350842 -0.12005625 -0.015831074 0.03363604 0.06139101
0.026498934 -0.007126453 -0.115100935 0.022127762 -0.227566 -0.16815756 -0.08980564 -0.11055465
-0.07701658 -0.23650193 -0.091342695 -0.01681844 -0.2270207 -0.08576486 0.04524075 -0.04657044
0.035434127 0.0024076267 -0.011385063 0.13738826 0.18423417 0.023794223 0.14848465 -0.06210679
-0.2610273 -0.1167105 0.09924399 -0.11344426 -0.13739699 -0.19974703 -0.3391856 -0.2548351
-0.14548112 0.046360902 0.11484859 -0.18790583 0.023174597 -0.16395149 -0.07006871 -0.23149575
-0.1090191 -0.1283719 -0.1743944 -0.081903934 0.14498517 -0.068479575 -0.10043248 0.16509895
-0.3299241 -0.12513243 0.1887458 -0.07006055 0.28982586 0.28764936 -0.24400012 0.12893341
0.10605533 -0.25497088 0.046711758 -0.1100561 0.033959825 0.042557675 0.28539935 -0.0065985904
0.08014535 0.13938701 -0.20212148 -0.15641263 -0.15854369 0.27805158 0.3417609 0.33611232
-0.16013776 0.0053948597 -0.12122003 -0.30622935 -0.30703065 -0.1272625 0.104673 0.23528239
0.27036 0.13263492 -0.10706617 -0.06784523 -0.30174538 -0.047091495 -0.23893584 0.27639
0.19277775 0.16747127 -0.032760605 -0.047315784 0.03518515 -0.22823387 -0.17180233 -0.13339132
-0.28447536 -0.16432294 0.20051767 -0.23786597 -0.022385063 0.29023904 0.02189259 0.052964143
0.0060102274 -0.06395278 -0.21597984 -0.012308715 -0.1675956 -0.048292827 0.103559166 0.09690501
0.06617483 0.34712344 -0.05059276 -0.20114622 0.13400109 -0.24172905 -0.09804829 0.16012962
0.0014694788 0.18890569 0.107909195 0.011183443 0.05515413 -0.22106986 0.104418844 -0.23064682
-0.062609866 -0.15729159 -0.25280568 -0.11442655 0.096112706 -0.16803005 -0.20259356 -0.18679927
00000000: 2cb5 5fbd 355d 903d c4d3 3fbe 1f54 39be
00000010: 5ada 9fbd 2cf4 3f3d 2877 983c 2772 673e
00000020: 308a 533d 248f 05bd b223 f5bd 6737 c1bd
00000030: cf96 83be bd3a 2bbe 7a7b f6bd 8476 d8ba
00000040: ce7e e83d 4b3f 163e 6709 18be 3186 afbd
00000050: 351f 833d e919 143e beaf bbbc f72a 163e
00000060: 81b2 6b3c e996 c43d cff6 6e3e 6abf 56be
00000070: 5383 21be 93be 96bd f41d 12be 84c3 ee3d
00000080: da02 2dbe aacf 3bbe dd71 4fbe d518 83be
00000090: d2bf 30be dd05 d73d ce91 493d c64d 3dbc
000000a0: 6279 91bd 01be 29be ced4 d5bd 39be 92be
000000b0: 0fe1 7fbe 608c 8b3d 6eea 923e 9e1b 9c3e
000000c0: fe32 0a3d 9be7 113e 9384 953e b6e6 903e
000000d0: cce3 523e ca1f 1e3e 7fd1 8e3e e917 e2bd
000000e0: f5c3 a6bd 5f00 2cbc 5f17 e7bd 5add 3ebe
000000f0: 8cec 5b3e 262f b63d 96fe 5abe a669 3c3e
00000100: 1a7a 7c3d 1bfb 50be 1ee4 f63d 0a79 823c
00000110: ffd9 f1bc abbd 933e 72a9 3bbe 6d08 6abe
00000120: 6979 433e 33d1 123e 405c 023d 4592 8c3e
00000130: ab69 1b3d a2fb 8cbe 91f7 f33d b42b 01be
00000140: 5b0f 9abe ca05 a33e cfae 823e d9d5 1bbe
00000150: b435 ab3d 5baf c4bc b7c3 72bd 9530 2cbe
00000160: 6c0d 48bd ae59 75be 1dbe 793e 0e2f 693e
00000170: 2a8d 433e 20bf 103e 6d74 29be 6df1 12be
00000180: e13d fe3c e408 98bd 7afc 8bbe 3bbf 963d
00000190: 7b41 a43e ef23 463e 94f8 df3b d091 ddbb
000001a0: 159e 42be e7b9 08bd 311b 6fbe 5d9f 83be
000001b0: c5e3 55bd 6f3c 483c 8ce2 b8bd 520d 473d
000001c0: b495 20be c0d6 043e 32c0 403d 64df 64be
000001d0: 0de0 f5bd 2bb0 81bc f2c5 093d 2475 7b3d
000001e0: 4b14 d93c 0585 e9bb 0aba ebbd 4845 b53c
000001f0: 1007 69be 7f31 2cbe 05ec b7bd 7a6a e2bd
00000200: deba 9dbd 902d 72be e111 bbbd d3c6 89bc
00000210: 1d78 68be 7da5 afbd 5d4e 393d a5c0 3ebd
00000220: 6023 113d 46c9 1d3b 6a88 3abc 82af 0c3e
00000230: e2a7 3c3e 1aec c23c 5c0c 183e b063 7ebd
00000240: 5fa5 85be ea05 efbd 6f40 cb3d 7755 e8bd
00000250: ccb1 0cbe 7c8a 4cbe bca9 adbe bf79 82be
00000260: 01f9 14be eee4 3d3d bd35 eb3d 636a 40be
00000270: a7d8 bd3c e6e2 27be 2f80 8fbd 390d 6dbe
00000280: 6845 dfbd ec73 03be 7294 32be 40bd a7bd
00000290: fe76 143e 053f 8cbd 8baf cdbd b30f 293e
000002a0: d0eb a8be b722 00be 9446 413e e87b 8fbd
000002b0: 0e64 943e c746 933e 2bdb 79be 1f07 043e
000002c0: 8933 d93d 8b8b 82be d454 3f3d 1865 e1bd
000002d0: 7519 0b3d f550 2e3d dd1f 923e fd38 d8bb
000002e0: 3f23 a43d 78bb 0e3e eff8 4ebe a22a 20be
000002f0: 4759 22be c75c 8e3e 49fb ae3e ea16 ac3e
00000300: 27fb 23be 5dc7 b03b 3542 f8bd 18ca 9cbe
00000310: 1f33 9dbe 1a51 02be cc5e d63d deed 703e
00000320: a06c 8a3e 73d1 073e 8245 dbbd 71f2 8abd
00000330: 5f7e 9abe 03e3 40bd 99ab 74be fd82 8d3e
00000340: 8867 453e 977d 2b3e fc2f 06bd 32ce 41bd
00000350: 4e1e 103d 24b6 69be f3ec 2fbe bc97 08be
00000360: c1a6 91be 4644 28be 8154 4d3e 2393 73be
00000370: e160 b7bc 369a 943e 1758 b33c eef0 583d
00000380: 71f1 c43b adf9 82bd d229 5dbe 7eaa 49bc
00000390: 2e9e 2bbe b3ce 45bd d416 d43d 2276 c63d
000003a0: ab86 873d 2aba b13e 5b3a 4fbd 46f9 4dbe
000003b0: 9537 093e d287 77be 8bcd c8bd 05f9 233e
000003c0: 879b c03a 7e70 413e 7fff dc3d c23a 373c
000003d0: 4ce9 613d 2360 62be 8cd9 d53d ae2e 6cbe
000003e0: 9a39 80bd 0c11 21be bf6f 81be 7858 eabd
000003f0: bdd6 c43d 1210 2cbe b074 4fbe 4f48 3fbe

cnn.0.bias f4 [16]
0.33611152 -0.005566517 -0.059712827 0.088036306 0.11656636 -0.2742147 0.1603139 -0.040921155
-0.05318472 -0.15747243 -0.015883243 0.2767966 0.031412266 0.24906719 0.13421278 0.14093259
00000000: cf16 ac3e 5467 b6bb 7095 74bd 614c b43d
00000010: 58ba ee3d df65 8cbe 5429 243e f19c 27bd
00000020: 39d8 59bd 7440 21be 931d 82bc 49b8 8d3e
00000030: 26aa 003d 780b 7f3e 136f 093e a250 103e

cnn.3.weight f4 [32, 16, 3, 3]
0.025642034 -0.038824633 0.10727552 0.08403557 0.13269295 0.09748995 0.0075136647 0.12671833
0.056266017 0.013382073 -0.08191585 -0.019587042 -0.08846848 -0.029153379 0.032607894 -0.034867015
0.042755455 0.055538096 -0.24343655 -0.409434 -0.11483659 -0.22226055 -0.2725373 -0.038821433
-0.19167326 -0.38204253 -0.19208893 -0.080272146 -0.08999799 0.10224418 -0.028620344 0.03068281
-0.020876247 -0.06961009 -0.1085403 0.024947764 -0.02439157 0.03480675 0.03439002 0.06278114
0.02386341 -0.008794151 0.02147745 0.057260733 0.080771536 -0.093870595 0.019039705 -0.059541237
-0.0762872 -0.042505495 0.053165916 0.07357835 -0.06559476 0.048966743 0.052392848 0.08436512
0.110084 -0.0061728964 0.09818232 0.10710339 0.06422496 0.11425427 0.054251626 -0.23219365
-0.20309334 -0.23983537 -0.28429484 -0.2759436 -0.26012444 -0.12732574 -0.24113864 -0.263996
-0.38379556 -0.55084383 -0.18849933 -0.5992807 -0.6338446 -0.34354421 -0.35845765 -0.56696165
-0.2944506 -0.10590198 0.027480744 0.05859821 -0.08827138 -0.076990195 -0.057528738 0.008068564
-0.024415582 -0.05955578 -0.08159597 -0.049269196 -0.07504351 0.00014971085 -0.042214535 -0.040849507
0.022834718 0.08200423 -0.033191517 0.08877428 0.05264379 0.16491632 -0.0018558752 -0.0013088381
0.16323286 0.0237788 0.09088004 0.064216025 0.04919979 -0.0025648493 0.06856469 0.0294919
-0.08886102 -0.0631689 -0.054080322 0.0033118285 -0.06872394 0.16490741 0.073789336 0.06410011
0.17966746 0.14995024 0.20234011 0.16237605 0.090441704 0.07086256 0.07065982 0.09969528
0.010230235 -0.037106425 0.044270676 0.092609495 -0.032882333 -0.08792275 -0.06522381 0.03766028
0.033922676 0.053512663 0.06238996 0.13454512 0.20410484 0.17097755 0.102996595 0.061718024
-0.11424479 0.03342439 0.035616074 0.0023535313 -0.09934747 0.06119441 0.03414766 0.03338766
-0.09015263 -0.054331437 -0.06718313 0.12111209 -0.04926915 -0.050162315 0.070482515 -0.042004053
-0.05092892 0.027192324 0.19339037 0.13784906 0.29207423 0.11044889 0.20258726 0.2943178
0.12974837 0.11255445 0.28608698 0.009604269 0.022866828 0.16422714 -0.0072167786 -0.031573605
0.07869597 -0.18681484 -0.015306754 0.05159511 -0.06116552 0.026119191 0.08047394 0.02707135
0.06383859 0.016580412 0.04513843 0.027458891 -0.0132903755 -0.10844717 -0.06737148 0.03961175
-0.07983634 0.0042424547 0.0020020688 -0.0032994905 -0.04540138 0.078802265 0.02530528 0.08997633
-0.107891954 0.048641577 0.09753678 -0.05665658 0.12014 0.0015802477 -0.067787044 -0.046217486
0.036351994 0.082491264 -0.12388513 0.048932698 0.068266615 -0.21659271 -0.18780066 -0.119052015
0.09318691 0.19582333 0.084313154 0.18027277 0.2632645 0.15017958 -0.049339265 0.171313
0.045591164 -0.02039832 0.030874178 0.13111605 -0.050536208 -0.004971783 0.098416954 -0.04656351
0.05754056 -0.0047412473 -0.01794452 -0.0019131309 0.076088406 0.047956992 0.008201817 -0.03843952
0.03239173 0.05039753 0.056651566 -0.071678504 0.0318923 0.075095326 -0.011064891 -0.09945109
0.052095205 -0.07752359 -0.007684567 0.006352159 -0.064286456 0.011356999 -0.105457164 0.0070674852
00000000: 3e0f d23c 9406 1fbd 45b3 db3d d71a ac3d
00000010: a9e0 073e d0a8 c73d 3035 f63b 73c2 013e
00000020: 3277 663d 7b40 5b3c 7fc3 a7bd 0175 a0bc
00000030: f62e b5bd 11d3 eebc db8f 053d b7d0 0ebd
00000040: 5820 2f3d ea7b 633d 6e47 79be 55a1 d1be
00000050: 722f ebbd 4598 63be 028a 8bbe 3903 1fbd
00000060: ff45 44be 149b c3be f6b2 44be b965 a4bd
00000070: de50 b8bd 6665 d13d 3675 eabc 845a fb3c
00000080: aa04 abbc bc8f 8ebd 604a debd 415f cc3c
00000090: d4d0 c7bc 8691 0e3d 8ddc 0c3d 6693 803d
000000a0: 337d c33c 5815 10bc 7af1 af3c 3b8a 6a3d
000000b0: 8c6b a53d 3a3f c0bd 28f9 9b3c 83e1 73bd
000000c0: 773c 9cbd 3e1a 2ebd 81c4 593d 3fb0 963d
000000d0: 8c56 86bd 5a91 483d e299 563d 9fc7 ac3d
000000e0: b873 e13d 0246 cabb d013 c93d 0659 db3d
000000f0: 6088 833d 25fe e93d f436 5e3d 2cc4 6dbe
00000100: b3f7 4fbe 6797 75be 188f 91be 7b48 8dbe
00000110: 082f 85be ae61 02be 0ced 76be 7c2a 87be
00000120: da80 c4be 1a04 0dbf f805 41be 766a 19bf
00000130: a443 22bf 07e5 afbe c387 b7be 6624 11bf
00000140: 3bc2 96be 23e3 d8bd 4c1f e13c ad04 703d
00000150: a0c7 b4bd 09ad 9dbd 41a3 6bbd 0332 043c
00000160: 3003 c8bc c3f0 73bd ca1b a7bd 7fce 49bd
00000170: 69b0 99bd b3fb 1c39 26e9 2cbd d051 27bd
00000180: e00f bb3c d5f1 a73d d4f3 07bd 4acf b53d
00000190: 04a1 573d d3df 283e d740 f3ba 528d abba
000001a0: 8426 273e c2cb c23c 501f ba3d b183 833d
000001b0: b885 493d 0817 28bb a56b 8c3d ff98 f13c
000001c0: c4fc b5bd b25e 81bd 5483 5dbd 430b 593b
000001d0: 23bf 8cbd 7ddd 283e dd1e 973d eb46 833d
000001e0: bffa 373e 8e8c 193e 3f32 4f3e e845 263e
000001f0: 8039 b93d 6420 913d 19b6 903d 0a2d cc3d
00000200: b79c 273c e8fc 17bd 2b55 353d 0caa bd3d
00000210: a0af 06bd d810 b4bd 1094 85bd aa41 1a3d
00000220: 81f2 0a3d 1830 5b3d 9d8c 7f3d 32c6 093e
00000230: dc00 513e bd14 2f3e e1ef d23d 0acc 7c3d
00000240: 2cf9 e9bd 03e8 083d 29e2 113d b43d 1a3b
00000250: b076 cbbd fda6 7a3d 6bde 0b3d 80c1 083d
00000260: f1a1 b8bd a48a 5ebd 4f97 89bd 9e09 f83d
00000270: 73ce 49bd 0077 4dbd 2359 903d 710c 2cbd
00000280: d89a 50bd 70c2 de3c 2008 463e 4e28 0d3e
00000290: c18a 953e 0733 e23d 0973 4f3e d3b0 963e
000002a0: c2dc 043e f382 e63d fe79 923e 395b 1d3c
000002b0: 3753 bb3c 292b 283e ba7a ecbb 5353 01bd
000002c0: 5a2b a13d 644c 3fbe 2ec9 7abc 6555 533d
000002d0: b288 7abd eaf7 d53c 85cf a43d bcc4 dd3c
000002e0: cfbd 823d a5d3 873c 13e3 383d 78f1 e03c
000002f0: e0bf 59bc 8d19 debd 0ffa 89bd ee3f 223d
00000300: 3c81 a3bd 4a04 8b3b 2435 033b 443c 58bb
00000310: ccf6 39bd 1563 a13d 054d cf3c 8345 b83d
00000320: 75f6 dcbd 643c 473d 5dc1 c73d bb10 68bd
00000330: f60b f63d 5020 cf3a efd3 8abd 8c4e 3dbd
00000340: d4e5 143d 2ef1 a83d 7db7 fdbd a76d 483d
00000350: 5ecf 8b3d 7bca 5dbe d14e 40be 8bd1 f3bd
00000360: c7d8 be3d e985 483e 60ac ac3d 6d99 383e
00000370: 9bca 863e adc8 193e f817 4abd ad6c 2f3e
00000380: cdbd 3a3d 611a a7bc d8eb fc3c 4943 063e
00000390: 0eff 4ebd 57ea a2bb d48e c93d 61b9 3ebd
000003a0: a6af 6b3d 775c 9bbb 6300 93bc 05c2 faba
000003b0: 3dd4 9b3d 8d6e 443d ea60 063c c272 1dbd
000003c0: 31ad 043d a46d 4e3d 790b 683d 2ecc 92bd
000003d0: 80a1 023d 94cb 993d 8449 35bc 03ad cbbd
000003e0: c861 553d b0c4 9ebd d2ce fbbb c625 d03b
000003f0: 9ea8 83bd b512 3a3c edf9 d7bd 5d96 e73b

cnn.3.bias f4 [32]
0.23431548 0.06010457 0.08535687 0.07957248 0.1676932 0.22834636 0.037443202 0.014334052
-0.058741298 0.004595953 0.17368849 -0.03744853 0.023689156 0.012314048 0.05966968 0.05148626
0.009515109 0.068168946 -0.03043784 -0.17246275 0.09457036 -0.021536835 0.120813616 0.012163033
0.1070955 -0.021382391 0.23846021 -0.07169717 -0.047525343 0.00028594155 -0.031294975 0.11424246
00000000: 66f0 6f3e 3630 763d 95cf ae3d e5f6 a23d
00000010: c4b7 2b3e a1d3 693e 0b5e 193d 5fd9 6a3c
00000020: b79a 70bd a699 963b 65db 313e a163 19bd
00000030: c30f c23c dcc0 493c 3268 743d 42e3 523d
00000040: 42e5 1b3c 299c 8b3d c758 f9bc 139a 30be
00000050: 1bae c13d 046e b0bc 216d f73d 7547 473c
00000060: e354 db3d 202a afbc ea2e 743e f7d5 92bd
00000070: efa9 42bd 6dea 9539 292f 00bd f3f7 e93d

fc1.weight f4 [11, 672]
-0.04948978 -0.05210526 -0.022507977 0.1278242 0.07952582 0.06332927 0.008082665 0.040909402
0.008506797 0.010731238 0.007309188 0.042386387 -0.024792729 0.015202281 -0.016871275 -0.061396517
-0.01703594 0.060107224 -0.022096148 -0.08761561 -0.030955244 0.03495742 0.04344075 0.025569452
-0.012501047 0.014909176 0.042353556 -0.011945224 -0.021299524 -0.0056199073 -0.013644148 0.028089665
0.031025238 -0.030630033 0.055070728 -0.0055759856 -0.012475792 -0.0757123 0.061039757 -0.0075975233
0.010577194 0.061204094 -0.012234694 0.009826887 0.034618136 -0.03169437 -0.010632094 -0.028238615
0.008398523 -0.012931718 0.043318592 -0.008984393 -0.076865494 -0.029576095 0.030870013 -0.026316168
0.011478186 -0.01998257 0.030328903 -0.064342625 0.019226493 0.027902322 -0.014269276 -0.047127236
0.09974671 0.03577423 0.02891858 0.013621123 0.03398695 -0.004229536 -0.024614455 0.031428084
0.03164702 -0.04541266 -0.04323363 0.0023521895 -0.03097725 -0.021923466 0.038931545 0.06271345
0.008165453 -0.061822884 0.012773805 0.02203117 0.07969982 0.07885249 -0.038179785 -0.11838394
0.06909491 0.075564645 -0.13732396 0.14384407 0.010470511 -0.0703636 -0.071887 0.07116909
0.15814008 -0.06328056 0.07019592 -0.017492244 -0.014014993 -0.005307015 -0.01805385 0.16825074
0.015473101 -0.06280387 0.03235274 -0.10476642 0.060236663 -0.022026839 -0.0095542865 0.018438162
0.033115856 0.1107803 -0.04195424 -0.03293324 -0.036265094 0.004213793 0.086590745 0.0003680691
-0.012855175 -0.09699702 0.031050509 -0.06416722 -0.04626607 0.07044814 0.026070997 0.11521782
0.0071437196 -0.045006037 -0.05625523 0.054982282 0.06480675 -0.12806782 0.03463168 0.160014
-0.09338425 -0.07656428 -0.019923266 -0.015295707 -0.049935088 0.08865954 -0.017766234 -0.1545011
-0.026380124 -0.088684686 -0.049471647 0.03221586 0.042411335 -0.013922882 -0.12835243 -0.10645533
-0.07000812 -0.0112088965 -0.055452082 0.08563839 0.1410668 -0.013823695 -0.031076984 -0.06880532
-0.118841186 0.026154943 -0.010317435 -0.04998357 -0.04940008 -0.07274501 0.010166803 0.017228423
-0.033898056 -0.03630383 -0.054627836 0.01461863 -0.0036040933 -0.051799234 0.03302093 -0.022234173
-0.032618534 -0.0239333 -0.017183205 -0.022518402 -0.034700304 0.019616142 -0.021937458 -0.05697094
-0.06534647 0.020105617 -0.025822178 -0.049353335 0.007932617 0.008288374 0.02644283 0.055981576
-0.072494164 0.026124347 0.006828329 0.016136866 -0.03527525 0.07856007 0.03331057 -0.015513885
-0.00096539553 0.0073531833 0.038117312 -0.06289678 0.045157865 -0.061208304 0.026986947 -0.0022678974
0.00030150724 0.0608214 -0.01239038 0.01787416 0.026427902 0.056612268 -0.023844881 0.07295542
0.05011975 0.07883959 0.12025816 -0.025352735 -0.058177367 -0.06599917 0.006604052 0.031040793
-0.03779378 0.048290174 -0.038155254 -0.092330545 -0.04227824 0.058628235 0.104424395 0.023665423
-0.0010955076 0.049735613 -0.011275881 -0.025393398 -0.098321475 -0.0074346266 -0.08151142 -0.0103691155
-0.0038644536 -0.06241014 -0.051441014 -0.03015336 -0.07683458 -0.046087623 0.036397923 -0.02233994
0.023622686 0.061236262 -0.001932127 0.016961735 -0.005275894 0.040828552 0.07307941 0.019098442
00000000: ccb5 4abd 536c 55bd a662 b8bc 59e4 023e
00000010: 6fde a23d c7b2 813d 276d 043c 9e90 273d
00000020: 1860 0b3c 13d2 2f3c ea81 ef3b 599d 2d3d
00000030: 1f1a cbbc fd12 793c a135 8abc ea7a 7bbd
00000040: f58e 8bbc fe32 763d fb02 b5bc d06f b3bd
00000050: da95 fdbc 832f 0f3d eeee 313d 0777 d13c
00000060: 31d1 4cbc 9e45 743c ec7a 2d3d e7b5 43bc
00000070: 577c aebc 3327 b8bb b48b 5fbc 4c1c e63c
00000080: a428 fe3c d6eb fabc d891 613d c2b6 b6bb
00000090: 4467 4cbc 0d0f 9bbd d304 7a3d a5f4 f8bb
000000a0: f84b 2d3c 25b1 7a3d 0774 48bc f400 213c
000000b0: bfcb 0d3d f5d1 01bd 3c32 2ebc ab54 e7bc
000000c0: f599 093c 8edf 53bc d66e 313d 4733 13bc
000000d0: a86b 9dbd 9149 f2bc 1ce3 fc3c 0195 d7bc
000000e0: 000f 3c3c 7db2 a3bc 5274 f83c 11c6 83bd
000000f0: e180 9d3c 6993 e43c aec9 69bc 7d08 41bd
00000100: 0148 cc3d 0088 123d a8e6 ec3c 212b 5f3c
00000110: e635 0b3d eb97 8abb 41a4 c9bc bcba 003d
00000120: 4ea0 013d a002 3abd bf15 31bd 3127 1a3b
00000130: 00c4 fdbc d798 b3bc af76 1f3d e96f 803d
00000140: 64c8 053c fe39 7dbd 3949 513c b67a b43c
00000150: a939 a33d 6a7d a13d 6862 1cbd 4773 f2bd
00000160: a281 8d3d a3c1 9a3d a79e 0cbe dc4b 133e
00000170: 828c 2b3c cb1a 90bd 7e39 93bd 1ac1 913d
00000180: 79ef 213e 3d99 81bd e1c2 8f3d e54b 8fbc
00000190: 249f 65bc 78e6 adbb abe5 93bc ec49 2c3e
000001a0: e482 7d3c 519f 80bd 4f84 043d c78f d6bd
000001b0: b8ba 763d a171 b4bc 9589 1cbc a10b 973c
000001c0: 7ea4 073d c8e0 e23d 36d8 2bbd 01e5 06bd
000001d0: b58a 14bd dc13 8a3b 7d56 b13d 66f9 c039
000001e0: 839e 52bc 60a6 c6bd a35d fe3c 1a6a 83bd
000001f0: 7e81 3dbd 1d47 903d d892 d53c 52f7 eb3d
00000200: dd15 ea3b 4058 38bd e26b 66bd 1a35 613d
00000210: 67b9 843d 3624 03be f3d9 0d3d b6da 233e
00000220: 3e40 bfbd bccd 9cbd 1e36 a3bc d89a 7abc
00000230: bc88 4cbd 2293 b53d 7e8a 91bc 8935 1ebe
00000240: 211b d8bc 51a0 b5bd c8a2 4abd c7f4 033d
00000250: 82b7 2d3d cd1c 64bc d26e 03be 4105 dabd
00000260: 6b60 8fbd 85a5 37bc b921 63bd 2e63 af3d
00000270: d173 103e c77c 62bc 2995 febc cee9 8cbd
00000280: 0263 f3bd e442 d63c 750a 29bc 92bb 4cbd
00000290: bd57 4abd 56fb 94bd aa92 263c 9f22 8d3c
000002a0: b0d8 0abd 53b3 14bd 70c1 5fbd fa82 6f3c
000002b0: a732 6cbb 6f2b 54bd f440 073d 7124 b6bc
000002c0: 039b 05bd c50f c4bc cbc3 8cbc 8378 b8bc
000002d0: e821 0ebd 08b2 a03c 2fb6 b3bc 5c5a 69bd
000002e0: 5fd4 85bd 89b4 a43c 0889 d3bc b926 4abd
000002f0: cff7 013c f6cb 073c a29e d83c f04c 653d
00000300: d277 94bd ba02 d63c 2dc0 df3b 7631 843c
00000310: c87c 10bd 1ae4 a03d aa70 083d f32d 7ebc
00000320: 9912 7dba f9f2 f03b e620 1c3d 07d0 80bd
00000330: 74f7 383d 8fb5 7abd bb13 dd3c 01a1 14bb
00000340: 9e13 9e39 dc1f 793d 0501 4bbc d56c 923c
00000350: 547f d83c 44e2 673d 5756 c3bc a769 953d
00000360: 5e4a 4d3d a776 a13d e949 f63d 8ab0 cfbc
00000370: 644b 6ebd 932a 87bd ce66 d83b 4349 fe3c
00000380: a7cd 1abd ebcb 453d af48 1cbd cc17 bdbd
00000390: f32b 2dbd 2924 703d 75dc d53d fddd c13c
000003a0: 2397 8fba 92b7 4b3d 79be 38bc d105 d0bc
000003b0: c55c c9bd 2b9e f3bb 76ef a6bd 39e3 29bc
000003c0: c642 7dbb c6a1 7fbd d0b3 52bd 2e04 f7bc
000003d0: 735b 9dbd 60c6 3cbd fd15 153d 4002 b7bc
000003e0: 5d84 c13c e0d2 7a3d 6d3f fdba 56f3 8a3c
000003f0: 68e1 acbb d73b 273d a8aa 953d 5674 9c3c

fc1.bias f4 [11]
-0.0052165287 0.10106551 0.038619686 0.027324017 -0.073264085 -0.04685394 -0.05147513 -0.06404489
-0.048482437 -0.016208421 -0.019470027
00000000: 6aef aabb 6ffb ce3d ad2f 1e3d 9ed6 df3c
00000010: 7b0b 96bd ebe9 3fbd 96d7 52bd f829 83bd
00000020: 8595 46bd 86c7 84bc 9b7f 9fbc

fc2.weight f4 [11, 672]
0.009981257 0.01234176 0.07711978 0.086594336 0.060290545 0.026678814 0.04347129 -0.00017087346
0.023138693 -0.014941048 -0.2379206 -0.16103703 -9.771911e-05 0.03729123 0.03881272 0.007015193
-0.0978245 -0.07376916 0.008711978 -0.038746666 0.006136161 0.0003472815 0.010213979 -0.012340081
-0.013428874 0.029385353 0.0049356525 0.022640012 0.0225687 0.0043474715 0.033458047 0.116647616
0.018530345 -0.026024075 -0.022983795 0.036203496 0.03388421 0.0375425 -0.0110091325 -0.006728659
0.017358236 0.020074198 0.019154264 -0.017057355 -0.06881781 0.07983359 0.09406167 -0.039893858
-0.008519986 0.03407459 -0.00772876 -0.036365706 -0.14968677 -0.056738574 -0.01472544 0.0046976316
0.004191003 -0.020709543 0.047120947 0.049330547 -0.030242642 0.0064970353 -0.016292213 -0.028373273
-0.013271147 -0.043391682 0.08152261 0.12742446 0.021138962 0.021167016 -0.034931947 -0.028856652
-0.024169654 -0.11737294 -0.03703071 -0.00090235163 0.012297945 -0.02818038 -0.060421288 0.014735619
0.17560154 0.12475588 0.041931618 -0.027327988 -0.014718363 0.0051972065 -0.008592927 -0.016863551
-0.1732028 -0.0606791 -0.011779809 -0.022145359 -0.053490683 0.0403849 0.24153809 0.26744944
0.0648408 0.028265433 -0.009404146 0.019955859 0.028959418 0.0053036995 -0.024672825 -0.04105928
-0.009788529 -0.0058533307 0.017642425 -0.022425741 0.06521581 -0.0017123222 0.03230659 -0.026521737
-0.025513485 0.026782237 -0.047525086 -0.33507943 -0.0068711373 0.0074244286 -0.017601881 -0.04203254
0.026376516 0.03718663 0.075252295 -0.027384073 0.04639821 -0.038390175 0.0045336518 -0.0009177529
0.012925679 -0.025808174 -0.030914104 -0.02121317 0.035569575 0.052382357 0.041843086 0.082139246
-0.21089692 -0.27740774 0.045934256 -0.0028856902 0.0716251 0.025956592 0.025058143 -0.09454309
0.007396112 0.026140243 0.044748385 -0.007677211 0.007475367 0.025652448 -0.043780465 0.009044081
0.025395274 -0.0062608398 -0.012662458 -0.009452919 0.07402377 -0.25962853 -0.09031276 0.018378492
0.008348454 0.06727682 -0.03753593 0.020088166 -0.028180791 0.054164995 -0.044405624 0.013178664
0.016525734 0.01706678 0.023140172 0.041732453 0.028485272 0.06999821 -0.032436687 -0.03935543
-0.090649225 0.0717431 0.33135402 0.34431615 0.110294186 -0.06520941 -0.08862298 -0.0020477152
-0.068565466 0.14640269 0.10189975 -0.01998643 -0.09428258 0.048462674 -0.010482641 0.0037772898
0.018204935 0.012025261 0.051578622 0.018360132 -0.031269237 -0.011977464 0.069530115 -0.09978452
-0.14198926 0.046848234 0.004094688 0.036351737 -0.039345883 0.03485549 -0.039179176 0.05242743
-0.0019657635 0.027354667 0.037520476 0.029985903 0.0026236835 0.0687768 0.049540788 0.068606906
0.007770674 0.004919539 0.015653834 -0.06789352 -0.121600896 -0.13024464 -0.03429598 0.041029166
0.008417966 0.00021102135 0.0008032398 -0.067031235 -0.014288515 0.040669486 -0.009861859 -0.028591545
0.01143248 -0.008484313 0.005339607 -0.0051627597 0.02310903 -0.010003825 -0.011691107 0.0024122447
-0.029543823 -0.14884627 -0.11966911 -0.061598994 -0.038205113 -0.004800794 0.039935417 -0.038456943
-0.015545149 0.0068869693 0.0010274288 -0.042410016 0.002100495 -0.004184801 -0.017145889 -0.0411429
00000000: 6d88 233c 1835 4a3c faf0 9d3d 5f58 b13d
00000010: 38f3 763d 878d da3c f40e 323d 7f2c 33b9
00000020: 5b8d bd3c 4ccb 74bc 75a1 73be e4e6 24be
00000030: 8cee ccb8 b0be 183d 16fa 1e3d b4df e53b
00000040: 3658 c8bd 4914 97bd afbc 0e3c d3b4 1ebd
00000050: d911 c93b 5513 b639 8858 273c 0d2e 4abc
00000060: c804 5cbc 8db9 f03c 41bb a13b 8c77 b93c
00000070: ffe1 b83c 3c75 8e3b 4e0b 093d f2e4 ee3d
00000080: f3cc 973c 7130 d5bc 8348 bcbc 1e4a 143d
00000090: 2bca 0a3d 2ac6 193d a65f 34bc 157c dcbb
000000a0: dc32 8e3c a572 a43c 67e9 9c3c debb 8bbc
000000b0: 5af0 8cbd cb7f a33d 68a3 c03d be67 23bd
000000c0: 6997 0bbc cc91 0b3d 8a41 fdbb 35f4 14bd
000000d0: 7d47 19be b566 68bd f942 71bc 97ee 993b
000000e0: ae54 893b 0fa7 a9bc e501 413d d40e 4a3d
000000f0: 6bbf f7bc 15e5 d43b 3f77 85bc 116f e8bc
00000100: 3a6f 59bc 7abb 31bd 53f5 a63d 8f7b 023e
00000110: 9e2b ad3c 7366 ad3c cd14 0fbd c964 ecbc
00000120: 70ff c5bc 3961 f0bd 84ad 17bd cb8b 6cba
00000130: 527d 493c 8ada e6bc 507c 77bd aa6d 713c
00000140: e4d0 333e 0380 ff3d 7dc0 2b3d f2de dfbc
00000150: 4a25 71bc 544d aa3b 59c9 0cbc 6e25 8abc
00000160: 135c 31be a68a 78bd 1a00 41bc 2f6a b5bc
00000170: 0c19 5bbd a36a 253d c355 773e 22ef 883e
00000180: 41cb 843d e98c e73c d913 1abc 787a a33c
00000190: 4d3c ed3c a8ca ad3b aa1e cabc c72d 28bd
000001a0: 1160 20bc 4ccd bfbb d986 903c 30b6 b7bc
000001b0: de8f 853d 0070 e0ba ea53 043d 1d44 d9bc
000001c0: a801 d1bc 6c66 db3c aaa9 42bd 888f abbe
000001d0: 4727 e1bb 9f48 f33b d231 90bc 502a 2cbd
000001e0: 9013 d83c 0251 183d e01d 9a3d 9054 e0bc
000001f0: 0d0c 3e3d 043f 1dbd 078f 943b 5b95 70ba
00000200: 3ac6 533c aa6b d3bc 933f fdbc 3ec7 adbc
00000210: 67b1 113d e28e 563d a863 2b3d 9f38 a83d
00000220: 5df5 57be 6308 8ebe 8f25 3c3d d91d 3dbb
00000230: 2eb0 923d eba2 d43c bc46 cd3c cf9f c1bd
00000240: 165b f23b 1024 d63c 154a 373d 1d91 fbbb
00000250: ecf3 f43b 1525 d23c 2553 33bd a02d 143c
00000260: c009 d03c bb27 cdbb 3376 4fbc 6ae0 1abc
00000270: c699 973d 08ee 84be e5f5 b8bd 7e8e 963c
00000280: f4c7 083c 6ec8 893d 46bf 19bd f08f a43c
00000290: 67db e6bc 1ddc 5d3d ace2 35bd 53eb 573c
000002a0: fa60 873c a2cf 8b3c 7590 bd3c a6ef 2a3d
000002b0: f259 e93c 395b 8f3d 55dc 04bd 2933 21bd
000002c0: 4da6 b9bd 0cee 923d 3ca7 a93e 354a b03e
000002d0: ebe1 e13d 838c 85bd f77f b5bd f632 06bb
000002e0: 0d6c 8cbd 96ea 153e d1b0 d03d 95ba a3bc
000002f0: 3a17 c1bd cc80 463d 62bf 2bbc 688c 773b
00000300: 8422 953c 9a05 453c 1b44 533d fd67 963c
00000310: 2c14 00bd 203d 44bc ce65 8e3d d45b ccbd
00000320: a265 11be efe3 3f3d bc2c 863b 8fe5 143d
00000330: 2629 21bd a1c4 0e3d 587a 20bd 25be 563d
00000340: 0ad4 00bb e516 e03c 12af 193d ffa4 f53c
00000350: 1bf2 2b3b dada 8c3d 48eb 4a3d c781 8c3d
00000360: 23a1 fe3b 1634 a13b 783c 803c c20b 8bbd
00000370: e409 f9bd da5e 05be f179 0cbd 330e 283d
00000380: 82eb 093c 9d45 5d39 8390 523a ac47 89bd
00000390: 601a 6abc 0c95 263d a293 21bc d138 eabc
000003a0: 4c4f 3b3c ca01 0bbc dff7 ae3b 5e2c a9bb
000003b0: 264f bd3c 15e7 23bc 0f8c 3fbc c016 1e3b
000003c0: e305 f2bc 286b 18be 1415 f5bd 3a4f 7cbd
000003d0: f77c 1cbd fb4f 9dbb 5293 233d 0785 1dbd
000003e0: 15b1 7ebc 16ac e13b caaa 863a 20b6 2dbd
000003f0: 75a8 093b a820 89bb 8975 8cbc 7585 28bd

fc2.bias f4 [11]
0.052882656 -0.032253314 -0.01662329 -0.013958158 -0.064002044 -0.008017379 -0.0051536197 -0.008847831
-0.057586137 -0.019549262 -0.014680951
00000000: 7c9b 583d 0d1c 04bd 912d 88bc c2b0 64bc
00000010: 8113 83bd 535b 03bc b2df a8bb 7ef6 10bc
00000020: 71df 6bbd c625 a0bc 5f88 70bc

fc3.weight f4 [11, 672]
0.04013905 0.072732724 -0.0069142333 0.20639344 0.22056189 0.030796824 -0.016963044 -0.020862015
0.018497052 -0.2322245 -0.07701052 -0.27209055 -0.11817236 0.010562206 -0.010658994 -0.03559122
-0.12686528 -0.08712182 0.044441722 -0.015684653 -0.026313232 -0.011904905 0.008363309 -0.0065763453
0.040450383 -0.042835455 -0.045347583 0.03971604 0.011058288 -0.012541018 0.050089058 0.01966168
0.16764499 0.046945382 0.011044673 -0.024829974 0.0060747317 -0.0017375803 0.042178094 0.04944864
-0.017679105 -0.07248049 0.001899521 -0.032088418 -0.031547308 0.034533497 0.10657531 -0.0008494412
0.010861835 0.02787607 0.004933112 -0.02315657 -0.07995974 -0.19460891 -0.031131603 -0.00078242394
-0.016182207 -0.014487013 -0.0075425063 -0.030473424 -0.00669102 -0.054355867 0.017959457 0.021477668
0.0022883639 0.032197315 -0.016933357 -0.023079397 0.055220436 -0.019733304 -0.018942855 0.0038925945
-0.025591744 -0.04515416 -0.074124835 0.055625714 0.03558794 -0.033125017 -0.019574383 0.036176216
0.03659357 0.1398017 0.07389811 -0.009998478 0.027409403 -0.05333233 -0.0063181133 0.075256385
-0.15399715 -0.06826885 -0.05547706 -0.015828397 -0.04096945 0.039510436 -0.037891157 0.20003037
0.120998554 -0.028846817 0.030909684 -0.04093868 -0.0055384184 -0.044093058 -0.019634401 0.061588284
-0.00464987 0.019132176 0.001839691 -0.07983895 0.018124891 0.043695148 0.0056220894 -0.028337993
-0.022646815 0.023179857 -0.027621008 -0.05784266 -0.08179456 0.002326852 0.012642893 -0.0030388278
-0.0142007265 0.006555107 0.12080056 0.10595723 0.06498849 -0.0013504646 0.019475497 0.0062911534
0.0050759655 -0.03409217 -0.057907388 0.009909328 0.024533704 -0.022993421 -0.034800407 0.05818928
-0.03544712 -0.3009796 -0.09833519 2.9447963e-05 -0.036785048 0.07075597 0.036316395 -0.03550809
-0.021376207 0.026540091 0.0052233683 -0.018062947 0.004082956 0.02362398 -0.025719078 0.018657839
0.04965575 -0.011842513 -0.07242566 -0.001626241 0.033000745 -0.043088134 -0.2887095 0.051227815
0.03250677 -0.01527595 0.06322214 -0.015344698 -0.037701737 0.025586385 -0.021028563 0.028189922
-0.007426172 0.05156384 0.009727938 -0.04599742 0.021035839 0.010066385 0.003330912 0.057355154
-0.0018915507 0.011586905 0.12552667 0.25794393 0.09372205 0.021047087 0.03981523 -0.040055517
-0.024291804 0.011595672 0.08451693 0.030596165 0.0033513086 0.012690398 0.0009919525 -0.05209238
-0.06581702 -0.037680913 0.034871284 0.0049436064 0.0069413343 -0.021357844 0.009981098 -7.149348e-05
-0.24727184 -0.055211417 0.051438235 0.016008336 -0.03944792 0.036699854 0.012133517 -0.08621378
0.018247068 0.0045566 0.027204482 -0.02773562 0.04544615 0.020974468 0.10814957 0.056714613
-0.017387321 0.010016575 0.0018735143 -0.035751816 -0.0440817 -0.21117765 -0.047950927 0.0155988
-0.040523738 -0.01740221 -0.041556638 0.071743265 -0.10256991 -0.02321467 -0.013359539 0.0018983288
0.012089075 -0.04447068 0.0068043997 -0.04119426 -0.049973357 -0.01424404 -0.022382006 0.05093718
-0.025899254 0.01015481 -0.08411115 -0.0148356045 0.0036955825 0.03620828 0.015808228 -0.037602548
-0.010307259 0.053049114 0.0010746768 -0.019274604 0.0101558445 0.063928686 -0.057730462 0.0029899443
00000000: d868 243d e5f4 943d cb90 e2bb cd58 533e
00000010: fada 613e 9f49 fc3c 15f6 8abc d1e6 aabc
00000020: 2187 973c 42cc 6dbe b1b7 9dbd 744f 8bbe
00000030: 5a04 f2bd 1a0d 2d3c 10a3 2ebc 19c8 11bd
00000040: f9e8 01be ed6c b2bd 8608 363d 1a7d 80bc
00000050: d98e d7bc ca0c 43bc 4306 093c 627e d7bb
00000060: 4daf 253d 3b74 2fbd 63be 39bd 49ad 223d
00000070: d22d 353c d878 4dbc 2f2a 4d3d 8811 a13c
00000080: 21ab 2b3e cd49 403d b7f4 343c 3b68 cbbc
00000090: 8b0e c73b 85bf e3ba f0c2 2c3d a88a 4a3d
000000a0: c5d3 90bc a770 94bd 59f9 f83a 256f 03bd
000000b0: c037 01bd ff72 0d3d 2844 da3d 09ad 5eba
000000c0: d7f5 313c 5b5c e43c f1a5 a13b d9b2 bdbc
000000d0: efc1 a3bd 8f47 47be b407 ffbc 951b 4dba
000000e0: 8c90 84bc f05a 6dbc 2127 f7bb 67a3 f9bc
000000f0: 5840 dbbb 42a4 5ebd b61f 933c eff1 af3c
00000100: 60f8 153b 55e1 033d d3b7 8abc 0111 bdbc
00000110: d32e 623d bda7 a1bc 0c2e 9bbc e61a 7f3b
00000120: c7a5 d1bc 92f3 38bd c3ce 97bd cad7 633d
00000130: a9c4 113d 19ae 07bd 755a a0bc 832d 143d
00000140: 24e3 153d 2d28 0f3e e457 973d a8d0 23bc
00000150: af89 e03c 0073 5abd 2d08 cfbb 0520 9a3d
00000160: 6eb1 1dbe 8ad0 8bbd ea3b 63bd 8eaa 81bc
00000170: 95cf 27bd b2d5 213d c233 1bbd c3d4 4c3e
00000180: 17ce f73d 2950 ecbc 4e36 fd3c 51af 27bd
00000190: 9f7b b5bb ec9a 34bd 53d8 a0bc ff43 7c3d
000001a0: f05d 98bb 15bb 9c3c c921 f13a 9a82 a3bd
000001b0: a77a 943c aff9 323d 8139 b83b 1425 e8bc
000001c0: d085 b9bc afe3 bd3c 7445 e2bc 6dec 6cbd
000001d0: e883 a7bd 197e 183b 2324 4f3c 1227 47bb
000001e0: 2aaa 68bc 39cc d63b 4966 f73d 1b00 d93d
000001f0: af18 853d 1302 b1ba 148b 9f3c 0526 ce3b
00000200: 4954 a63b 3ba4 0bbd 4c30 6dbd bc5a 223c
00000210: e8fa c83c b35c bcbc df8a 0ebd e257 6e3d
00000220: 0031 11bd 001a 9abe f663 c9bd 0507 f737
00000230: ebab 16bd 82e8 903d 80c0 143d ee70 11bd
00000240: 281d afbc 9b6a d93c ca28 ab3b bff8 93bc
00000250: 51ca 853b 1487 c13c d1b0 d2bc 53d8 983c
00000260: d463 4b3d 1a07 42bc e853 94bd 9827 d5ba
00000270: ca2b 073d 2f7d 30bd bbd1 93be 42d4 513d
00000280: d225 053d fa47 7abc 9c7a 813d 5468 7bbc
00000290: 236d 1abd 8a9a d13c 1844 acbc 8dee e63c
000002a0: 3f57 f3bb 9b34 533d ee61 1f3c ca67 3cbd
000002b0: 5a53 ac3c 7bed 243c 6e4b 5a3b 3ded 6a3d
000002c0: e9ed f7ba 01d7 3d3c 108a 003e 3a11 843e
000002d0: 59f1 bf3d f16a ac3c 4b15 233d 4111 24bd
000002e0: 9bff c6bc c6fb 3d3c 3617 ad3d cfa4 fa3c
000002f0: a1a1 5b3b 63eb 4f3c 6704 823a d25e 55bd
00000300: 13cb 86bd 4d57 1abd 31d5 0e3d fafd a13b
00000310: 2274 e33b a5f6 aebc c287 233c c5ee 95b8
00000320: d434 7dbe 5e25 62bd e6b0 523d ea23 833c
00000330: 2494 21bd 9652 163d a9cb 463c da90 b0bd
00000340: e07a 953c 884f 953b efdb de3c d035 e3bc
00000350: be25 3a3d a6d2 ab3c 867d dd3d 954d 683d
00000360: db6f 8ebc 901c 243c b590 f53a 7f70 12bd
00000370: 038f 34bd f43e 58be 3168 44bd 1c92 7f3c
00000380: 38fc 25bd 148f 8ebc 4b37 2abd 22ee 923d
00000390: 2c10 d2bd b12c bebc f8e1 5abc 58d1 f83a
000003a0: 4111 463c e326 36bd 71f7 de3b 50bb 28bd
000003b0: ddb0 4cbd d55f 69bc 785a b7bc 81a3 503d
000003c0: ac2a d4bc 5c60 263c 7742 acbd 0911 73bc
000003d0: 9631 723b 224f 143d 4280 813c 2105 1abd
000003e0: c7df 28bc 074a 593d 2bdc 8c3a c6e5 9dbc
000003f0: b364 263c 0bed 823d c776 6cbd f1f2 433b

fc3.bias f4 [11]
0.035148893 -0.047878362 0.008176659 -0.064507596 -0.021582142 -0.010836402 -0.013025197 -0.021762213
-0.04399388 -0.014313255 0.04967011
00000000: 49f8 0f3d 1a1c 44bd 65f7 053c 8f1c 84bd
00000010: 08cd b0bc 2a8b 31bc a367 55bc ab46 b2bc
00000020: ed32 34bd 2582 6abc e372 4b3d

fc4.weight f4 [11, 672]
0.12480322 -0.048556946 0.021655258 0.060303044 0.007653197 0.016903834 0.022719448 0.106982976
0.0102346195 -0.23467018 -0.14923303 -0.3513866 -0.21037032 -0.025862116 0.06265421 -0.060302492
-0.13099496 -0.031288486 -0.0757889 -0.13496637 -0.08563187 -0.024444994 -0.10306537 -0.026831282
0.04702383 -0.013128401 -0.03042904 -0.04934676 -0.038422033 -0.027271997 0.0071535194 0.063260905
0.06258677 0.051480256 -0.023628848 -0.052562702 -0.04290837 0.037333846 0.034955595 0.017174704
0.019855116 -0.002005543 -0.027863357 -0.00018058642 -0.009528563 -0.034441765 0.043050203 0.03420286
0.014947226 -0.0416202 -0.041262615 -0.035513952 0.0062891417 -0.056466457 -0.080206245 -0.00786503
-0.055272873 -0.023146497 -0.06444829 -0.05684698 -0.062910594 -0.00015897542 -0.01680232 -0.047336925
0.033602647 -0.016868692 -0.021429284 -0.060287308 -0.010977118 -0.049213897 0.010884808 0.01150843
-0.008518107 -0.07899091 -0.056710467 -0.039131425 -0.027362868 -0.07514008 0.00056506164 -0.015811175
-0.02736601 0.036143735 0.06544122 0.049449574 0.0111086 -0.008426035 -0.05116428 -7.241848e-05
0.04728972 -0.14365938 0.020108325 -0.11048722 -0.006016916 0.017095722 -0.017214786 0.083994575
0.13612027 -0.0016244401 -0.016883023 -0.050379 -0.08525326 -0.013555723 -0.015077573 -0.07960913
-0.043321997 0.0037918305 -0.00040825232 0.036262117 0.06860423 0.019032931 0.037282687 0.04898028
0.011979758 -0.0076565114 -0.0897092 -0.00945044 -0.22434251 -0.09425115 0.11042872 0.020494662
0.048264712 0.044285312 0.017820835 0.035212666 0.05430897 -0.018345695 0.050249856 0.02315471
0.007256303 -0.004150356 0.008532307 -0.08968751 -0.0063067633 0.056755286 -0.029243024 0.029751493
-0.0240559 -0.12786745 -0.24037236 -0.09345716 -0.030874487 0.07158363 0.07299088 -0.030046917
-0.013643081 0.11898455 -0.07776883 0.004641507 0.07557885 0.06931327 -0.04175886 -0.03172176
0.043021593 0.0070495 -0.08576544 -0.047155168 -0.01823198 -0.034090336 -0.18837291 -0.1419491
0.045837115 -0.08780754 0.014827719 -0.03516632 0.019993525 0.011147778 0.08854191 -0.09915903
-0.039858483 -0.040094282 0.023597406 0.032054245 0.010542672 -0.0033584882 0.0036059483 0.019447546
-0.053233244 -0.0040571955 0.026087474 0.051107537 -0.0119635025 -0.0061978507 0.005291108 0.042651612
-0.061376125 -0.046295945 -0.07224939 -0.038311694 0.040698387 0.027491355 -0.013010044 -0.026127536
-0.0020798626 -0.021898804 -0.024407681 -0.039150875 -0.03689244 -0.039873697 -0.05889408 -0.05104485
-0.071172774 -0.14011802 -0.030002436 0.073492184 -0.011361454 -0.10778305 -0.081901625 -0.0013887525
0.0037928044 0.012439831 -0.013564368 -0.012298355 0.078183964 -0.0014993576 -0.005710805 0.023191774
0.011588701 -0.07407022 -0.0069519663 -0.10204833 -0.13196692 -0.3181239 -0.16037332 0.0012432736
-0.033535037 0.030206112 -0.038473014 0.056777447 -0.005252621 -0.0036243023 0.009474374 0.06802328
0.015367203 -0.021493685 -0.042246237 -0.05585215 -0.029608835 -0.055630356 0.010758535 -0.067833394
-0.059768792 -0.017452233 -0.04394156 -0.049922854 -0.07562191 -0.05810303 0.021441229 -0.052008126
0.02611391 -0.013117078 0.020658158 0.043341037 0.00018962048 0.0043134573 -0.04061089 -0.083074495
00000000: d598 ff3d a6e3 46bd 5e66 b13c 5300 773d
00000010: abc7 fa3b e979 8a3c 231e ba3c e419 db3d
00000020: 1baf 273c 614d 70be 8bd0 18be f2e8 b3be
00000030: 516b 57be cadc d3bc da50 803d bfff 76bd
00000040: 8b23 06be 5b28 00bd 3637 9bbd a034 0abe
00000050: c35f afbd de40 c8bc f013 d3bd 47cd dbbc
00000060: 0f9c 403d 8118 57bc 5246 f9bc d41f 4abd
00000070: 6c60 1dbd 8669 dfbc 1268 ea3b ef8e 813d
00000080: 7e2d 803d f6dc 523d 4991 c1bc fd4b 57bd
00000090: b0c0 2fbd 60eb 183d 992d 0f3d f7b1 8c3c
000000a0: 32a7 a23c 6e6f 03bb b241 e4bc cc5b 3db9
000000b0: b11d 1cbc cf12 0dbd 6955 303d 4c18 0c3d
000000c0: 36e5 743c f179 2abd fd02 29bd 1477 11bd
000000d0: 2515 ce3b 5f49 67bd 2c43 a4bd 54dc 00bc
000000e0: cf65 62bd b99d bdbc 77fd 83bd 61d8 68bd
000000f0: 45d7 80bd a4b2 26b9 05a5 89bc 5de4 41bd
00000100: eea2 093d 3630 8abc 778c afbc d3ef 76bd
00000110: 5fd9 33bc 8394 49bd 3256 323c db8d 3c3c
00000120: 888f 0bbc fcc5 a1bd 3c49 68bd 4648 20bd
00000130: 1828 e0bc 0be3 99bd a520 143a 7086 81bc
00000140: af2e e0bc 740b 143d 0c06 863d a38b 4a3d
00000150: d800 363c 5a0d 0abc a391 51bd 60df 97b8
00000160: deb2 413d 721b 13be 37ba a43c 2047 e2bd
00000170: 8d29 c5bb 540c 8c3c 0606 8dbc 5905 ac3d
00000180: 1d63 0b3e 2aeb d4ba 444e 8abc 365a 4ebd
00000190: 4399 aebd d318 5ebc ed07 77bc 1d0a a3bd
000001a0: 6872 31bd 5c80 783b b30a d6b9 9687 143d
000001b0: 6080 8c3d f3ea 9b3c bbb5 183d 8c9f 483d
000001c0: bf46 443c 79e3 fabb 75b9 b7bd 05d6 1abc
000001d0: 0bba 65be bf06 c1bd 7428 e23d 6ce4 a73c
000001e0: 38b1 453d 8464 353d 00fd 913c 283b 103d
000001f0: 1573 5e3d b649 96bc cbd2 4d3d f2ae bd3c
00000200: 48c6 ed3b b6ff 87bb 17cb 0b3c 16ae b7bd
00000210: f7a8 cebb 3b78 683d 118f efbc 67b9 f33c
00000220: e110 c5bc afef 02be 2c24 76be 7866 bfbd
00000230: 7eec fcbc 709a 923d 3e7c 953d f424 f6bc
00000240: 3b87 5fbc 2cae f33d 4445 9fbd c817 983b
00000250: 16c9 9a3d 1ef4 8d3d 570b 2bbd adee 01bd
00000260: 6937 303d 7eff e63b caa5 afbd c725 41bd
00000270: 3c5b 95bc 4fa2 0bbd d4e4 40be 1b5b 11be
00000280: b3bf 3b3d 71d4 b3bd f6ef 723c 8f0a 10bd
00000290: 76c9 a33c 2ba5 363c 7655 b53d e413 cbbd
000002a0: a642 23bd e739 24bd 594f c13c 504b 033d
000002b0: 2cbb 2c3c 151a 5cbb c651 6c3b 7650 9f3c
000002c0: 1a0b 5abd 39f2 84bb 66b5 d53c 2356 513d
000002d0: 9102 44bc 5717 cbbb 0861 ad3b 75b3 2e3d
000002e0: 8865 7bbd d1a0 3dbd 7df7 93bd b9ec 1cbd
000002f0: 5ab3 263d 8d35 e13c 1428 55bc 6a09 d6bc
00000300: 4e4e 08bb 1f65 b3bc 9ef2 c7bc ab5c 20bd
00000310: 871c 17bd 9a52 23bd eb3a 71bd 6814 51bd
00000320: 08c3 91bd 197b 0fbe abc7 f5bc 1283 963d
00000330: 6425 3abc 5cbd dcbd 0abc a7bd cd06 b6ba
00000340: b390 783b 6fd0 4b3c 153d 5ebc 0a7f 49bc
00000350: ea1e a03d 1886 c4ba b421 bbbb adfc bd3c
00000360: 89de 3d3c 21b2 97bd 52cd e3bb b7fe d0bd
00000370: 5622 07be 23e1 a2be e738 24be 57f5 a23a
00000380: 095c 09bd cf72 f73c e195 1dbd 788f 683d
00000390: 2e1e acbb b485 6dbb 683a 1b3c ca4f 8b3d
000003a0: b9c6 7b3c 8613 b0bc 640a 2dbd 39c5 64bd
000003b0: 3a8e f2bc a8dc 63bd 9144 303c 3cec 8abd
000003c0: 1fd0 74bd fcf7 8ebc 11fc 33bd e87b 4cbd
000003d0: a9df 9abd 71fd 6dbd 84a5 af3c 7906 55bd
000003e0: d7ec d53c 03e9 56bc 4c3b a93c 5f86 313d
000003f0: dcd4 4639 e757 8d3b 9b57 26bd f622 aabd

fc4.bias f4 [11]
-0.0135315955 -0.017360475 -0.015787749 -0.027723227 -0.024210325 -0.023935474 -0.017636364 0.0014973247
-0.034107707 -0.060511652 0.054707643
00000000: a0b3 5dbc 8e37 8ebc 4f55 81bc d21b e3bc
00000010: bb54 c6bc 5414 c4bc 237a 90bc e141 c43a
00000020: 86b4 0bbd 11db 77bd 1f15 603d
