code/model.pt (torch, 142939 bytes, 12 tensors)

cnn.0.weight f4 [16, 3, 3, 3]
0	0xbe6e9c5e	-0.23301837
1	0xbe5ce037	-0.21569906
2	0xbef2edf4	-0.4744717
3	0x3e2437e7	0.1603695
4	0xbd434937	-0.047677245
5	0xbd1bccae	-0.038036995
6	0x3ecdf05d	0.40222445
7	0x3e9bbdeb	0.30418333
8	0x3daf5bf5	0.08562461
9	0xbe87086b	-0.2637361
10	0xbe8ec136	-0.27881783
11	0xbec77dcc	-0.38963163
12	0x3e1ad0c6	0.15118703
13	0xbdc6540b	-0.09683999
14	0xbe57e9b1	-0.2108524
15	0x3f11278f	0.56700987
16	0x3ed19943	0.40937242
17	0x3e186ead	0.1488597
18	0xbe384f65	-0.17999037
19	0xbe528424	-0.2055822
20	0xbdae373e	-0.0850663
21	0x3e3f098d	0.18655987
22	0x3db6fc50	0.089348435
23	0xbe8de2be	-0.27712053
24	0x3e3c1ec9	0.18371119
25	0x3d2c11b9	0.04200909
26	0x3e7e1f02	0.24816516
27	0x3e87fd74	0.26560557
28	0x3cca9449	0.024728911
29	0xbe8cdd91	-0.27512792
30	0x3da6dce9	0.08147604
31	0x3ddb34ce	0.10703431
32	0xbe4de003	-0.20104985
33	0x3e17a7a3	0.14810042
34	0x3e038a56	0.1284574
35	0xbe857ec8	-0.2607329
36	0x3cea90ff	0.028633593
37	0xbdaee24a	-0.08539255
38	0xbe5491e8	-0.20758784
39	0x3eb59225	0.35463062
40	0x3deb7cd9	0.11498422
41	0xbe4e3cdb	-0.20140402
42	0x3e668062	0.22509912
43	0xbd757222	-0.0599233
44	0xbe8257fb	-0.2545775
45	0x3df5a675	0.1199464
46	0xbdf5a6fc	-0.1199474
47	0xbd6d2b79	-0.057902787
48	0x3e4cd599	0.20003356
49	0x3cd0c860	0.025486171
50	0xbc39f0ae	-0.011348886
51	0x3db016d7	0.08598106
52	0x3d51c089	0.051209006
53	0xbe37fd31	-0.17967679
54	0xbe4de9e5	-0.20108755
55	0xbe79f200	-0.24408722
56	0xbe972c66	-0.2952606
57	0xbe6cb563	-0.23116069
58	0x3d86a4d8	0.0657441
59	0x3de5a831	0.112137206
60	0x3e2eb137	0.1705979
61	0x3e5c735f	0.21528386
62	0x3ec741d3	0.38917407
63	0xbe8bcf1d	-0.27306452
64	0xbe58d835	-0.21176226
65	0xbe483e06	-0.1955491
66	0xbe3f5d4c	-0.18687934
67	0x3b9826fb	0.0046433187
68	0x3e5edbb8	0.21763504
69	0x3e4059e4	0.1878429
70	0x3e363e34	0.17797166
71	0x3ecf44a4	0.40482056
72	0xbefa9c83	-0.48947534
73	0xbedb1078	-0.42786002
74	0x3d57a3fc	0.052646622
75	0x3d7c8ce8	0.061657816
76	0xbd81f4aa	-0.06345494
77	0x3cd2d39f	0.025735674
78	0x3c8ecf80	0.017432928
79	0x3ea16618	0.31523204
80	0x3ed74c16	0.42050236
81	0x3ebe0f32	0.37120968
82	0x3e79e52a	0.24403825
83	0x3ed144b9	0.40872744
84	0x3d47d8e3	0.048790824
85	0xbe3e6f5f	-0.18597172
86	0xbd8d1628	-0.068889916
87	0xbeb307ca	-0.3496688
88	0xbdd4cda9	-0.10390789
89	0xbebcb223	-0.36854658
90	0x3ebb7ed4	0.366202
91	0x3ecc23cd	0.39871064
92	0x3e5e8e94	0.21734077
93	0xbd8053aa	-0.06265958
94	0x3e0b136d	0.13581629
95	0x3d0740d2	0.0330208
96	0xbed28381	-0.41115955
97	0xbecc31c4	-0.39881718
98	0xbe7e83b2	-0.24854925
99	0x3e82a798	0.2551849
100	0x3e1cf787	0.15328799
101	0x3ddc62f8	0.10761064
102	0x3e20111d	0.15631528
103	0x3cbca1d4	0.023026384
104	0xbd66e12c	-0.056367084
105	0xbe9e61a8	-0.3093388
106	0xbe66c53f	-0.22536181
107	0xbe0a8a6d	-0.13529368
108	0x3ca6408d	0.020294452
109	0x3e3e3b8e	0.18577406
110	0x3f0bffb1	0.5468703
111	0xbd94a3d7	-0.072578125
112	0x3dc37835	0.09544412
113	0x3e49f477	0.19722162
114	0xbf12c5a0	-0.573328
115	0xbed6ad20	-0.4192896
116	0xbd45273a	-0.048133112
117	0xbd5ac757	-0.05341276
118	0x3eee70e5	0.46570507
119	0x3f164062	0.5869199
120	0xbe62f36c	-0.2216317
121	0x3d6e3251	0.058153454
122	0x3c9a7c7b	0.018858185
123	0xbeb22986	-0.34797305
124	0xbedfe800	-0.4373169
125	0x3d55d2a8	0.05220285
126	0x3e14351b	0.14473383
127	0x3e02c675	0.12771018
128	0x3e56a098	0.20959699
129	0x3b6a1524	0.0035718167
130	0xbc29638b	-0.010338674
131	0x3d51296e	0.0510649
132	0xbe97f6cb	-0.29680476
133	0xbe3d7048	-0.18499863
134	0xbdfed8ab	-0.1244367
135	0xbe72defe	-0.23717877
136	0xbd117ee5	-0.035521407
137	0x3dd15dc5	0.10222963
138	0x3e357b63	0.1772285
139	0xbd55e577	-0.052220788
140	0xbdeade3f	-0.11468171
141	0x3cecaa4a	0.028889794
142	0x3dc47677	0.09592908
143	0x3d919d09	0.0711003
144	0xbd975f4f	-0.073912255
145	0x3e30a09f	0.17248772
146	0x3d972b3b	0.073812924
147	0x3d1be92d	0.03806417
148	0x3e0eae5e	0.13933703
149	0x3db3d327	0.087805085
150	0xbd8c2c67	-0.068444066
151	0x3e7fdf2d	0.24987479
152	0x3e440011	0.1914065
153	0xbe17dfa1	-0.14831401
154	0x3d74ec07	0.059795406
155	0xbe25c6bf	-0.16189097
156	0xbd036309	-0.03207687
157	0x3dbdc914	0.09266868
158	0xbe61ca8c	-0.22049922
159	0x3ca7a912	0.020466361
160	0xbe1ba5d0	-0.15199971
161	0x3de9ba91	0.11412538
162	0x3eaeb616	0.34123296
163	0x3eb3832b	0.3506101
164	0xbc2ca8a8	-0.010538258
165	0x3c78f7b7	0.015195779
166	0xbe2d2152	-0.16907242
167	0xbdbff626	-0.09373121
168	0xbdb7ebb1	-0.089805014
169	0xbe66bfc8	-0.22534096
170	0xbd89cef6	-0.06728928
171	0x3ef15cab	0.47141013
172	0x3dfc1fb9	0.12310738
173	0x3e899a53	0.26875553
174	0x3d09af48	0.033614427
175	0x3e10bf40	0.14135456
176	0xbe04dc8f	-0.12974761
177	0xbe7e666b	-0.24843757
178	0xbe256f62	-0.1615577
179	0xbeb644c0	-0.35599327
180	0x3e5f0707	0.21780024
181	0x3ef2adfa	0.4739836
182	0x3b32940a	0.0027248883
183	0xbc5e9896	-0.013586184
184	0x3e4a1231	0.19733502
185	0xbc0ddc4f	-0.008658483
186	0xbeaba478	-0.33523917
187	0xbecaedbf	-0.3963451
188	0xbeab49a1	-0.33454612
189	0xbe077093	-0.13226537
190	0xbe119f35	-0.14220889
191	0x3c95b37a	0.018274058
192	0x3b1bcac6	0.0023771985
193	0x3cd0c884	0.025486238
194	0xbdd3994b	-0.10331973
195	0xbdb1577f	-0.08659267
196	0xbe3d73e2	-0.18501237
197	0x3da9b5ad	0.08286605
198	0x3e32b38c	0.17451304
199	0x3de003bb	0.109382115
200	0x3e87696a	0.26447612
201	0xbde6aecd	-0.11263809
202	0x3e632916	0.22183642
203	0x3e82f40b	0.25576815
204	0x3e21cd95	0.1580108
205	0xbdcf60a2	-0.10125853
206	0xbe1d8564	-0.15382916
207	0x3d60e919	0.0549098
208	0x3cad9748	0.0211903
209	0x3d638fc5	0.05555703
210	0x3d0dc1cd	0.03460865
211	0xbe898797	-0.2686126
212	0x3bc307b7	0.0059518474
213	0x3db48562	0.08814503
214	0xbdf89ebb	-0.121396504
215	0xbe85a2f0	-0.26100874
216	0xbee9b436	-0.45645303
217	0xbe9018fe	-0.28144068
218	0xbe8846f7	-0.26616642
219	0xbde6805d	-0.11254952
220	0x3da48b8e	0.080344304
221	0x3e11cd47	0.14238463
222	0x3e8884a0	0.26663685
223	0x3df638ae	0.120225295
224	0x3f084055	0.5322316
225	0xbe6e2774	-0.23257238
226	0xbe928cc9	-0.28623036
227	0xbe88dd37	-0.26731274
228	0xbe2d2c78	-0.16911495
229	0xbd2dff80	-0.042479992
230	0x3e609b80	0.21934319
231	0x3e5c3008	0.21502697
232	0x3eb2ed80	0.34946823
233	0x3eb214fa	0.3478163
234	0xbead375e	-0.33831304
235	0xbe4af1fb	-0.1981887
236	0xbd7c6e3e	-0.061628573
237	0xbb830043	-0.003997834
238	0xbd84e0fa	-0.064882234
239	0x3d165e65	0.036711115
240	0x3dc086a5	0.094006814
241	0x3e811be8	0.25216603
242	0x3e858cea	0.2608407
243	0x3d798215	0.06091507
244	0x3df93374	0.12168017
245	0xba016d34	-0.0004937232
246	0xbe2428c9	-0.16031183
247	0x3de863e1	0.113471754
248	0x3e1285ff	0.14308928
249	0x3c2c2b6f	0.010508402
250	0x3e4c41cb	0.19946973
251	0xbe3462a9	-0.17615761
252	0x3e293b33	0.16526489
253	0xbdb871c1	-0.09006072
254	0x3e15ffa7	0.14648305
255	0x3dc2e71c	0.09516737

cnn.0.bias f4 [16]
0	0xbdb5ba41	-0.08873416
1	0xbdfb7a92	-0.12279238
2	0xbf0bcc61	-0.5460873
3	0xbd8da6aa	-0.06916554
4	0xbdfd3560	-0.12363696
5	0xbe5a601c	-0.21325725
6	0xbf155c73	-0.5834419
7	0xbdce3a05	-0.1006966
8	0x3b51c5f2	0.0032008854
9	0x3e6e2830	0.23257518
10	0xbd81e814	-0.063430935
11	0xbf3e352f	-0.742999
12	0xbf0a32f8	-0.5398402
13	0xbe2054c1	-0.15657331
14	0xbeae421c	-0.34034812
15	0xbebb4461	-0.36575606

cnn.3.weight f4 [32, 16, 3, 3]
0	0x3d99352d	0.074808456
1	0xbc9c0002	-0.019042972
2	0x3cf9a217	0.030472798
3	0xbec4bbdd	-0.38424578
4	0xbf290e87	-0.6603779
5	0xbe60e4eb	-0.21962325
6	0xbf393d9a	-0.7235962
7	0xbf5771ea	-0.84158194
8	0xbe6ed630	-0.23323894
9	0x3db9e60c	0.09077081
10	0x3e0bdd6e	0.13658687
11	0x3e1dcfd2	0.15411308
12	0x3c26d5e4	0.010182831
13	0x3d3b01b1	0.04565591
14	0xbcfb5577	-0.030680401
15	0xbe9f3314	-0.31093657
16	0x3ca862ff	0.020555018
17	0x3d65d3fd	0.05611037
18	0xbec54032	-0.3852554
19	0xbe059a92	-0.13047245
20	0xbe7a1546	-0.24422178
21	0x3bc258b3	0.005930984
22	0xbdb15270	-0.08658302
23	0xbe8f913d	-0.28040496
24	0x3e045275	0.1292208
25	0xbe77c3cd	-0.24195786
26	0xbeb9be99	-0.36278227
27	0x3dc00a75	0.093769945
28	0xbc48ab4b	-0.012247871
29	0xbdb6d0a4	-0.08926514
30	0x3e66e954	0.22549945
31	0x3e914b04	0.28377545
32	0x3e8d28ed	0.27570286
33	0x3ed946f8	0.42436957
34	0x3ed8f190	0.42371798
35	0x3eabb61e	0.33537382
36	0x3d9363d1	0.07196773
37	0x3dbef701	0.09324456
38	0x3ca53117	0.02016501
39	0xbec0f170	-0.37684202
40	0xbf1b1a15	-0.60586673
41	0xbea93d81	-0.33054736
42	0xbf4928eb	-0.7857806
43	0xbf7daeaa	-0.9909464
44	0xbf050169	-0.51955277
45	0xbc866926	-0.01640756
46	0xbd12a0e8	-0.035797983
47	0x3ddce58a	0.107859686
48	0xbcc487f3	-0.023990607
49	0x3b518921	0.0031972604
50	0xbe1a5147	-0.15070067
51	0xbdc2b4fb	-0.095071755
52	0x3e02c31d	0.12769742
53	0x3cc335b0	0.023829311
54	0xbe92af0e	-0.2864918
55	0xbee6e353	-0.4509531
56	0xbe0faec9	-0.14031519
57	0xbedb8d2c	-0.42881143
58	0xbf064c81	-0.52460486
59	0xbe32aa4e	-0.17447779
60	0xbeb19f00	-0.3469162
61	0xbed5eb49	-0.4178107
62	0xbd1635dd	-0.03667246
63	0xbe00bd5a	-0.12572232
64	0xbe5c58ee	-0.21518299
65	0xbe7be71c	-0.2459988
66	0x3d1b549e	0.037922494
67	0x3e589617	0.21151005
68	0x3c38a731	0.01127033
69	0x3e4982e8	0.19678843
70	0xbc947211	-0.018120797
71	0xbe50ef2d	-0.20403738
72	0x3e7045c1	0.23464109
73	0x3d0e9dd3	0.03481848
74	0x3ca82d13	0.020529306
75	0x3de2e06b	0.110779606
76	0x3eb63f3f	0.35595128
77	0x3e9fc800	0.31207275
78	0x3ee521b1	0.44752267
79	0x3f074bf4	0.5285027
80	0x3ebb8d86	0.3663141
81	0xbd58cecc	-0.052931592
82	0xbd376035	-0.044769485
83	0xbe0de4b7	-0.13856779
84	0xbd600185	-0.05468895
85	0xbdd12d15	-0.10213677
86	0xbdbdfbae	-0.0927652
87	0xbd5a99f0	-0.053369462
88	0xbda272d5	-0.07932059
89	0x3c0b04aa	0.008484999
90	0x3d7f47eb	0.062324446
91	0x3e7fdeab	0.24987285
92	0x3d9dcb9c	0.07704851
93	0x3eb06be3	0.3445731
94	0x3eac6906	0.33673877
95	0x3d804f05	0.06265072
96	0x3ecb0fec	0.39660585
97	0x3eade547	0.33963987
98	0x3d090ae5	0.033457655
99	0xbe2a55d9	-0.16634311
100	0xbe401f7f	-0.18762015
101	0xbdc4207c	-0.095765084
102	0x3e53cdc0	0.20683956
103	0x3dbc0694	0.09180942
104	0x3da3dae2	0.08000733
105	0x3d6a3962	0.05718363
106	0xbd09e16a	-0.033662237
107	0xba50a963	-0.0007959811
108	0xbe87f58c	-0.26554525
109	0x3df5687a	0.11982818
110	0x3e2e2929	0.17007889
111	0x3db0c0a4	0.08630493
112	0x3e8846b4	0.26616442
113	0x3ec1b192	0.37830788
114	0xbc99b40d	-0.018762613
115	0x3d9b1a53	0.0757338
116	0x3ee7cc7f	0.45273206
117	0x3db4b050	0.088226914
118	0x3e0111da	0.12604466
119	0x3e14164b	0.14461629
120	0x3dfbfec9	0.12304456
121	0x3e2f5e62	0.17125848
122	0x3d395377	0.045245614
123	0xbcc2683a	-0.02373134
124	0x3e99cf34	0.30040896
125	0x3dfea3b9	0.12433571
126	0xbda6c995	-0.081439175
127	0xbd969454	-0.0735251
128	0xbd066b5c	-0.03281723
129	0x3daf47ee	0.085586414
130	0xbd60e387	-0.054904487
131	0xbd8ab8f3	-0.067735575
132	0x3df48f0b	0.11941346
133	0x3ca4f481	0.02013612
134	0xbc48333d	-0.012219247
135	0xbe5c9c04	-0.2154389
136	0x3e1517c7	0.14559852
137	0xbdba7552	-0.09104408
138	0xbd9f8085	-0.07788185
139	0x3d925f51	0.071470864
140	0xbd83b997	-0.06431883
141	0xbeb8edb5	-0.36118856
142	0xbf46637e	-0.77495563
143	0xbee6597c	-0.44990146
144	0x3d7a01e8	0.061036974
145	0xbd21b20c	-0.03947644
146	0xbf46c357	-0.77641815
147	0xbe20f3b6	-0.15717968
148	0xbead8291	-0.33888677
149	0xbf1e79dc	-0.6190469
150	0xbe6183b3	-0.22022896
151	0xbdd2f7a9	-0.10301144
152	0xbe4002e5	-0.18751104
153	0xbe56752c	-0.20943135
154	0xbf009d17	-0.502397
155	0xbef48906	-0.4776079
156	0x3d7492c0	0.059710264
157	0xbdd6681b	-0.10469075
158	0x3df4c5c3	0.119517826
159	0x3e267581	0.16255762
160	0x3d16ec1f	0.036846276
161	0x3e40f4f9	0.1884345
162	0xbeb81335	-0.35952154
163	0x3daea4ad	0.08527503
164	0x3e2b6141	0.16736318
165	0xbdb30726	-0.08741598
166	0x3d97fe26	0.07421522
167	0x3d00a40b	0.031406444
168	0xbe6abe45	-0.22924145
169	0x3dd9af3d	0.10629127
170	0x3dfc0ded	0.12307344
171	0x3b14e216	0.0022717766
172	0x3ccaaf48	0.024741784
173	0x3e83aad9	0.25716284
174	0xbdcc1dc6	-0.09966616
175	0x3c7e5407	0.015522963
176	0x3e885283	0.2662545
177	0xbe19a6d0	-0.1500504
178	0xbd3c027f	-0.045900818
179	0x3ec42f59	0.38317373
180	0x3d267018	0.040634245
181	0xbe16cdbe	-0.14726922
182	0xbda5beab	-0.08093008
183	0x3de53611	0.11191953
184	0xbe2ba7ea	-0.16763273
185	0xbe75c865	-0.24002226
186	0x3e646fc4	0.2230826
187	0xbcd500b3	-0.02600131
188	0xbe8b6920	-0.27228642
189	0x3d19eafd	0.037577618
190	0x3dc2308e	0.09481917
191	0x3dbbe7ad	0.09175048
192	0x3d200772	0.0390696
193	0xbdc8296d	-0.09773526
194	0xbc5268ea	-0.012842396
195	0x3c4fa189	0.01267279
196	0xbdd0a636	-0.10187952
197	0xbea3a99c	-0.3196534
198	0xbd827b9f	-0.06371235
199	0x3db1b7c6	0.0867763
200	0xbd69075c	-0.056891784
201	0xbe8a7996	-0.27045888
202	0xbe19ea0b	-0.15030687
203	0xbca2eb36	-0.019887548
204	0xbed81e19	-0.42210463
205	0xbe4eae6a	-0.20183721
206	0xbce35ea3	-0.027755087
207	0xbddcf8c3	-0.10789635
208	0x3de77ce8	0.11303121
209	0x3e4b0239	0.19825067
210	0xbda57815	-0.080795445
211	0x3c9d6e96	0.01921777
212	0x3d9c8d84	0.076441795
213	0xbe0427eb	-0.12905852
214	0xbdf7e477	-0.12104123
215	0x3b6274f8	0.0034554582
216	0xbd8dbd0c	-0.069208235
217	0x3c96d208	0.018410698
218	0xbcde9395	-0.027169982
219	0xbe1e5f29	-0.15465988
220	0xbc6fa761	-0.014627309
221	0xbdbd6660	-0.09248042
222	0xbe9abe0d	-0.30223122
223	0x3c9b69c2	0.018971328
224	0x3e3956e9	0.1809956
225	0xbe2d5bc0	-0.16929531
226	0xbd3effd5	-0.0466307
227	0xbe241c3d	-0.16026397
228	0xbc980dbf	-0.018561242
229	0x3d7a58a3	0.061119687
230	0x3cc8727a	0.02446865
231	0x3da79381	0.08182431
232	0x3d883409	0.0665055
233	0xbd4f44d7	-0.05060276
234	0xbe720a37	-0.23636709
235	0xbd2f5cca	-0.0428131
236	0xbd02750e	-0.031849913
237	0xbde4026e	-0.11133276
238	0x3e18e25a	0.14930096
239	0x3e77db15	0.24204667
240	0x3c8bdf67	0.0170743
241	0xbc8b42a8	-0.016999558
242	0x3e988569	0.29789284
243	0xbea0c032	-0.31396633
244	0xbbe9ef66	-0.007139134
245	0xbeb3fc51	-0.3515344
246	0xbdd79a8e	-0.10527526
247	0xbdac389c	-0.08409235
248	0xbba474d7	-0.005018811
249	0xbe0b1a62	-0.13584283
250	0xbe7987ba	-0.24368182
251	0x3e86c6a8	0.26323438
252	0xbe388c8d	-0.18022366
253	0xbea8b4ec	-0.32950532
254	0xbdcc253a	-0.09968038
255	0xbd6fe69a	-0.05856953

cnn.3.bias f4 [32]
0	0xbdc2dae3	-0.095144056
1	0xbd1ad3d0	-0.037799656
2	0x3dbcfd6c	0.09228024
3	0xbd0c2fb8	-0.034225196
4	0x3e25f7a8	0.16207755
5	0xbd7ca551	-0.061681096
6	0xbe734aab	-0.23758952
7	0xbd3e0b33	-0.0463974
8	0x3d96efa9	0.0736993
9	0x3da0f5c7	0.07859378
10	0xbdde92a3	-0.108678125
11	0xba0dc327	-0.0005407803
12	0xbdf45777	-0.11930745
13	0xbdb976ad	-0.09055839
14	0xbdcd2e6a	-0.100186184
15	0xbd6995ad	-0.057027508
16	0xbd03698f	-0.03208309
17	0x3caf0ce9	0.02136846
18	0xbd81f6d2	-0.06345905
19	0x3db9d04d	0.09072933
20	0x3dcb8975	0.09938327
21	0x3e30dfa4	0.17272812
22	0x3def0282	0.116704
23	0x3cbcfb66	0.023069095
24	0xbdfdf71d	-0.12400649
25	0x3db70702	0.089368835
26	0x3ed33f9b	0.41259465
27	0x3f00dde1	0.5033856
28	0xbe1ef52c	-0.15523213
29	0xbd0297c7	-0.031883027
30	0xbd3dc63b	-0.046331625
31	0xbe09d5a6	-0.13460407

fc1.weight f4 [11, 672]
0	0xbdbeb815	-0.093124546
1	0xbdbc761e	-0.092022166
2	0x3bac01aa	0.005249222
3	0xbd427318	-0.047473043
4	0xbee96a24	-0.4558879
5	0x3c4067c3	0.011743489
6	0x3e3fb1f1	0.18720223
7	0xbe9330b2	-0.2874809
8	0xbe4eafa1	-0.20184185
9	0x3e74258e	0.23842451
10	0x3c6a7281	0.014309526
11	0x3c9d4ffe	0.019203182
12	0x3cbe3232	0.023217294
13	0xbe82540c	-0.25454748
14	0x3e721b76	0.23643288
15	0x3e48534b	0.19563024
16	0x3e4c66d5	0.19961102
17	0xbe175dfb	-0.14781944
18	0x3dd17f71	0.10229386
19	0xbd6b00ae	-0.057373695
20	0xbcf7f14f	-0.030266432
21	0xbf33eb6e	-0.7028111
22	0xbf728f32	-0.9474975
23	0xbfd6b66e	-1.6774423
24	0xbfc6eeef	-1.5541667
25	0xbf2be6b8	-0.67148924
26	0xbe7df1d0	-0.24799275
27	0xbf327a7d	-0.6971815
28	0xbf9f576f	-1.2448558
29	0xbf07b449	-0.5300947
30	0xbf90d7f9	-1.131591
31	0xbf0aa48e	-0.5415734
32	0xbf00f12b	-0.50367993
33	0xbe08ca7f	-0.13358496
34	0xbf915474	-1.1353898
35	0xbf11c459	-0.5694023
36	0xbfa2fd97	-1.273364
37	0xbfdc9947	-1.7234277
38	0xbf3f87d9	-0.7481666
39	0xbf6886ee	-0.90830886
40	0xbf4e57d8	-0.8060279
41	0xbf0bf6fb	-0.5467374
42	0x3cf96727	0.030444695
43	0xbe18bb7d	-0.14915271
44	0xbed5c69b	-0.41753086
45	0xbe068d41	-0.13139822
46	0x3e8bdd9d	0.27317515
47	0x3e9a3b7b	0.30123505
48	0xbf787b41	-0.9706307
49	0xbd9564c7	-0.072946124
50	0x3e50cb09	0.20389952
51	0xbe84fc34	-0.25973666
52	0xbe2e81d1	-0.17041709
53	0x3de43cbb	0.11144396
54	0xbe2e9ee8	-0.17052805
55	0xbf05acfc	-0.5221708
56	0xbe5a829c	-0.21338886
57	0xbdfe305d	-0.12411568
58	0xbcd9afc0	-0.026573062
59	0xbdfded28	-0.123987496
60	0xbf2ae76b	-0.66759366
61	0xbeacd770	-0.33758116
62	0xbecb6b73	-0.39730415
63	0xbd9cb468	-0.07651597
64	0x3cc9389e	0.02456313
65	0x3d0a2ea8	0.0337359
66	0xbe224b0d	-0.15848942
67	0xbeacbe85	-0.33739105
68	0x3d4004f4	0.046879724
69	0xbe98afb7	-0.2982156
70	0xbc9b8baf	-0.018987505
71	0x3cc5b3f4	0.02413366
72	0x3da861c4	0.08221772
73	0xbd6d08d4	-0.057869747
74	0xbecb997e	-0.39765543
75	0x3e95c304	0.29250348
76	0xbf168914	-0.58802915
77	0xbeb17082	-0.3465615
78	0xbe358723	-0.17727332
79	0xbf0131b8	-0.5046649
80	0x3eb6e964	0.35724938
81	0x3d69fbd9	0.057124946
82	0xbd15192f	-0.03640097
83	0xbf39c4f7	-0.7256617
84	0x3d41a9a3	0.04728092
85	0x3ea445b0	0.32084417
86	0x3e7f196e	0.24912044
87	0x3e60cf33	0.2195404
88	0x3d7d4895	0.061836798
89	0x3d7faded	0.062421728
90	0xbefee90d	-0.4978718
91	0x3e54525a	0.2073454
92	0x3e88f65f	0.26750466
93	0xbe8f5ddc	-0.28001297
94	0xbef79403	-0.4835511
95	0x3e36dc13	0.17857389
96	0xbd5415e6	-0.051778696
97	0xbe1e921d	-0.15485425
98	0x3e12f9bd	0.1435308
99	0x3e3786dd	0.1792254
100	0xbe0b496e	-0.1360223
101	0xbf3827ed	-0.7193592
102	0x3edc7163	0.43055257
103	0xbd63d1b9	-0.05561993
104	0x3ee66809	0.45001248
105	0xbe128bfb	-0.14311211
106	0xbdb6a7d2	-0.08918728
107	0xbde05a58	-0.10954732
108	0xbd70d893	-0.05880029
109	0xbc56f648	-0.013120241
110	0xbda96942	-0.082720295
111	0xbd966e65	-0.07345275
112	0xbdf56ecf	-0.11984026
113	0xbd3ef2f4	-0.046618417
114	0xbd8965b5	-0.06708852
115	0xbd3b4105	-0.045716304
116	0xbd48a3d0	-0.04898435
117	0xbda773d2	-0.08176388
118	0xbde2a835	-0.11067239
119	0xbd42e7ef	-0.04758447
120	0xbd5d9805	-0.054100055
121	0xbc23ee2b	-0.010005514
122	0xbd98c491	-0.07459367
123	0xbc87e775	-0.01658986
124	0xbd61579a	-0.055015184
125	0xbd641867	-0.055687334
126	0xbd96c8ba	-0.07362504
127	0xbe1b530a	-0.15168396
128	0x3df4c860	0.11952281
129	0xbe23d299	-0.15998305
130	0xbee92dec	-0.45542848
131	0x3dda88ec	0.10670647
132	0xbe742a16	-0.2384418
133	0xbf397bb0	-0.7245436
134	0xbec33df6	-0.3813321
135	0xbf2acdef	-0.6672048
136	0xbe234bd2	-0.15946892
137	0xbe160479	-0.14650144
138	0xbec7bc23	-0.39010724
139	0xbccb9e6a	-0.024855811
140	0xbf5ca019	-0.8618179
141	0xbeb289fd	-0.34870902
142	0x3e974f7b	0.29552826
143	0xbf24ccbb	-0.64374894
144	0x3c9a489b	0.01883345
145	0xbefbb27f	-0.4915962
146	0xbf002e6e	-0.50070846
147	0xbc03ca8b	-0.0080438955
148	0xbdf0441e	-0.11731742
149	0x3ebab0f6	0.36463135
150	0xbe48d3f8	-0.1961211
151	0x3d8b65c4	0.0680652
152	0x3ea1c233	0.31593475
153	0xbeae4e88	-0.3404429
154	0x3e4f1e72	0.20226458
155	0x3dbfa892	0.09358324
156	0x3cace50c	0.021105312
157	0x3d7f6a16	0.06235703
158	0xbe82cc0b	-0.25546297
159	0x3ebc6fab	0.36803946
160	0xbf3054ef	-0.688796
161	0xbe32eeab	-0.17473857
162	0x3f0cff2c	0.5507686
163	0xbe5d6265	-0.21619566
164	0xbf0f16d1	-0.5589419
165	0xbd8b8e13	-0.06814208
166	0xbc8a9bfc	-0.016920082
167	0xbe24df42	-0.16100791
168	0x3d9d5d3c	0.07683799
169	0x3cd3c1b4	0.0258492
170	0x3e8b69c3	0.27229127
171	0x3e8e8842	0.2783833
172	0x3e79e922	0.2440534
173	0xbe07dec3	-0.1326857
174	0xbdf4784f	-0.119370095
175	0x3cbf87dc	0.023380212
176	0xbb7d0908	-0.003861012
177	0xbd2adefe	-0.04171657
178	0xbde778fe	-0.11302374
179	0x3d1b76aa	0.037954964
180	0xbe4059ed	-0.18784304
181	0x3deaaec6	0.11459117
182	0xbaf5df1a	-0.0018758506
183	0x3dd385e3	0.10328271
184	0x3e9202b8	0.285177
185	0x3f089fde	0.5336894
186	0xbe8805d2	-0.2656694
187	0x3d04c6ad	0.032416034
188	0xbe135062	-0.14386132
189	0xbe6c7872	-0.23092821
190	0xbe9d50cd	-0.3072571
191	0xbdd917bc	-0.1060023
192	0x3ef23868	0.4730866
193	0x3e34de8f	0.17663024
194	0xbe644b0a	-0.2229425
195	0x3ebe2e2b	0.37144598
196	0x3e8d8fa7	0.2764866
197	0x3de94cf3	0.1139163
198	0x3e064602	0.13112643
199	0x3ec70431	0.38870385
200	0x3ea6c9c3	0.32575807
201	0x3e4f1bf1	0.20225503
202	0x3e479db2	0.1949375
203	0x3e84e52e	0.259561
204	0x3c98316b	0.018578252
205	0xbebdf0ab	-0.37097678
206	0xbe58556a	-0.21126333
207	0xbe5849a5	-0.21121843
208	0x3e2dac04	0.1696015
209	0x3e03314b	0.12811773
210	0xbddd4d58	-0.10805768
211	0xbd54d796	-0.05196341
212	0xbdcb29e4	-0.099200994
213	0xbd9c3eec	-0.07629189
214	0xbdcad381	-0.099036224
215	0xbcff8aae	-0.031194057
216	0xbd9bc90d	-0.07606707
217	0xbdbd5a3f	-0.09245729
218	0xbd1cc04f	-0.038269337
219	0xbd9c1078	-0.07620329
220	0xbd3999b6	-0.045312606
221	0xbdb48d5e	-0.08816026
222	0xbdb02af8	-0.08601946
223	0xbcebd07a	-0.028785933
224	0xbd038f75	-0.032119233
225	0xbda598b7	-0.08085769
226	0xbe0c5437	-0.13704
227	0xbdf13ac2	-0.11778785
228	0xbde87008	-0.11349493
229	0xbdc539bb	-0.09630152
230	0xbd4c1a3b	-0.049829703
231	0x3df9ee4b	0.12203654
232	0xbeca37ee	-0.39495796
233	0xbe99d2b3	-0.30043563
234	0xbe87eb4b	-0.26546702
235	0x3e146421	0.14491321
236	0x3dddfee1	0.1083963
237	0xbcce6495	-0.025194446
238	0x3e328fd2	0.17437676
239	0xbed2df29	-0.41185883
240	0xbdc793e3	-0.09745004
241	0xbed49917	-0.41523048
242	0xbe93c035	-0.2885758
243	0xbe83ccd7	-0.25742218
244	0xbe9e292c	-0.30890787
245	0x3dde853c	0.10865256
246	0xbec9e707	-0.39434072
247	0x3ec78921	0.3897181
248	0xbe86ef79	-0.26354578
249	0xbd46a764	-0.04849948
250	0x3eaeea8c	0.3416332
251	0x3e8ce4f9	0.27518442
252	0xbde83343	-0.113379024
253	0xbd8443e3	-0.06458261
254	0xbd0063eb	-0.03134529
255	0xbcef780b	-0.029232046

fc1.bias f4 [11]
0	0x3b5d9360	0.0033809766
1	0x3f0360e8	0.5131974
2	0x3e1cc617	0.1530994
3	0xbd13c1d1	-0.03607351
4	0x3d6cead1	0.057841126
5	0xbe3aeac1	-0.18253614
6	0xbe60f151	-0.21967055
7	0xbeb298b5	-0.3488213
8	0xbea82be4	-0.32845986
9	0xbe9bbbeb	-0.30416808
10	0xbf608f89	-0.8771902

fc2.weight f4 [11, 672]
0	0x3deac124	0.1146262
1	0xbd29455e	-0.04132592
2	0xbd162809	-0.036659274
3	0x3e90fda8	0.28318524
4	0x3ecd55b8	0.4010446
5	0xbe0b4a09	-0.13602461
6	0x3d78e0f2	0.0607614
7	0xbd26d056	-0.04072603
8	0xbe0f32ea	-0.13984266
9	0xbe19f0de	-0.1503329
10	0xbdf6b87e	-0.12046908
11	0xbe8f13b5	-0.27944723
12	0xbd3c6dc4	-0.04600312
13	0xbe324ab2	-0.17411307
14	0x3d03a557	0.032140102
15	0xbd9c968b	-0.07645901
16	0xbd843d67	-0.06457024
17	0xbcc1bc11	-0.023649247
18	0x3defebe8	0.117149174
19	0x3d7b8260	0.061403632
20	0xbdab7260	-0.08371425
21	0xbed97401	-0.42471316
22	0xbe9244e0	-0.28568172
23	0xbe78514b	-0.24249761
24	0xbeb1a19a	-0.34693605
25	0xbdd4919f	-0.103793375
26	0xbe715489	-0.23567404
27	0xbebb8212	-0.36622673
28	0xbdf20872	-0.11818017
29	0x3d84db2a	0.06487115
30	0x3e3c6d43	0.18401055
31	0xbd934a9b	-0.07191964
32	0xbe15023b	-0.14551632
33	0xbd049487	-0.03236821
34	0xbe25d89f	-0.16195916
35	0xbf026f48	-0.5095105
36	0xbd268b8a	-0.04066042
37	0x3dcbd02e	0.099518165
38	0x3cc958f0	0.024578542
39	0xbd9ab393	-0.07553782
40	0xbe36f2c1	-0.17866041
41	0x3dca1e7d	0.098690964
42	0xbdfc4c20	-0.12319207
43	0xbe1e113c	-0.15436262
44	0xbe10b5bf	-0.1413183
45	0xbdc128aa	-0.09431584
46	0x3e59d924	0.21274239
47	0x3d17e72a	0.03708569
48	0xbe644de0	-0.22295332
49	0xbe0479c7	-0.1293708
50	0x3d0e60e6	0.03476038
51	0xbdcb9d50	-0.09942114
52	0xbf06b811	-0.52624613
53	0xbefc2836	-0.4924943
54	0xbe9f5cfa	-0.31125623
55	0xbcd272b0	-0.025689453
56	0xbcc867cc	-0.024463557
57	0xbe6957d8	-0.22787416
58	0xbd810196	-0.062991306
59	0xbd088733	-0.03333206
60	0xbecb8e6b	-0.39757094
61	0xbe657491	-0.22407748
62	0x3e00a8d3	0.12564401
63	0x3e44f50c	0.19234103
64	0xbe2e3b13	-0.17014723
65	0x3dc56755	0.0963885
66	0xbcd271b3	-0.025688982
67	0xbe0834db	-0.13301413
68	0xbd602ec6	-0.054732107
69	0xbda43298	-0.080174625
70	0xbdf51675	-0.11967174
71	0x3d92c561	0.07166553
72	0x3cca8347	0.024720801
73	0xbe73a7f9	-0.23794545
74	0xbea3d4a1	-0.3199816
75	0xbd523568	-0.051320463
76	0xbd3f9e2a	-0.046781696
77	0x3cda35a9	0.026636915
78	0x3e02b0b8	0.12762725
79	0xbd350d08	-0.04420188
80	0xbee92b85	-0.45541015
81	0xbebbc24f	-0.36671683
82	0x3da63ae4	0.08116701
83	0xbd4a1e6d	-0.049345423
84	0x3ca8ea16	0.020619433
85	0xbcf1c2f1	-0.0295119
86	0x3e003210	0.12519097
87	0x3e117fc6	0.14208898
88	0x3e1aed46	0.15129575
89	0x3e6e62ca	0.23279873
90	0xba6542c0	-0.0008745603
91	0x3c2e1f63	0.0106276
92	0xbc5d121a	-0.013493085
93	0xbdf96500	-0.12177467
94	0xbec7cc86	-0.39023226
95	0x3d67f250	0.05662757
96	0xbd91b940	-0.07115412
97	0x3c8806fe	0.016604897
98	0xbdcb4d35	-0.099268354
99	0x3cc8e841	0.02452481
100	0xbdcb0888	-0.099137366
101	0xbeaadc44	-0.33371174
102	0xbe296970	-0.16544127
103	0xbdcb22bf	-0.09918737
104	0xbdfdb9f9	-0.12388987
105	0x3d1bd619	0.038045976
106	0x3c537acd	0.012907696
107	0xbb408719	-0.00293774
108	0x3cea0daf	0.028570978
109	0x3d8f1097	0.06985586
110	0x3d92df1e	0.071714625
111	0x3d2b51d0	0.04182607
112	0x3d1aa058	0.037750572
113	0x3cc48784	0.0239904
114	0x3d407b37	0.046992507
115	0x3d715eca	0.05892829
116	0x3cf55570	0.029947966
117	0x3d51e327	0.05124202
118	0xbca77159	-0.02043979
119	0xb9f525c3	-0.00046758176
120	0x3c1043bc	0.008805212
121	0x3c59c998	0.013292693
122	0x3d1f6d04	0.038922325
123	0xbc31e819	-0.010858559
124	0xbb0d65c3	-0.0021575547
125	0x3d627e38	0.055296153
126	0x3b57f6b1	0.0032953436
127	0xbde2532d	-0.11051021
128	0x3e229fdd	0.15881296
129	0x3e11d976	0.14243111
130	0xbd429127	-0.04750171
131	0xbe0a4d20	-0.13505983
132	0x3db53800	0.08848572
133	0x3d8225d4	0.063548714
134	0x3d218486	0.039433025
135	0x3d42cdd5	0.047559578
136	0x3e12faad	0.14353438
137	0xbe1d0e31	-0.15337445
138	0x3dbd54e1	0.09244705
139	0xbe5459ef	-0.20737432
140	0xbd6a5180	-0.05720663
141	0x3d2443b1	0.040103618
142	0x3ce62f98	0.028098866
143	0xbe3398f5	-0.17538817
144	0xbee371f3	-0.44422874
145	0x3e8d947f	0.27652356
146	0x3d9a004c	0.07519588
147	0x3d0c70a6	0.034287117
148	0xbdaff96a	-0.08592494
149	0x3df3b10d	0.11899004
150	0x3e725b4c	0.2366764
151	0xbf0c73d8	-0.54864264
152	0xbe495de1	-0.19664718
153	0xbcff0cdf	-0.031134067
154	0xbe1fa9ee	-0.15592167
155	0x3e741008	0.2383424
156	0x3c47d0ed	0.012195808
157	0x3eb95942	0.3620091
158	0xbec02d9d	-0.375348
159	0x3d30fd10	0.04321009
160	0x3d2c5b16	0.042079054
161	0xbe28cd81	-0.16484644
162	0xbc6d36f4	-0.014478434
163	0x3c047bb8	0.0080861375
164	0xbf05602d	-0.5209988
165	0x3e37bb25	0.17942484
166	0x3db0f4ae	0.08640419
167	0xbb9cbc2d	-0.0047831745
168	0xbe722520	-0.23646975
169	0x3d71bef2	0.05901999
170	0xbdf4f1e3	-0.11960199
171	0xbe41f17e	-0.18939778
172	0x3e948db6	0.29014367
173	0xbd0ea338	-0.034823626
174	0xbd7d4706	-0.06183531
175	0xbc40a6bc	-0.011758503
176	0xbcd3a58a	-0.025835771
177	0xbd0c72ff	-0.034289356
178	0xbe931dac	-0.28733575
179	0xbec9332c	-0.39296854
180	0xbe0d69f5	-0.1380995
181	0x3cac458a	0.021029253
182	0xbe183c8d	-0.14866848
183	0xbd4e8829	-0.05042282
184	0xbde12ff1	-0.10995472
185	0x3e2e0518	0.1699413
186	0x3d1e5e85	0.03866436
187	0xbe6cd4f9	-0.23128118
188	0x3d87cdc8	0.066310465
189	0xbc2cca3c	-0.010546263
190	0x3e31ebae	0.17375061
191	0x3d0572ee	0.03258031
192	0xbc86d76e	-0.016460147
193	0xbd8b9663	-0.06815793
194	0xbd14f77c	-0.036368832
195	0xbde8ca7e	-0.11366747
196	0x3bad928e	0.0052970117
197	0x3b1f6bb3	0.0024325668
198	0x3d30325d	0.04301678
199	0xbe60c455	-0.21949895
200	0x3d22188f	0.039574202
201	0x3c89d9f6	0.016827565
202	0xbe26631f	-0.16248749
203	0xbcfc810c	-0.030823253
204	0x3dc8dd27	0.098078065
205	0x3cc6f3ec	0.024286233
206	0xbf18c792	-0.5967952
207	0x3dd76856	0.105179474
208	0x3e0e919e	0.13922736
209	0x3d90aa8f	0.070637815
210	0xbda0eb94	-0.07857433
211	0xbdd39ca9	-0.10332615
212	0xbd495528	-0.049153477
213	0xbdd0dfdc	-0.10198948
214	0xbd3fc94e	-0.04682284
215	0xbda5b2b2	-0.08090724
216	0xbd8cae8c	-0.0686923
217	0xbd3b5f8a	-0.04574541
218	0xbdb57204	-0.088596374
219	0xbdb82fe2	-0.08993508
220	0xbdd4f4f4	-0.103982836
221	0xbd0a0a3d	-0.03370117
222	0xbdc0adf1	-0.09408177
223	0xbd881c06	-0.0664597
224	0xbdd054fd	-0.1017246
225	0xbdcf923e	-0.10135315
226	0xbd6f32ab	-0.05839793
227	0xbd993e47	-0.074825816
228	0xbd9ce4fc	-0.07660863
229	0xbd8ae4d5	-0.067819275
230	0xbd1e9bf4	-0.038722947
231	0x3b2cabee	0.0026347595
232	0xbded1523	-0.11576297
233	0xbd45f561	-0.048329715
234	0xbe2a82aa	-0.16651407
235	0xbdb969fa	-0.090534166
236	0xbd5875f8	-0.05284688
237	0xbc6e626b	-0.014549832
238	0xbe29e936	-0.16592869
239	0x3c1edb51	0.009695844
240	0xbd7dc886	-0.061958812
241	0xbea819c6	-0.32832164
242	0xbeb521b3	-0.35377273
243	0xbd82cdde	-0.06386922
244	0x3e100c14	0.14067107
245	0xbdff6178	-0.124697626
246	0xbd7edd03	-0.062222492
247	0xbca087f7	-0.019596083
248	0xbeda5c31	-0.4264846
249	0xbd0dd381	-0.034625534
250	0x3e25bde3	0.16185717
251	0xbda68591	-0.081309445
252	0xbd187a83	-0.03722621
253	0xbb69abb1	-0.0035655315
254	0xbdb8d17c	-0.09024331
255	0x3ba5b69c	0.005057169

fc2.bias f4 [11]
0	0xbb87c8f7	-0.00414383
1	0x3e2b6288	0.16736805
2	0x3c1cf5f4	0.009580124
3	0x3db803d8	0.08985108
4	0x3d63147a	0.05543945
5	0xbc1ef431	-0.009701774
6	0xbbe02cc5	-0.0068412744
7	0xbcf06513	-0.029345071
8	0xbdefc633	-0.117077254
9	0xbdaca6fc	-0.08430287
10	0xbdd6533e	-0.10465096

fc3.weight f4 [11, 672]
0	0xbecad3e1	-0.39614776
1	0xbde09438	-0.109657705
2	0xbe322652	-0.1739743
3	0xbe0601df	-0.13086651
4	0x3ec6e8de	0.3884954
5	0xbe107aad	-0.14109297
6	0x3d138b50	0.03602153
7	0xbe2543cb	-0.16139142
8	0x3d54a1ad	0.051912
9	0xbd936f8f	-0.071990125
10	0xbe3d8c8c	-0.18510646
11	0xbe3045d9	-0.17214145
12	0xbe9154f2	-0.2838512
13	0x3dca718a	0.09884937
14	0x3c1b824d	0.009491515
15	0x3ccf0b72	0.025274012
16	0x3e1b0a6a	0.15140691
17	0xbe263e92	-0.16234806
18	0xbe16dfd5	-0.14733823
19	0x3e7b7741	0.2455721
20	0x3dca5e1b	0.098812304
21	0xbf360ed3	-0.7111637
22	0xbf0e3af8	-0.5555873
23	0xbd415f3c	-0.047209963
24	0xbe6f1ed4	-0.23351604
25	0xbe8dcd45	-0.2769567
26	0x3e8fe63f	0.2810535
27	0xbeefaa85	-0.46809784
28	0xbe2433cf	-0.16035388
29	0xbf2c762d	-0.6736782
30	0xbde24ffc	-0.11050412
31	0xbeb844a0	-0.35989857
32	0xbd8ec366	-0.06970863
33	0xbc222413	-0.009896296
34	0xbe969939	-0.29413775
35	0xbeedc2bc	-0.46437633
36	0xbecadb5a	-0.39620477
37	0xbe53b597	-0.2067474
38	0x3e14db29	0.14536728
39	0xbf13c395	-0.5772031
40	0xbeda8fc8	-0.4268782
41	0x3e0e187b	0.13876526
42	0xbe850c44	-0.2598592
43	0xbdc24640	-0.094860554
44	0xbe3ee11d	-0.18640561
45	0xbef22cdd	-0.47299853
46	0xbe8b89e6	-0.27253646
47	0x3dd63fa5	0.10461358
48	0xbd43dbc4	-0.047817007
49	0xbddaa009	-0.106750555
50	0xbe5ba994	-0.21451408
51	0xbdef30d5	-0.11679236
52	0xbeb93691	-0.36174443
53	0xbef7f4a4	-0.48428833
54	0xbe972211	-0.29518178
55	0xbe0fcf2b	-0.14043872
56	0xbe0656f1	-0.13119103
57	0xbdc9bafe	-0.09850119
58	0xbe732c95	-0.23747475
59	0xbf424bdd	-0.7589701
60	0xbe26cf62	-0.16290048
61	0xbef76989	-0.48322704
62	0xbe16e463	-0.1473556
63	0x3dc68664	0.09693602
64	0xbbea949e	-0.00715883
65	0x3dce3f00	0.1007061
66	0x3d773e75	0.060362298
67	0xbe212cc4	-0.15739733
68	0xbc9f36e5	-0.019435355
69	0xbe89adc4	-0.26890385
70	0xbe3b34fb	-0.18281929
71	0xbe7001e4	-0.23438221
72	0x3d8b4f54	0.0680224
73	0xbe09ca36	-0.13456044
74	0xbf2b131d	-0.6682604
75	0xbf0232e9	-0.5085893
76	0x3d1c253f	0.03812146
77	0xbd87ae08	-0.06624991
78	0xbcfd2691	-0.030902179
79	0x3d888b27	0.06667166
80	0xbe3d4ad4	-0.18485576
81	0xbed73c13	-0.4203802
82	0xbd404b2e	-0.046946697
83	0xbe1c6381	-0.15272333
84	0xbe03413b	-0.12817852
85	0xbdc9dcd2	-0.09856571
86	0xbd9828b3	-0.07429638
87	0xbe924a65	-0.28572384
88	0x3ef0e9bc	0.47053325
89	0xbd0318d6	-0.032006107
90	0x3c6a6cc6	0.01430816
91	0x3e00f092	0.1259177
92	0xbc5d54be	-0.013508974
93	0xbd97dd55	-0.074152626
94	0xbc205bca	-0.009787509
95	0xbdff6f9c	-0.1247246
96	0xbc30e706	-0.010797268
97	0x3d35f83d	0.04442619
98	0xbe81c27e	-0.25343698
99	0xbe457be2	-0.19285539
100	0xbec85664	-0.3912841
101	0x3d65105e	0.055923812
102	0xbd815ff3	-0.06317129
103	0xbeb3d4bc	-0.3512324
104	0xbc947bc4	-0.018125422
105	0xbc3d58ca	-0.0115568135
106	0xbd1997e5	-0.037498374
107	0xbc626ecd	-0.013820362
108	0x3cad73c6	0.02117337
109	0x3cdc0050	0.026855618
110	0xbd530f12	-0.051528044
111	0xbd947beb	-0.07250198
112	0xbdbfc25d	-0.09363244
113	0xbd02a603	-0.031896602
114	0x3c92db76	0.017926913
115	0x3c68a91b	0.014200474
116	0x3d135763	0.03597201
117	0x3d2f94b6	0.04286643
118	0x3cebeb9d	0.028798873
119	0x3c81ef07	0.015861047
120	0xbcf5384f	-0.029934077
121	0xbbb8adde	-0.005635961
122	0x3ccd5416	0.02506451
123	0x3cf79e2a	0.030226786
124	0x3d4e63a3	0.05038799
125	0xbc446e81	-0.011989237
126	0xbdc93933	-0.09825363
127	0xbc184c9c	-0.009295609
128	0x3e8ef0fa	0.27918226
129	0x3cc97a96	0.024594586
130	0xbe1407d4	-0.14456111
131	0xbcaf4b9c	-0.021398358
132	0xbd2175e0	-0.039419055
133	0xbde9b534	-0.11411515
134	0xbd1cea96	-0.038309656
135	0x3e17473d	0.14773269
136	0xbb5b9f6f	-0.0033511778
137	0xbddf7170	-0.10910308
138	0xbd0e23bc	-0.034702048
139	0xbced6ca1	-0.028982462
140	0xbce83e54	-0.028350033
141	0x3e23b730	0.15987849
142	0x3d8f5560	0.06998706
143	0xbddfd2a8	-0.10928851
144	0xbddf6c18	-0.10909289
145	0xbda42ffa	-0.08016963
146	0x3cd57631	0.026057335
147	0xbdb90a02	-0.09035112
148	0xbcb80224	-0.022461958
149	0xbdd8f8c6	-0.10594325
150	0x3c43cee2	0.01195118
151	0x3dc795b5	0.09745351
152	0xbeddcbe7	-0.43319628
153	0xbe096dd7	-0.13420807
154	0x3e17bb9a	0.14817658
155	0xbd60251e	-0.054722898
156	0xbd91cd82	-0.07119276
157	0xbc37af44	-0.01121122
158	0x3e31cd88	0.1736356
159	0xbddbf7d2	-0.10740627
160	0x3d641e2d	0.05569284
161	0xbd990684	-0.07471946
162	0xbe79d86b	-0.24398963
163	0xbcb9d68d	-0.022685314
164	0xbc6ab515	-0.0143254
165	0xbe0e09c9	-0.1387092
166	0x3e7a1596	0.24422297
167	0xbdfc222b	-0.123112045
168	0xbe6bf2df	-0.23041867
169	0x3a07ca05	0.00051799446
170	0xbcd9ede4	-0.026602693
171	0xbe517dd0	-0.2045815
172	0xbe3611fe	-0.17780301
173	0x3db9885a	0.0905921
174	0xbda0b8ec	-0.07847771
175	0xbd34e14b	-0.04416017
176	0x3cfc7a47	0.030820025
177	0xbddc0620	-0.10743356
178	0xbe2ddd00	-0.16978836
179	0xbea3df74	-0.3200642
180	0xbeced30b	-0.40395388
181	0xbcff6766	-0.031177234
182	0x3dc37d1a	0.095453456
183	0x3d880222	0.06641032
184	0xbdf5fa2f	-0.12010609
185	0x3dcd9a7b	0.100392304
186	0x3e21cd77	0.15801035
187	0xbe72ddf5	-0.23717482
188	0xbe949a90	-0.29024172
189	0xbca615ad	-0.020274008
190	0x3ccea6fd	0.02522611
191	0xbccdb6a0	-0.025111496
192	0x3e9bb700	0.30413055
193	0x3cd51aa5	0.026013682
194	0xbeba3dd3	-0.36375293
195	0xbe276ca3	-0.16350035
196	0xbcc76e19	-0.02434449
197	0xbe510af9	-0.20414342
198	0xbd45ff49	-0.048339162
199	0xbe151032	-0.1455696
200	0xbec6f8c1	-0.3886166
201	0x3a5c8a55	0.0008412947
202	0xbc519278	-0.0127912685
203	0x3bcf5102	0.0063267956
204	0xbdd707df	-0.10499548
205	0xbc911f7a	-0.017715205
206	0xbd5f75cf	-0.05455571
207	0xbf03cd39	-0.5148502
208	0xbd79deef	-0.06100362
209	0x3d81d8a7	0.06340151
210	0x3c905de4	0.017622896
211	0xbd48a847	-0.048988607
212	0xbb7e1cad	-0.0038774416
213	0xbd4c2889	-0.049843345
214	0xbc3e1f1c	-0.011604097
215	0x3b3a85b8	0.002846105
216	0x3d3076fa	0.043082215
217	0x3cca7de5	0.024718234
218	0xbc718b58	-0.014742695
219	0x3942d846	0.0001858185
220	0xbc840d21	-0.016119542
221	0xbb2ecc56	-0.0026672087
222	0xbd48d865	-0.049034495
223	0xbc6a3b30	-0.014296338
224	0x3cafe119	0.02146964
225	0xbcdbeb25	-0.026845524
226	0xbdee03a7	-0.116217904
227	0xbc90b5aa	-0.01766475
228	0xbcc01ce9	-0.023451285
229	0x3cc46a20	0.023976386
230	0x39dad2ac	0.00041737163
231	0xbe813d75	-0.252422
232	0xbcead7d9	-0.028667377
233	0xbd868a3a	-0.065693334
234	0x3e24b472	0.1608446
235	0xbdabcfa2	-0.08389212
236	0x3d4f4746	0.05060508
237	0xbdd2fa26	-0.10301618
238	0x3d0ff6d2	0.035147496
239	0xbd4be815	-0.049781878
240	0x3ce0d335	0.027444461
241	0xbe1232a1	-0.14277126
242	0xbf58fd2e	-0.8476132
243	0xbe8248de	-0.25446218
244	0xbe150548	-0.14552796
245	0xbe7a1f75	-0.24426062
246	0x3cafe937	0.02147351
247	0xbe256dcc	-0.16155165
248	0xbdc33ef4	-0.09533492
249	0xbf0aae6e	-0.5417241
250	0xbe1597d1	-0.14608695
251	0x3e3706fc	0.17873758
252	0x3b4a33e9	0.0030853695
253	0xbcd5ad08	-0.026083484
254	0xbd557f5d	-0.052123416
255	0xbc56cb1b	-0.013109948

fc3.bias f4 [11]
0	0xbd6308c2	-0.055428274
1	0xbdefb6fc	-0.117048234
2	0xbe56a004	-0.20959479
3	0xbe5e3f79	-0.217039
4	0xbe38ab8d	-0.18034191
5	0xbe12c318	-0.14332235
6	0xbeaea0e8	-0.34107137
7	0xbe4bb7b9	-0.19894303
8	0xbe4b8907	-0.1987649
9	0xbe08505e	-0.13311908
10	0x3f1e6369	0.6187044

fc4.weight f4 [11, 672]
0	0xbe90afd2	-0.2825914
1	0xbc7740fd	-0.015091178
2	0xbe0eb129	-0.13934769
3	0xbd92c426	-0.071663186
4	0xbdbc3bc6	-0.091910884
5	0x3e616976	0.22012886
6	0xbf226b69	-0.63445145
7	0xbe341b9a	-0.17588654
8	0xbec0a762	-0.37627703
9	0xbca5ee94	-0.020255364
10	0xbea35ee7	-0.31908342
11	0xbdcb1934	-0.099169165
12	0xbe4b31ee	-0.19843265
13	0xbe71420f	-0.23560356
14	0xbe21b454	-0.15791446
15	0x3e169eda	0.14709035
16	0xbd04ae70	-0.03239292
17	0x3e0ff50b	0.1405832
18	0xbe1ebda2	-0.15502027
19	0x3e2652c0	0.16242504
20	0x3e8489cb	0.25886378
21	0x3ea4e925	0.32209125
22	0xbda5da81	-0.08098317
23	0xbdffad4b	-0.12484225
24	0x3e32a251	0.17444731
25	0xbf1291ce	-0.5725373
26	0xbd9f20e4	-0.07769945
27	0xbf2ac776	-0.66710603
28	0xbefcc7d7	-0.49371216
29	0xbf7b9f07	-0.9828953
30	0xbf22bfe6	-0.63574064
31	0xbf1c1aa8	-0.60978174
32	0xbf82f4dd	-1.0230976
33	0xbf9eaa31	-1.2395688
34	0xbf261451	-0.6487475
35	0xbeaddf3f	-0.33959386
36	0xbdb42c7f	-0.087975495
37	0xbe585b9e	-0.21128699
38	0xbee5b591	-0.44865087
39	0xbf056701	-0.52110296
40	0xbf517dc9	-0.8183256
41	0xbeb0246a	-0.34402782
42	0xbe98db18	-0.29854655
43	0xbf1d0505	-0.61335784
44	0xbf159b9d	-0.5844057
45	0xbf02dab2	-0.5111495
46	0xbf4c7df7	-0.7987971
47	0xbf0a642d	-0.54059106
48	0xbecd1521	-0.40055183
49	0x3aec9eba	0.0018052675
50	0xbeb8435d	-0.35988894
51	0xbf5a6ed9	-0.8532539
52	0xbec61a83	-0.38692102
53	0xbf344dc1	-0.70431143
54	0xbf918ebf	-1.1371688
55	0xbf22b9e6	-0.6356491
56	0xbe71b57a	-0.23604384
57	0xbedb552b	-0.42838416
58	0xbed1b5b7	-0.4095895
59	0xbf394596	-0.72371805
60	0xbf71139e	-0.9417056
61	0xbf10fc12	-0.5663463
62	0xbde5141f	-0.111854784
63	0x3cfdfc7f	0.031004189
64	0xbe1fe4d9	-0.15614642
65	0xbde821a6	-0.11334543
66	0xbe47326f	-0.19452833
67	0x3d0e2ef7	0.034712758
68	0x3cad488d	0.021152759
69	0xbe42ba0e	-0.19016287
70	0xbe555901	-0.20834734
71	0xbdb23047	-0.087006144
72	0xbcfbd234	-0.030739881
73	0x3ca5e1eb	0.020249328
74	0xbe49576f	-0.1966226
75	0xbfacc98c	-1.3499007
76	0x3e5dd27f	0.21662329
77	0xbc0925f5	-0.008370866
78	0xbe81b89b	-0.25336155
79	0xbeafaecd	-0.3431305
80	0xbc89392f	-0.0167509
81	0xbef5bd1d	-0.47995844
82	0xbe4b3f2f	-0.19848321
83	0xbcf16902	-0.029469017
84	0xbe9f14a0	-0.31070423
85	0x3ec46b82	0.38363272
86	0x3d3f00e3	0.046631705
87	0xbe8d6027	-0.2761242
88	0xbe99d32b	-0.3004392
89	0x3ecdaeab	0.40172324
90	0x3dadd60d	0.084880926
91	0xbe2222c8	-0.1583358
92	0x3d2988e3	0.04139031
93	0x3d58aac2	0.052897222
94	0xbdf88d49	-0.12136323
95	0xbf21ceba	-0.63206065
96	0xbe3b2efe	-0.18279645
97	0xbc9edbba	-0.019391883
98	0xbe17d001	-0.14825441
99	0xbcbe32d9	-0.023217605
100	0xbecda61f	-0.40165803
101	0xbf195d22	-0.59907734
102	0x3e188d47	0.14897643
103	0xbe86184d	-0.26190415
104	0xbe640716	-0.22268328
105	0xbe17da82	-0.14829448
106	0xbd3f5c41	-0.04671884
107	0xbd525292	-0.051348276
108	0xbd5e4d79	-0.054273102
109	0xbcdaf367	-0.026727391
110	0xbd21f4c7	-0.03954008
111	0xbd5a1124	-0.053239003
112	0xbdb8c37c	-0.09021661
113	0xbc93ec8f	-0.018057136
114	0xbd840847	-0.06446891
115	0xbd0cf464	-0.034412757
116	0xbd11e2d8	-0.035616726
117	0xbcad4d2f	-0.021154968
118	0xbdc31bd6	-0.09526794
119	0xbd296a14	-0.04136093
120	0xbd0e208d	-0.03469901
121	0xbc83e8aa	-0.016102154
122	0xbd805e6e	-0.06268011
123	0xbd03347a	-0.032032467
124	0x3ca596b5	0.020213464
125	0xbd704517	-0.05865964
126	0x3e0420f3	0.12903194
127	0xbe06c4b6	-0.13160977
128	0x3de3ea25	0.11128644
129	0xbed65d4b	-0.41868052
130	0xbde9998f	-0.11406242
131	0xbeea7c54	-0.4579798
132	0xbe4d309a	-0.20038071
133	0xbe04cb4b	-0.12968175
134	0xbd6afae4	-0.057368174
135	0x3d87cb45	0.066305675
136	0xbeaaeeb7	-0.3338525
137	0xbd3ff274	-0.04686208
138	0xbb2e2f81	-0.0026578608
139	0xbed38e92	-0.4131971
140	0x3de509b0	0.11183488
141	0xbe39c72d	-0.18142386
142	0x3d48ede1	0.049054984
143	0xbe36e89a	-0.17862168
144	0xbe3504a8	-0.17677557
145	0xbf469d8a	-0.77584136
146	0xbeae6e45	-0.34068504
147	0xbe7e0f50	-0.24810529
148	0xbcf992da	-0.030465532
149	0xbe8f2a4b	-0.27961954
150	0xbec1c272	-0.37843663
151	0xbdb436e7	-0.08799534
152	0xbecd489e	-0.40094465
153	0xbeb8682e	-0.36016983
154	0xbe2a1b00	-0.16611862
155	0xbefae127	-0.48999903
156	0x3e79b8e1	0.24386932
157	0xbe5ce6b6	-0.21572384
158	0x3cc12d15	0.023581067
159	0xbe98f810	-0.29876757
160	0x3e398571	0.1811731
161	0xbe117a36	-0.14206776
162	0x3d11e3cf	0.035617646
163	0xbefff7a2	-0.49993616
164	0x3e89f079	0.2694128
165	0xbe845e3f	-0.25853154
166	0xbe02af60	-0.12762213
167	0xbdab8129	-0.08374245
168	0xbf0a9570	-0.54134274
169	0x3e21dde9	0.15807308
170	0x3c1a1174	0.009403575
171	0x3e08c77f	0.13357352
172	0xbee5e130	-0.44898367
173	0xbdd5bff0	-0.10437
174	0xbe4b17f9	-0.19833364
175	0xbe81f3fc	-0.25381458
176	0xbd3eed38	-0.04661295
177	0xbce5b8a0	-0.028042138
178	0xbd966cbc	-0.07344958
179	0xbe568817	-0.20950352
180	0xbf394701	-0.7237397
181	0xbea1622c	-0.31520212
182	0xbc4505b5	-0.012025286
183	0x3bf440d7	0.0074540186
184	0x39f0f2e6	0.0004595734
185	0xbc57261e	-0.013131646
186	0xbe11b16e	-0.1422784
187	0xbdfaf0ed	-0.12252984
188	0xbb0d273c	-0.0021538278
189	0xbdc50073	-0.09619226
190	0x3d3891e0	0.045060992
191	0x3e679bf8	0.22618091
192	0x3d32a673	0.04361577
193	0xbe1d0530	-0.1533401
194	0x3e3160a7	0.17322026
195	0x3d9c87e5	0.07643107
196	0xbdeb6ac7	-0.114949755
197	0xbe0fba72	-0.14035967
198	0xbe00a10b	-0.12561433
199	0xbe30120c	-0.17194384
200	0xbe9a894f	-0.30182883
201	0xbe051bc9	-0.1299888
202	0xbd14d1c8	-0.036332875
203	0xbbe63d5a	-0.0070263566
204	0x3ec3225b	0.3811215
205	0x3c7e22e5	0.015511249
206	0xbf140631	-0.5782195
207	0xbee1ec63	-0.4412566
208	0xbe3c5b8d	-0.18394299
209	0xbe6b4630	-0.22975993
210	0xbd3823c4	-0.044955984
211	0xbd8ec059	-0.06970281
212	0xbdb5ff43	-0.08886578
213	0xbdd3b7f7	-0.10337823
214	0xbd26bad2	-0.04070551
215	0xbcb6b7d8	-0.02230446
216	0xbcb2f6bb	-0.021846166
217	0xbd6a176a	-0.057151236
218	0xbd864eb2	-0.06557979
219	0xbd855543	-0.06510403
220	0xbdd626d6	-0.10456626
221	0xbddc10b1	-0.10745371
222	0xbcff4993	-0.031163013
223	0xbd4412f3	-0.047869634
224	0xbd726d11	-0.059186045
225	0xbdb9c030	-0.0906986
226	0xbe0259a2	-0.12729505
227	0xbdf23f4b	-0.118284784
228	0xbda7d051	-0.0819403
229	0xbde90e9d	-0.113797404
230	0xbd6ada6c	-0.05733721
231	0xbc4ecf17	-0.012622616
232	0xbe3d8da1	-0.18511058
233	0x3e03c1b5	0.12866862
234	0xbd75c69a	-0.060003854
235	0x3d97dd27	0.07415228
236	0xbef58347	-0.4795172
237	0xbea33d23	-0.3188258
238	0xbcfdecab	-0.030996641
239	0x3e26f7df	0.16305493
240	0x3d35e012	0.044403143
241	0x3c9ea88a	0.019367475
242	0x3b4e21da	0.0031453283
243	0xbf4e83db	-0.80669945
244	0xbd7a00e8	-0.06103602
245	0xbe4b6603	-0.19863133
246	0x3dbb00d0	0.09131014
247	0xbe5bd30d	-0.21467228
248	0xbd5c6ce6	-0.05381479
249	0xbeac123b	-0.3360766
250	0xbeb4080a	-0.35162383
251	0xbecfed2f	-0.40610644
252	0x3a873e58	0.0010318263
253	0xbc2599e8	-0.010107495
254	0xbd520c2a	-0.05128113
255	0xbda72bd5	-0.08162657

fc4.bias f4 [11]
0	0xbe9e351e	-0.308999
1	0xbe80a335	-0.25124517
2	0xbeb309fa	-0.3496855
3	0xbe9a73b0	-0.30166388
4	0xbe546c9a	-0.20744553
5	0xbebb84af	-0.36624667
6	0xbe8c0677	-0.27348682
7	0xbe5c6e79	-0.21526517
8	0xbe44dd4e	-0.19225046
9	0xbeba1811	-0.36346486
10	0x3f64aac4	0.8932307
